Checkpoints/ANN_Simple_128_v4.pth (torch, 23725 bytes, 15 tensors)

linear.0.weight f4 [30, 11]
0.12055821 0.6921505 0.25422776 -0.031287253 -0.07779461 -0.07887682 -0.24323408 -0.23767284
-0.24944031 0.026873337 -0.051434938 0.10107475 -0.4409955 0.24453579 -0.061449762 0.15235712
0.29541552 0.069068626 0.03539724 -0.029136922 -0.042495407 -0.032702018 -0.31548393 0.3829801
-0.26902375 0.18974549 0.1427747 0.043725546 -0.17612985 -0.065127455 0.061708707 0.10392605
-0.08118943 0.09479105 0.5694277 0.43473682 0.024356423 -0.016140824 -0.019438958 0.31749853
-0.17749596 -0.06120259 -0.112116285 -0.10427557 0.29394478 0.2406696 0.072443105 0.24640115
-0.25503325 -0.1158181 0.25988555 0.11147391 0.04831345 -0.21548256 0.11551734 -0.262873
-0.3790608 -0.40793827 0.18442717 -0.17863446 -0.043422274 -0.17170602 0.34858796 0.32692492
0.13631968 0.12042374 0.2602426 -0.19555596 -1.3843338 -0.138853 0.15771039 0.21702532
0.09517703 0.045445062 0.12378844 -0.10467552 0.2715082 -0.35085532 0.27969277 -0.50413126
0.20992541 -0.15211414 -0.009199104 0.3080815 0.24828245 -0.073342666 -0.0154871605 0.15793575
-0.11434472 0.47002372 0.14766036 0.20819373 -0.20476484 -0.28600883 0.22413653 -0.076549165
0.18514457 0.024368674 0.16284703 -0.021762552 -0.4797873 0.21486577 0.18956706 -0.041279934
0.24899268 0.031480163 0.03034246 0.30719975 0.33264652 0.10257223 0.29705524 -0.23129785
-0.34145597 -0.08436459 0.048382487 0.13436036 0.062968574 0.042455487 0.054288357 0.16599327
0.28998327 -6.993061e-34 3.949292e-34 -6.9937414e-34 6.330094e-34 -6.9928745e-34 -6.993809e-34 3.887987e-34
3.8880513e-34 -6.9927606e-34 -6.9924594e-34 6.9936165e-34 0.11250311 0.4214919 0.7191837 0.03653614
-0.04837373 -0.2515259 0.009809502 0.3241569 -0.13271251 0.009493281 -0.15693282 0.37716165
0.26431906 -0.08386909 0.175562 -0.05044374 -0.17350319 -0.2946566 0.0024331338 0.09027811
0.2875169 0.0601749 0.0090218205 -0.41250566 -0.39562768 -0.106472194 0.113057494 0.1855713
-0.072147414 0.046144627 0.024547469 0.2792639 0.229548 -0.02943261 0.13692497 0.5081404
-0.2153019 0.112346895 0.08860722 0.14903365 0.11449931 0.20600247 -0.04306932 0.08657666
-0.14531846 -0.40784737 0.36305624 0.11775378 -0.057001546 0.17091687 -0.06478136 6.9928396e-34
-6.992922e-34 0.34242004 0.26287648 -0.53283066 -0.010405591 0.38156593 0.002535625 -0.0029866812
0.0981216 -0.17419164 -6.9932804e-34 0.06886693 -0.17880392 0.078996874 -0.16323191 -0.2104094
0.40231764 -0.26731986 0.26740268 0.16040553 -0.15793693 -0.090396576 0.13814215 -0.09442821
-0.017153764 0.20225686 0.6919123 0.58628136 0.16616891 0.017813312 0.044219766 0.056031976
0.3373656 0.19866061 0.06781294 0.07371361 0.32454643 -0.12553293 0.77338034 -0.044803027
0.046567705 0.07213666 0.24137156 -0.3380237 -0.16640367 -0.18801294 -0.18714929 -0.23114403
0.41283873 0.8401329 0.14221613 -0.1973758 -0.08906326 -0.12627745 0.12972867 0.16025236
-0.049656257 0.25857428 -0.056558337 0.07469367 -0.12945768 -0.00819334 0.23509383 -0.03750575
-0.02003593 6.9927606e-34 -6.9927606e-34 -0.0073654368 0.089337386 0.42926082 -0.50501585 0.3397681
00000000: 39e7 f63d c630 313f 242a 823e 1027 00bd
00000010: c852 9fbd 2c8a a1bd 5b12 79be 8260 73be
00000020: 486d 7fbe 7925 dc3c 71ad 52bd 4700 cf3d
00000030: 2aca e1be 9767 7a3e bfb2 7bbd 8103 1c3e
00000040: b440 973e da73 8d3d b2fc 103d 8eb0 eebc
00000050: aa0f 2ebd 8df2 05bd 1c87 a1be f815 c43e
00000060: 7bbd 89be a44c 423e 8833 123e 8f19 333d
00000070: 625b 34be 8b61 85bd 45c2 7c3d 2ed7 d43d
00000080: a546 a6bd cf21 c23d 04c6 113f d395 de3e
00000090: 1f87 c73c c339 84bc 733e 9fbc 2b8f a23e
000000a0: 80c1 35be 91af 7abd 399d e5bd 6e8e d5bd
000000b0: ee7f 963e 1772 763e 0d5d 943d 9550 7c3e
000000c0: b893 82be 0a32 edbd b80f 853e 6f4c e43d
000000d0: 53e4 453d 76a7 5cbe 5b94 ec3d 4a97 86be
000000e0: 4214 c2be 49dd d0be 7ada 3c3e f4eb 36be
000000f0: 8edb 31bd b4d3 2fbe 1f7a b23e b462 a73e
00000100: 6397 0b3e b9a0 f63d 853e 853e d23f 48be
00000110: da31 b1bf 7b2f 0ebe d57e 213e e33b 5e3e
00000120: 2dec c23d 9a24 3a3d cb84 fd3d 1e60 d6bd
00000130: 1f03 8b3e 4fa3 b3be e433 8f3e bf0e 01bf
00000140: b0f6 563e cfc3 1bbe d7b7 16bc dcbc 9d3e
00000150: c13d 7e3e ae34 96bd dcbd 7dbc e9b9 213e
00000160: 912d eabd f3a6 f03e 4734 173e bd30 553e
00000170: e0ad 51be c06f 92be 0c84 653e cfc5 9cbd
00000180: 8a96 3d3e d0a0 c73c 5fc1 263e 6147 b2bc
00000190: aea6 f5be c605 5c3e de1d 423e 2615 29bd
000001a0: f0f7 7e3e 58f1 003d c090 f83c 4949 9d3e
000001b0: a550 aa3e 6411 d23d a017 983e 58d9 6cbe
000001c0: 51d3 aebe 58c7 acbd b72c 463d c395 093e
000001d0: abf5 803d cee5 2d3d 785d 5e3d 24fa 293e
000001e0: b078 943e 6262 6888 dc3c 0308 2c68 6888
000001f0: 7c5a 5208 cc60 6888 bf68 6888 5633 0108
00000200: e233 0108 d45f 6888 445d 6888 1c67 6808
00000210: 0868 e63d c9cd d73e 6c1c 383f eba6 153d
00000220: 8823 46bd 01c8 80be 09b8 203c e5f7 a53e
00000230: cae5 07be b589 1b3c ffb2 20be 551b c13e
00000240: d454 873e 8fc3 abbd 86c6 333e 189e 4ebd
00000250: d2aa 31be 3bdd 96be 3675 1f3b bbe3 b83d
00000260: 6a35 933e f579 763d 42d0 133c f133 d3be
00000270: b68f cabe 180e dabd b08a e73d 6706 3e3e
00000280: 06c2 93bd 2602 3d3d c617 c93c aefb 8e3e
00000290: a20e 6b3e a81c f1bc 0f36 0c3e 7d15 023f
000002a0: 1a78 5cbe 2116 e63d b477 b53d 479c 183e
000002b0: 9d7e ea3d 50f2 523e 7569 30bd 1b4f b13d
000002c0: 5dce 14be 5fd1 d0be 82e2 b93e e528 f13d
000002d0: 747a 69bd d504 2f3e 17ac 84bd 8060 6808
000002e0: 3461 6888 ae51 af3e bf97 863e 9767 08bf
000002f0: 367c 2abc 9c5c c33e ba2c 263b 32bc 43bb
00000300: faf3 c83d 4b5f 32be 4064 6888 1b0a 8d3d
00000310: 6018 37be 1dc9 a13d 4426 27be 9075 57be
00000320: 94fc cd3e 26de 88be 01e9 883e 5941 243e
00000330: 38ba 21be d721 b9bd 2375 0d3e 9463 c1bd
00000340: 0d86 8cbc 6c1c 4f3e 2a21 313f 8916 163f
00000350: 2f28 2a3e 39ed 913c c91f 353d c981 653d
00000360: 2fbb ac3e b06d 4b3e 83e1 8a3d 29f7 963d
00000370: f32a a63e b48b 00be 41fc 453f 6183 37bd
00000380: c7bd 3e3d 63bc 933d 1b2a 773e 7111 adbe
00000390: b965 2abe 7786 40be 10a4 3fbe 05b1 6cbe
000003a0: 995f d33e f312 573f 1ba1 113e e21c 4abe
000003b0: cc66 b6bd e04e 01be 98d7 043e 3219 243e
000003c0: 5c64 4bbd d963 843e b7a9 67bd fff8 983d
000003d0: 8e90 04be 5c3d 06bc 70bc 703e a19f 19bd
000003e0: 6422 a4bc d45f 6808 d45f 6888 c359 f1bb
000003f0: 85f6 b63d 13c8 db3e b848 01bf 16f6 ad3e

linear.0.bias f4 [30]
0.20486239 0.19102427 0.0030698653 -0.2333464 0.008164185 0.24218507 0.03426421 0.24654283
-0.21670869 -0.219052 -0.0974585 -6.992689e-34 0.15838869 0.079052754 0.20997855 0.2878252
-0.18259934 0.12499579 0.20384449 -0.15318014 -0.06787057 0.24051449 -0.19383651 0.021131447
-0.0037378524 -0.17148821 0.04905797 0.18851493 0.0507653 0.09971312
00000000: 72c7 513e de9b 433e cb2f 493b 5cf2 6ebe
00000010: 13c3 053c 5dff 773e a158 0c3d b975 7c3e
00000020: e2e8 5dbe 2b4f 60be 5298 c7bd 385f 6888
00000030: a530 223e 69e6 a13d 9e04 573e d35d 933e
00000040: 52fb 3abe cbfd ff3d 9cbc 503e 41db 1cbe
00000050: baff 8abd 6e49 763e 147d 46be db1b ad3c
00000060: c2f6 74bb 9b9a 2fbe 03f1 483d 0f0a 413e
00000070: 46ef 4f3d 6436 cc3d

linear.2.weight f4 [30, 30]
-0.13401647 -0.06464517 0.06493551 0.39212468 0.09736527 -0.117884815 0.02948106 0.065246224
-0.66458154 -0.096091725 -0.051313117 -6.86627e-34 0.10666035 0.12297671 0.06304514 0.03769267
-0.087683514 -0.027738946 -0.07333649 0.027252004 -1.0912577 -0.022704838 0.08286822 -0.13302124
0.051210247 -0.13456877 0.061995868 0.05189334 -0.12874617 0.14144604 -0.04453436 -0.06490537
0.20627347 0.22128 0.023661366 -0.21451604 0.033231117 0.0215914 0.15112019 -0.32113773
-0.011936631 -6.912458e-34 0.08466087 -0.09328233 -0.016834777 0.14460644 -0.20723091 -0.4675683
0.05343762 0.04830188 -0.665195 0.10631819 0.10784059 -0.17387345 -0.02154555 -0.005306634
0.21239264 -0.15728995 0.073152654 -0.08539366 -0.108871855 -0.010350228 -0.10724851 0.12569366
-0.19030178 -0.02205157 0.15627064 0.11797754 -0.9096987 0.16300242 -0.13011931 -6.992922e-34
0.05841815 -0.09410252 0.11892367 0.106191464 0.028810918 0.05247711 0.13660136 0.10619394
-0.7457821 0.13575831 -0.015536201 0.01161104 -0.20250101 -0.25959948 -0.04038497 -0.091047235
-0.500031 -0.18060283 0.11195433 -0.13765424 0.033458695 0.8282108 -0.018452555 -0.08966205
-0.0061572497 0.14895338 0.049892087 0.010795467 0.06424703 -6.8657448e-34 0.2805469 0.1209814
-0.23416904 0.12579608 -0.22550003 -0.29347575 0.19282937 0.29849043 -0.1622672 0.20882592
-0.039772928 0.19093938 -0.0029958899 0.12598173 -0.014513819 -0.20369717 -0.16927542 0.07254392
0.17859474 -0.16712695 0.0430873 0.6872771 0.20250969 -0.16419318 -0.2474515 -0.12573947
0.34021905 -0.23362458 -0.19289687 6.9924594e-34 0.26755193 0.1758609 -0.2394754 0.08499983
-0.109506525 -0.30907938 -0.06895499 0.30174407 -0.11769164 -0.05757705 0.08316627 0.23526299
0.06279923 0.020480666 0.08997588 -0.09881031 -0.17639692 0.06741443 0.20953977 0.100025624
-0.049691513 0.5952957 -0.03954308 -0.13532786 -0.00468872 -0.108119115 0.24093455 -0.1210379
-0.10155983 -6.8700776e-34 0.13138863 0.079561345 0.075581655 0.21164595 -0.23852314 -0.022783672
0.0223206 0.2769732 -0.26933637 0.09944556 0.054570746 0.056533396 0.013862371 0.110132605
0.16005124 -0.094001465 -0.033883404 -0.1917428 0.10169948 -0.08431241 -0.048274405 -1.0782231
0.049193885 -0.29349178 -0.1131615 0.12324629 0.276666 -0.16014978 -0.15891404 6.864931e-34
0.05839522 0.09604872 -0.17773397 -0.0134293195 -0.31326386 -1.5666784 -0.051908713 0.14046931
0.32318854 0.13001944 -0.097544774 -0.14529884 -0.009526425 -0.31238538 0.15640962 -0.4492259
-0.3020652 0.19619416 0.21465805 -0.17238854 0.060677655 -0.43893918 -0.0033090138 -0.4591033
-0.21126342 -0.1029786 0.26368722 -0.21234049 0.015419246 -6.994162e-34 0.20091234 0.14686114
-0.33391935 0.13393694 -0.19112961 -1.3979877 -0.13338119 0.31526637 0.12982346 0.1479785
-0.091386616 -0.18661523 0.019138064 -0.2317441 -0.19612484 -0.46438697 -0.27027747 -0.026650269
-0.03874144 0.14891101 -0.057150792 0.08395107 -0.21286556 0.07218223 -0.09984014 -0.060046088
-0.4156618 0.25282457 -0.024038112 -6.9928396e-34 0.15152931 -0.021649234 -0.05531602 0.058342095
00000000: 9d3b 09be b064 84bd e9fc 843d 91c4 c83e
00000010: 7167 c73d 986d f1bd 4482 f13c d09f 853d
00000020: 0422 2abf bdcb c4bd b42d 52bd c42b 6488
00000030: be70 da3d 37db fb3d cf1d 813d a163 1a3d
00000040: 6a93 b3bd c93c e3bc 7131 96bd 983f df3c
00000050: 55ae 8bbf 7fff b9bc d0b6 a93d b836 08be
00000060: d6c1 513d 65cc 09be 61ef 7d3d 1c8e 543d
00000070: 09d6 03be 3bd7 103e a969 36bd 1bed 84bd
00000080: 5a39 533e 3997 623e 7bd5 c13c 18aa 5bbe
00000090: 5a1d 083d 73e0 b03c 40bf 1a3e 2a6c a4be
000000a0: dc91 43bc b0b4 6588 ae62 ad3d ce0a bfbd
000000b0: 16e9 89bc b613 143e 5734 54be 1d65 efbe
000000c0: 68e1 5a3d 31d8 453d 384a 2abf 5abd d93d
000000d0: 87db dc3d e20b 32be 4b80 b0bc 46e3 adbb
000000e0: 757d 593e 9e10 21be 0fd1 953d dfe2 aebd
000000f0: 35f8 debd 0194 29bc 1ba5 dbbd d7b5 003e
00000100: 78de 42be 7ea5 b4bc 6905 203e 359e f13d
00000110: 04e2 68bf 1bea 263e ff3d 05be 3461 6888
00000120: df47 6f3d d2b8 c0bd 418e f33d e97a d93d
00000130: e004 ec3c 3df2 563d 3ae1 0b3e 357c d93d
00000140: 93eb 3ebf 3a04 0b3e 8d8b 7ebc 3b3c 3e3c
00000150: 6d5c 4fbe 39ea 84be b66a 25bd f976 babd
00000160: 0802 00bf f3ef 38be 5048 e53d 3cf5 0cbe
00000170: fc0b 093d 9f05 543f d029 97bc bda0 b7bd
00000180: c1c2 c9bb 3c87 183e a55b 4c3d 78df 303c
00000190: f293 833d 4c27 6488 d8a3 8f3e 19c5 f73d
000001a0: 02ca 6fbe b0d0 003e 7be9 66be 7442 96be
000001b0: 1075 453e bdd3 983e 5f29 26be 76d6 553e
000001c0: f0e8 22bd 9d85 433e b156 44bb 5b01 013e
000001d0: 5ecb 6dbc fe95 50be 8956 2dbe e891 943d
000001e0: 8ae1 363e 5423 2bbe 4f7c 303d 64f1 2f3f
000001f0: b35e 4f3e 4222 28be ed63 7dbe d9c1 00be
00000200: 3131 ae3e 483b 6fbe c286 45be 445d 6808
00000210: 91fc 883e e114 343e 0a39 75be 6414 ae3d
00000220: f544 e0bd a73f 9ebe 4638 8dbd 337e 9a3e
00000230: 5108 f1bd ead5 6bbd 1453 aa3d c8e8 703e
00000240: e29c 803d 12c7 a73c 4645 b83d 0f5d cabd
00000250: 65a1 34be 9410 8a3d 9891 563e 3cda cc3d
00000260: 5489 4bbd 4d65 183f edf7 21bd 6393 0abe
00000270: d6a3 99bb 8e6d ddbd 8cb7 763e b8e2 f7bd
00000280: 9afe cfbd 284c 6488 be8a 063e 0ff1 a23d
00000290: 8eca 9a3d b7b9 583e 693f 74be d3a4 babc
000002a0: b1d9 b63c 6ecf 8d3e 75e6 89be 1daa cb3d
000002b0: 9385 5f3d 908f 673d 001f 633c 348d e13d
000002c0: 79e4 233e d783 c0bd 53c9 0abd 3958 44be
000002d0: d147 d03d fcab acbd 62bb 45bd 3703 8abf
000002e0: 877f 493d 8e44 96be 37c1 e7bd 8d68 fc3d
000002f0: 2aa7 8d3e 4efe 23be 5dba 22be 6020 6408
00000300: d42f 6f3d 31b5 c43d e5ff 35be a606 5cbc
00000310: 1f64 a0be eb88 c8bf 3b9e 54bd 30d7 0f3e
00000320: f878 a53e d123 053e 8ec5 c7bd 38c9 14be
00000330: b914 1cbc faf0 9fbe d829 203e f000 e6be
00000340: 4aa8 9abe 1fe7 483e 52cf 5b3e 9f86 30be
00000350: 2289 783d a3bc e0be 0adc 58bb 960f ebbe
00000360: 7055 58be 72e6 d2bd 0302 873e c96f 59be
00000370: 01a1 7c3c c06b 6888 f7bb 4d3e c462 163e
00000380: 7af7 aabe c426 093e 7bb7 43be 43f1 b2bf
00000390: 1495 08be 986a a13e 71f0 043e ad87 173e
000003a0: e828 bbbd 1018 3fbe 6ec7 9c3c 534e 6dbe
000003b0: f3d4 48be 21c4 edbe cf61 8abe aa51 dabc
000003c0: 58af 1ebd 217c 183e f316 6abd 8aee ab3d
000003d0: 6ef9 59be 47d4 933d fd78 ccbd e3f2 75bd
000003e0: a0d1 d4be 3972 813e 93eb c4bc 8060 6888
000003f0: 802a 1b3e bc59 b1bc 0d93 62bd 1ff8 6e3d

linear.2.bias f4 [30]
0.014812778 -0.00039884017 0.03944664 -0.020025993 -0.028009353 -0.13026984 -0.043580845 -0.11137197
0.007981004 0.08030831 0.06374468 0.10342168 0.17363332 0.13488705 0.016114574 0.13198991
-0.06045009 0.1098141 0.14651924 -0.0077630747 0.094755076 -0.11101822 -6.9924594e-34 0.14910209
0.123095326 0.11938944 0.15604019 0.112392366 0.07627185 -0.08956436
00000000: 4bb1 723c 6c1b d1b9 cd92 213d 8d0d a4bc
00000010: df73 e5bc 7565 05be d481 32bd fd16 e4bd
00000020: c2c2 023c af78 a43d 928c 823d bfce d33d
00000030: efcc 313e d51f 0a3e b602 843c 5d28 073e
00000040: 839a 77bd 37e6 e03d 2409 163e 6461 febb
00000050: f30e c23d 855d e3bd 445d 6888 38ae 183e
00000060: 6719 fc3d 7382 f43d 00c9 1f3e f82d e63d
00000070: 6a34 9c3d 856d b7bd

linear.4.weight f4 [1, 30]
0.3306665 0.4778066 0.44117504 0.32732955 0.25051007 0.37199894 -1.226746 -1.5305943
0.55141973 -0.30594265 -0.321554 -0.578168 0.22504134 -1.254798 -1.1242393 0.3231471
-1.2127708 0.0802434 -0.45265996 1.1979523 -0.40195307 0.33329102 -6.9934016e-34 0.5404558
-0.92450273 1.0046252 0.14109762 0.27685532 0.24989246 -1.0168339
00000000: 1f4d a93e 11a3 f43e b2e1 e13e bd97 a73e
00000010: db42 803e a576 be3e 0306 9dbf 84ea c3bf
00000020: d829 0d3f 84a4 9cbe baa2 a4be d102 14bf
00000030: 3d71 663e 399d a0bf 13e7 8fbf 8973 a53e
00000040: 133c 9bbf a756 a43d 0cc3 e7be 8056 993f
00000050: cbcc cdbe 1fa5 aa3e 4865 6888 505b 0a3f
00000060: 36ac 6cbf 8f97 803f e57b 103e fbbf 8d3e
00000070: cfe3 7f3e 9d27 82bf

exp_avg f4 [30, 11]
-0.00027869048 -0.00016524066 -5.1210376e-05 -0.00018855074 -0.00020023932 -9.002929e-05 -1.8234648e-05 2.0259424e-05
-0.0001504168 -3.0097357e-05 -0.00039330096 0.00034993383 0.00016546651 1.1666725e-05 0.00015806741 0.0001679005
8.219829e-05 -0.00025363947 -0.00030983664 0.00020122921 4.05395e-05 0.00057718385 -0.00017767723 -8.684532e-05
-3.2286625e-05 -0.00014314393 -0.00014282946 -4.0920168e-05 -1.2309384e-05 3.0868623e-06 -0.000121381796 -0.00013622663
-3.1888238e-05 0.0006192534 0.00021165737 -2.2559427e-05 9.814148e-05 0.00015923279 7.896687e-05 -0.0014981073
-0.0016433668 0.000433607 -0.000669216 0.002261407 -0.00011200672 -4.1151157e-05 2.783352e-06 -2.3703757e-05
-3.0844043e-05 -1.6170538e-06 0.0003224656 0.00035331788 -6.826414e-05 -4.4824374e-06 -0.00033662407 0.00014121959
0.00012928582 -2.0688265e-05 8.780899e-05 9.518028e-05 3.175213e-05 -0.00015933582 -0.00016877838 0.0003270109
0.00016703895 -5.7191013e-05 -0.00013448414 -3.0447698e-05 5.394325e-05 -2.5627294e-05 -1.0662763e-05 -1.2855913e-05
0.0001224788 0.00015212757 5.5797776e-05 -3.6626876e-05 -0.0002898891 -0.00028448124 -0.000116397714 -3.4370776e-05
-4.0048624e-05 -3.5483696e-05 -5.6587207e-05 6.862574e-05 0.000117953794 8.211613e-05 -5.573493e-05 -0.00048738898
-0.0012419041 -0.0006968318 -0.00025083194 -0.0006349493 -0.00065845373 -0.00040159904 0.0002514474 0.0003973517
-0.0012209265 6.292019e-07 -0.001608697 0.00022093643 0.00013694263 1.46790635e-05 0.00029854145 0.0003055107
4.1022533e-05 3.80721e-05 2.9718557e-08 -6.883298e-05 0.00041740388 1.4850303e-06 9.481787e-05 6.1555045e-05
-1.602748e-06 -1.527176e-05 -1.6967655e-05 2.9467326e-05 -4.4936845e-05 -5.1274816e-05 0.00014011319 -6.6359626e-06
7.658382e-05 -6.99311e-40 3.94935e-40 -6.9938e-40 6.33016e-40 -6.99293e-40 -6.99387e-40 3.88804e-40
3.88811e-40 -6.99282e-40 -6.99252e-40 6.99367e-40 0.00027871583 9.389077e-05 1.8383129e-05 3.1089243e-05
1.4872407e-05 6.56605e-05 9.026917e-05 5.0353265e-05 -0.00011524848 0.00012824353 0.00031414162 -0.00016508266
-8.6746004e-05 -2.624668e-05 -7.434051e-05 -7.796109e-05 -4.7959908e-05 -1.4185461e-05 1.4006134e-05 6.515621e-06
-7.5922224e-05 -0.00023056974 0.0005559018 0.000269687 0.00011805509 0.00028889475 0.00030051082 0.00013556867
-0.00010904155 -0.0001726624 0.0003046337 1.18586395e-05 0.0006897811 0.00019494092 5.9276383e-05 1.8155333e-08
3.7727375e-05 3.510212e-05 3.1231233e-05 -0.00015348893 -0.00019092966 -1.5463156e-05 0.000100840276 0.00031067082
-7.276432e-05 -3.2072392e-05 -4.668282e-05 -8.253526e-05 -8.434898e-05 -3.4213936e-05 -1.7983679e-05 6.9929e-40
-6.99298e-40 0.00021530438 -0.0004118069 -0.002255873 -0.0015837711 -0.0008857157 -0.0011017155 -0.0011471547
-0.000972156 -8.9105626e-05 -6.99333e-40 -0.004021424 -1.783887e-07 -0.000978167 0.00054001855 0.00028447222
0.0001023785 0.00024432363 0.00025598088 0.00016039243 3.66682e-05 -4.0586634e-05 0.00013375634 0.00014744881
0.00070298574 -6.307314e-05 -7.398201e-05 -3.2548895e-05 -0.00012132134 -0.00013906453 -3.0483348e-05 5.26976e-05
5.970858e-05 -0.00018535089 4.644387e-05 -0.00012032834 0.0014202789 0.0012148656 0.0007183883 0.0013055829
0.0013513328 0.0008488542 0.0018225431 0.0017398744 0.0016454182 -0.00032108993 0.0012236923 -9.411109e-06
-3.6058085e-05 -2.5853471e-05 -4.0138955e-05 -4.6889287e-05 -1.7986393e-05 -9.6904914e-05 -0.000105952364 -9.508286e-05
5.657983e-05 4.596709e-05 -4.7973e-06 -3.4965035e-07 -8.576945e-06 -2.3444034e-06 -2.9794114e-06 -3.1623651e-06
-1.0939403e-06 6.99282e-40 -6.99282e-40 -7.3656317e-09 -1.1723616e-05 0.0007829182 0.00043003517 5.584289e-05
00000000: 341d 92b9 7444 2db9 b9ca 56b8 b4b5 45b9
00000010: 55f7 51b9 1bce bcb8 9cf6 98b7 c8f2 a937
00000020: 34b9 1db9 9579 fcb7 f633 ceb9 5377 b739
00000030: 1481 2d39 34bc 4337 e6be 2539 730e 3039
00000040: df61 ac38 eafa 84b9 9271 a2b9 0e01 5339
00000050: f508 2a38 274e 173a de4e 3ab9 ba20 b6b8
00000060: 806b 07b8 e818 16b9 7ec4 15b9 b2a1 2bb8
00000070: 6784 4eb7 e427 4f36 5b8e feb8 0fd8 0eb9
00000080: bcbf 05b8 6455 223a 58f0 5d39 003e bdb7
00000090: 4ed1 cd38 baf7 2639 049b a538 245c c4ba
000000a0: 3d66 d7ba bf55 e339 536e 2fba 1d34 143b
000000b0: 26e5 eab8 b899 2cb8 a0c9 3a36 6ed7 c6b7
000000c0: 8a5e 01b8 8c09 d9b5 9a10 a939 863d b939
000000d0: 0829 8fb8 d867 96b6 eb7c b0b9 5814 1439
000000e0: e690 0739 b68b adb7 1826 b838 869b c738
000000f0: 972d 0538 6213 27b9 1afa 30b9 a972 ab39
00000100: 2d27 2f39 62e0 6fb8 5004 0db9 ef69 ffb7
00000110: 2041 6238 32fa d6b7 38e4 32b7 baaf 57b7
00000120: a76d 0039 6f84 1f39 6808 6a38 cf9f 19b8
00000130: 42fc 97b9 6d26 95b9 8c1a f4b8 5729 10b8
00000140: e2f9 27b8 54d4 14b8 0d58 6db8 2aeb 8f38
00000150: f65d f738 c335 ac38 edc4 69b8 3e88 ffb9
00000160: 63c7 a2ba 97ab 36ba 1882 83b9 ba72 26ba
00000170: 159c 2cba b68d d2b9 b3d4 8339 a453 d039
00000180: 7f07 a0ba 6de6 2835 eada d2ba 2cab 6739
00000190: 4298 0f39 1946 7637 8e85 9c39 f42c a039
000001a0: 9c0f 2c38 9baf 1f38 cc47 ff32 6d5a 90b8
000001b0: 00d7 da39 4151 c735 f5d8 c638 1d17 8138
000001c0: 001e d7b5 db1b 80b7 c355 8eb7 9a30 f737
000001d0: 927a 3cb8 ea0f 57b8 59eb 1239 7caa deb6
000001e0: a09b a038 659d 0780 eb4c 0400 969d 0780
000001f0: 97e4 0600 589d 0780 9b9d 0780 d43b 0400
00000200: d93b 0400 509d 0780 3b9d 0780 8d9d 0700
00000210: 9b20 9239 39e7 c438 7835 9a37 d265 0238
00000220: 8084 7937 36b3 8938 e44e bd38 6832 5338
00000230: 8eb1 f1b8 1c79 0639 60b3 a439 0a1a 2db9
00000240: 68eb b5b8 512c dcb7 42e7 9bb8 0b7f a3b8
00000250: 8f28 49b8 17fe 6db7 e3fb 6a37 c2a0 da36
00000260: 6f38 9fb8 18c5 71b9 f0b9 113a c764 8d39
00000270: 5894 f738 cc76 9739 e18d 9d39 7027 0e39
00000280: 3dad e4b8 b60c 35b9 3eb7 9f39 78f4 4637
00000290: 6dd2 343a 0e69 4c39 889f 7838 00f4 9b32
000002a0: 763d 1e38 9d3a 1338 48fe 0238 dff1 20b9
000002b0: 4a34 48b9 e0b6 81b7 367a d338 88e1 a239
000002c0: 0c99 98b8 7885 06b8 4ccd 43b8 c816 adb8
000002d0: 84e4 b0b8 ef80 0fb8 a8db 96b7 569d 0700
000002e0: 5c9d 0780 54c3 6139 c9e7 d7b9 45d7 13bb
000002f0: 8a96 cfba 602f 68ba 7067 90ba 205c 96ba
00000300: 49d8 7eba 38de bab8 759d 0780 26c6 83bb
00000310: 1d8b 3fb4 d735 80ba 0890 0d3a 3725 9539
00000320: 0ab4 d638 9018 8039 2c35 8639 042f 2839
00000330: 2ecc 1938 913b 2ab8 f240 0c39 7d9c 1a39
00000340: 9348 383a 2246 84b8 ca26 9bb8 1c85 08b8
00000350: e66d feb8 dad1 11b9 7eb6 ffb7 9e07 5d38
00000360: 996f 7a38 c05a 42b9 bacc 4238 c958 fcb8
00000370: a728 ba3a 203c 9f3a 3952 3c3a 1820 ab3a
00000380: 341f b13a a485 5e3a 66e2 ee3a 7f0c e43a
00000390: 13ab d73a f657 a8b9 4d64 a03a 68e4 1db7
000003a0: 133d 17b8 e8df d8b7 e05a 28b8 fdaa 44b8
000003b0: 7ce1 96b7 6e39 cbb8 be32 deb8 3967 c7b8
000003c0: 2150 6d38 c9cc 4038 7ef8 a0b6 94b7 bbb4
000003d0: b3e5 0fb7 8b54 1db6 e6f1 47b6 0539 54b6
000003e0: 81d3 92b5 509d 0700 509d 0780 c814 fdb1
000003f0: 8cb0 44b7 c03c 4d3a 5876 e139 d938 6a38

exp_avg_sq f4 [30, 11]
5.1176235e-06 2.0950263e-06 3.310147e-07 3.4307227e-06 3.51634e-06 6.977786e-07 1.8740778e-07 7.7989235e-08
6.7940564e-06 8.6272803e-07 1.2665265e-05 7.658306e-06 3.1011234e-06 4.986743e-07 4.9405407e-06 5.0676435e-06
1.0464807e-06 6.0707634e-07 4.476043e-07 1.0617022e-05 1.1787316e-06 1.851614e-05 3.4418433e-06 1.4660474e-06
1.857408e-07 3.2255657e-06 3.3150852e-06 4.867095e-07 6.525858e-08 1.3503843e-08 8.049206e-06 8.589078e-07
5.4806587e-06 2.8379456e-05 1.184519e-05 3.6229735e-06 7.794934e-06 7.860349e-06 2.603219e-06 1.5296673e-05
1.5042181e-05 2.4636045e-06 2.8793214e-05 2.3104516e-05 3.0284918e-06 1.218292e-06 2.3568913e-07 2.0138016e-06
2.0652453e-06 4.1215077e-07 3.787022e-07 3.1580706e-07 3.8856956e-06 4.5145475e-07 7.4073714e-06 1.43342395e-05
5.638424e-06 9.396233e-07 9.26368e-06 9.4993e-06 1.9140784e-06 4.8363324e-07 1.8913212e-07 1.9731384e-05
2.0317907e-06 3.40284e-05 7.9496147e-07 1.67905e-07 2.2201315e-08 3.903494e-07 3.8930332e-07 8.147515e-08
1.8232225e-07 1.640259e-07 3.1280345e-07 6.323528e-07 1.1567686e-06 1.7343673e-06 7.448508e-07 8.5505945e-08
1.2230308e-06 1.2545111e-06 2.5069758e-07 2.1919168e-07 1.7931262e-07 2.278551e-06 4.341738e-07 4.4212316e-06
0.000115562114 4.69901e-05 6.9035127e-06 7.79798e-05 8.0005586e-05 1.612456e-05 3.981837e-06 1.338199e-06
0.00015354562 3.482607e-12 0.0003240355 9.819174e-06 3.8633384e-06 5.8021806e-07 3.2810974e-06 3.4975653e-06
1.3328424e-06 2.315756e-08 1.7744184e-13 3.5982255e-05 2.8045363e-06 6.1370833e-09 1.1277297e-06 4.3456555e-07
5.7270185e-08 7.759048e-07 7.9287724e-07 1.4933647e-07 8.8978986e-08 6.389569e-08 1.2286021e-06 4.0696824e-07
2.6563039e-06 7e-43 7e-43 7e-43 7e-43 7e-43 7e-43 7e-43
7e-43 7e-43 7e-43 7e-43 1.1914641e-06 3.3786142e-07 1.5136166e-07 5.8815357e-07
5.9399554e-07 1.3700334e-07 1.16547135e-07 8.823763e-08 4.284752e-07 8.053196e-07 2.3761938e-06 4.3261085e-07
1.7211273e-07 3.4086856e-08 3.2594912e-07 3.317117e-07 6.1364474e-08 2.039289e-08 9.015132e-09 4.161148e-07
2.0509312e-07 1.2107092e-06 1.5647267e-05 6.3969064e-06 1.0235161e-06 1.03438615e-05 1.0605007e-05 2.0944367e-06
8.0848287e-07 4.701179e-07 1.9599269e-05 2.9431114e-06 3.8692684e-05 8.031313e-07 2.886694e-07 5.0646097e-08
5.7247865e-07 5.82013e-07 1.1249269e-07 1.9619691e-07 1.748783e-07 7.303858e-07 4.3776345e-07 1.8346208e-06
2.2487577e-06 9.317182e-07 1.7009512e-07 5.6937342e-06 5.7571333e-06 3.0634968e-07 7.544614e-08 7e-43
7e-43 2.2204192e-06 7.033805e-06 4.9140006e-05 2.351109e-05 5.050938e-06 3.489709e-05 3.6374706e-05
8.1089265e-06 9.4493413e-07 7e-43 0.00012142053 8.377228e-11 0.00011433535 5.801209e-06 2.3141413e-06
3.7920367e-07 3.9165025e-06 4.014881e-06 8.015334e-07 1.4194997e-07 1.09699245e-08 8.0680475e-06 7.181236e-07
1.5164851e-05 3.6750182e-06 1.391857e-06 3.0567705e-07 2.2175477e-06 2.2697668e-06 4.680904e-07 1.2698996e-07
5.2778752e-08 4.3236546e-06 8.489994e-07 8.339391e-06 0.000101340906 3.587873e-05 7.1374616e-06 6.3390835e-05
6.454218e-05 1.2715663e-05 1.8235802e-05 1.6325672e-05 0.000107899294 2.7528431e-05 0.00022268343 4.415826e-07
1.5146452e-07 3.2796105e-08 2.5299076e-07 2.579411e-07 6.0018195e-08 4.8725745e-08 3.9215884e-08 4.6742989e-07
3.4561538e-07 7.7959544e-07 9.859517e-07 4.4036454e-07 5.560859e-08 2.61955e-06 2.6669202e-06 1.4544004e-07
3.5897642e-08 7e-43 7e-43 6.0140097e-09 4.3264126e-06 1.251348e-05 4.976005e-06 7.890369e-07
00000000: 0db8 ab36 4798 0c36 50b6 b134 5e3b 6636
00000010: 43fa 6b36 fb4e 3b35 423a 4934 097b a733
00000020: 80f8 e336 3896 6735 e67c 5437 2c7c 0037
00000030: e51c 5036 a3dc 0535 ecc6 a536 ba0a aa36
00000040: ce74 8c35 f8f5 2235 444e f034 c31f 3237
00000050: e934 9e35 1c53 9b37 6bfa 6636 01c5 c435
00000060: 0b70 4734 cc76 5836 bb78 5e36 6ca6 0235
00000070: 4924 8c33 88fe 6732 140b 0737 b28f 6635
00000080: 80e6 b736 6b10 ee37 b4ba 4637 3622 7336
00000090: fdc6 0237 f1df 0337 f6b2 2e36 5b51 8037
000000a0: ad5d 7c37 6754 2536 f588 f137 92d0 c137
000000b0: 183d 4b36 3284 a335 bc11 7d34 d924 0736
000000c0: a598 0a36 9245 dd34 6f50 cb34 318c a934
000000d0: df61 8236 785f f234 d68c f836 177d 7037
000000e0: b231 bd36 6c3a 7c35 346b 1b37 2f5f 1f37
000000f0: 9e73 0036 06d3 0135 3e14 4b34 d384 a537
00000100: e659 0836 b7b9 0e38 5665 5535 6049 3434
00000110: 35b5 be32 3791 d134 7101 d134 70f7 ae33
00000120: 5cc4 4334 191f 3034 61ef a734 f4be 2935
00000130: 4442 9b35 68c8 e835 c2f1 4735 649f b733
00000140: 0527 a435 ac60 a835 9d97 8634 f35a 6b34
00000150: 1489 4034 35e9 1836 6518 e934 175a 9436
00000160: f059 f238 3c17 4538 b9a4 e736 1689 a338
00000170: acc8 a738 3b43 8737 b89b 8536 2b9c b335
00000180: 1701 2139 1211 752c 4fe3 a939 08bd 2437
00000190: d3a1 8136 48c0 1b35 d330 5c36 b7b7 6a36
000001a0: 1ee4 b235 03ec c632 21c8 472a a7eb 1638
000001b0: 9135 3c36 5bde d231 7f5c 9735 3c4e e934
000001c0: 3cf9 7533 c647 5035 1cd6 5435 4c59 2034
000001d0: b714 bf33 0737 8933 72e6 a435 4a7d da34
000001e0: f442 3236 f401 0000 f401 0000 f401 0000
000001f0: f401 0000 f401 0000 f401 0000 f401 0000
00000200: f401 0000 f401 0000 f401 0000 f401 0000
00000210: 65ea 9f35 5263 b534 fa85 2234 9be1 1d35
00000220: 1073 1f35 311b 1334 7748 fa33 267d bd33
00000230: 2f09 e634 242d 5835 b376 1f36 9541 e834
00000240: fdcd 3834 e566 1233 1bfe ae34 1c16 b234
00000250: 7ac7 8333 702c af32 f8e0 1a32 6266 df34
00000260: 9137 5c34 a77f a235 4042 8337 02a5 d636
00000270: bf5f 8935 8c8a 2d37 29ec 3137 268e 0c36
00000280: 8506 5935 8364 fc34 1c69 a437 4582 4536
00000290: f449 2238 c396 5735 6cfa 9a34 f985 5933
000002a0: 6fac 1935 a13b 1c35 8393 f133 32aa 5234
000002b0: 2ec6 3b34 bb0f 4435 c005 eb34 173d f635
000002c0: 5de9 1636 301b 7a35 64a3 3634 ce0c bf36
000002d0: 662d c136 6178 a434 f404 a233 f401 0000
000002e0: f401 0000 8302 1536 ed03 ec36 ae1b 4e38
000002f0: ae39 c537 3a7b a936 775e 1238 0b91 1838
00000300: 930b 0837 61a7 7d35 f401 0000 27a3 fe38
00000310: 9a37 b82e 53c7 ef38 02a8 c236 a54c 1b36
00000320: 5b95 cb34 806a 8336 91b7 8636 f528 5735
00000330: e96a 1834 3d76 3c32 005c 0737 14c5 4035
00000340: 8a6c 7e37 55a0 7636 d8cf ba35 ef1b a434
00000350: 2ed1 1436 4c52 1836 db4d fb34 bc5a 0834
00000360: daae 6233 e913 9136 cbe6 6335 69e9 0b37
00000370: fc86 d438 7e7c 1638 547e ef36 b2f0 8438
00000380: d25a 8738 5b55 5537 16f9 9837 1df3 8837
00000390: fe47 e238 dbec e637 2180 6939 a712 ed34
000003a0: 40a2 2234 b3db 0c33 c9d2 8734 287b 8a34
000003b0: 5ae3 8033 8646 5133 526e 2833 13f3 fa34
000003c0: 048d b934 6445 5135 0b55 8435 3e6b ec34
000003d0: 4bd6 6e33 87cb 2f36 57f9 3236 412a 1c34
000003e0: e02d 1a33 f401 0000 f401 0000 caa3 ce31
000003f0: 9a2b 9136 fdf0 5137 8ff7 a636 34ce 5335

exp_avg f4 [30]
-0.00055283896 0.0005093759 -0.0002864262 0.00038265262 -5.6104516e-05 0.00026739022 -0.00011889247 -0.0003431249
-0.002432155 0.00034909387 0.00015813603 -6.99275e-40 0.0003776044 -0.00028633157 0.0008332416 0.0002050421
-0.00019729044 -0.0049996134 0.00094387174 -0.00020035749 0.004288708 -9.874671e-05 -1.2006782e-05 0.0012684782
-3.1089978e-05 0.0008320889 0.0004940763 -0.00030841827 -0.00020816916 -0.00078476995
00000000: 65ec 10ba a387 053a 792b 96b9 c49e c839
00000010: c451 6bb8 8230 8c39 e955 f9b8 72e5 b3b9
00000020: ca64 1fbb 9606 b739 51d1 2539 4b9d 0780
00000030: 34f9 c539 c61e 96b9 e66d 5a3a 9200 5739
00000040: c0df 4eb9 ccd3 a3bb 296e 773a 0e17 52b9
00000050: 4a88 8c3b 3c16 cfb8 bc70 49b7 1143 a63a
00000060: 9c66 02b8 8a20 5a3a e684 013a 33b3 a1b9
00000070: fc47 5ab9 05b9 4dba

exp_avg_sq f4 [30]
2.0645053e-05 3.0921696e-05 1.4352975e-05 6.789659e-05 1.2086105e-05 5.7092002e-05 2.3089342e-06 7.360567e-06
0.00047955388 3.945862e-05 4.3885807e-06 7e-43 3.935943e-06 1.8030906e-06 6.2340805e-05 3.2163634e-06
9.128934e-06 0.00024097576 2.3844494e-05 1.3911153e-05 0.00037308622 1.7044554e-06 4.3436235e-06 4.9816546e-05
6.352773e-07 5.5159257e-05 9.337719e-06 5.908296e-06 1.5073778e-06 5.3466363e-05
00000000: ea2e ad37 ebb1 0138 8fcd 7037 b463 8e38
00000010: 6dc5 4a37 1276 6f38 30f3 1a36 cafa f636
00000020: a26c fb39 5f80 2538 9f41 9336 f401 0000
00000030: 7e11 8436 b901 f235 f7bc 8238 b4d8 5736
00000040: 7928 1937 70ae 7c39 a905 c837 f263 6937
00000050: c99a c339 a4c4 e435 71bf 9136 1cf2 5038
00000060: ec87 2a35 cd5a 6738 33a9 1c37 e03f c636
00000070: 1b51 ca35 1241 6038

exp_avg f4 [30, 30]
7.559187e-05 3.0364892e-05 2.605465e-05 -1.5789785e-05 2.7804683e-05 1.2401786e-05 7.3238785e-05 -3.1550153e-06
-1.3263844e-06 1.6871529e-05 6.325268e-05 -6.86632e-40 -1.3724894e-06 0.00012775094 8.417333e-05 4.6924855e-05
6.6767775e-06 -3.009841e-06 2.621011e-05 3.6258247e-05 -1.0550053e-05 5.9063634e-05 8.009038e-07 3.0593175e-05
1.1868541e-05 3.11346e-05 3.7058599e-06 -4.421325e-06 1.1090649e-05 1.0735153e-05 0.00012836541 1.5427202e-05
1.8430168e-06 -1.6944883e-05 5.7251673e-05 -5.603455e-06 0.000107258486 -1.1987229e-05 2.2066306e-06 1.0075988e-06
0.00010346583 -6.91251e-40 -2.4220022e-05 0.0001404024 9.63772e-05 6.101306e-05 -1.2867613e-06 -1.5139592e-06
3.0769457e-05 2.5511777e-05 -5.980686e-06 0.000110002526 1.168279e-06 4.814583e-06 2.0727095e-05 8.120518e-05
3.3443553e-07 -2.5028514e-05 1.0552302e-05 -1.9417193e-05 0.000111563364 2.6310068e-05 1.8834635e-05 -1.3898631e-05
4.3023603e-05 1.27594485e-05 9.141956e-05 -3.7999525e-06 -4.5335048e-07 9.46409e-06 7.713234e-05 -6.99298e-40
3.3960096e-06 0.00015184833 9.590566e-05 7.1756316e-05 4.954307e-06 -4.915205e-06 3.5012865e-05 4.852945e-05
-9.03762e-06 9.353658e-05 1.0010173e-06 2.8203496e-05 1.6834201e-05 4.6002926e-05 1.3471854e-06 -1.1856531e-05
8.735889e-06 1.602699e-05 0.000119566466 3.4781748e-05 2.979511e-05 -2.0969379e-05 4.2012973e-05 1.0432518e-05
8.5557185e-05 -2.429906e-06 1.921505e-06 1.9024515e-05 8.87818e-05 -6.8658e-40 -5.6077515e-06 0.0001631022
0.00010589846 6.433889e-05 9.812454e-06 -3.8157864e-06 3.6025707e-05 4.840945e-05 -8.226907e-06 0.0001016091
7.075888e-07 2.3350794e-05 2.822974e-05 6.31928e-05 1.3886167e-05 -4.1857256e-06 1.1312578e-05 9.264348e-06
8.717657e-05 2.3846804e-05 2.2608116e-05 -1.5994683e-05 2.8120801e-05 7.1713403e-06 5.8450496e-05 -3.5908488e-06
1.7520301e-06 1.3695892e-05 6.2246225e-05 6.99241e-40 -5.705514e-06 0.00011900788 7.5478616e-05 4.4742246e-05
6.866236e-06 -3.0337783e-06 2.7399952e-05 3.5212885e-05 -6.542845e-06 7.5047516e-05 5.848378e-07 1.4791087e-05
2.2354621e-05 4.5071825e-05 1.0983968e-05 -4.253974e-06 8.712959e-06 6.3559282e-06 0.00013590662 3.9693856e-05
3.369223e-05 -2.417693e-05 4.772774e-05 1.1749447e-05 9.72352e-05 -3.0967003e-06 2.3679581e-06 2.1404421e-05
0.00010070535 -6.87013e-40 -6.631566e-06 0.00018517081 0.0001205586 7.310693e-05 1.1096841e-05 -4.025773e-06
4.0701507e-05 5.489317e-05 -9.434527e-06 0.000115270625 9.0392314e-07 2.6330392e-05 3.209063e-05 7.178346e-05
1.5877702e-05 -4.730651e-06 1.30148655e-05 1.0193973e-05 -0.00032197608 -0.00017956914 -8.439206e-05 -1.3419649e-05
-0.00023824288 -7.1296745e-05 -0.00012581344 -0.00016395195 -1.3495119e-05 -3.286889e-05 -0.00014875153 6.86499e-40
-0.0002525786 -0.00039093697 -0.00022852563 -0.00039211908 -1.4293468e-05 1.7417997e-05 -0.00010115409 -0.00036537382
-4.7019937e-05 -0.00042846287 -3.7415311e-06 -0.000106645275 -8.6184846e-05 -0.00014170526 -0.00013121477 -3.8376595e-05
-4.2594265e-06 -9.091007e-05 -0.0002848151 -6.826111e-05 -8.655064e-05 6.47247e-05 -8.888499e-05 -5.3172193e-05
-0.00012890776 -1.8356146e-05 -1.387401e-05 -2.5019817e-05 -0.00013635766 -6.9941e-40 7.4639684e-06 -0.00034703023
-0.00018719918 -0.00018605872 -1.2366329e-05 1.7820863e-05 -0.00010686983 -0.00016008024 1.0346266e-05 -0.00030417464
4.722366e-06 -3.0951203e-05 -0.00011943168 -0.00014110512 -5.4918135e-05 -3.1133757e-05 -2.58634e-06 -0.00010914294
8.525294e-05 6.7220426e-06 1.8717414e-05 -2.0305279e-05 -1.1040676e-05 -1.8000901e-07 5.029479e-05 -1.1840122e-05
1.6996491e-06 1.458814e-05 4.7770223e-05 -6.9929e-40 -2.6613561e-05 0.000103153514 7.461495e-05 8.427873e-06
00000000: 1487 9e38 1cb8 fe37 ef8f da37 4e74 84b7
00000010: 1a3e e937 4411 5037 c697 9938 c0ba 53b6
00000020: 3906 b2b5 5587 8d37 86a6 8438 0d7a 0780
00000030: 6036 b8b5 e2f4 0539 3686 b038 2ed1 4438
00000040: 1509 e036 adfc 49b6 c8dd db37 ff13 1838
00000050: 2200 31b7 18bb 7738 b1fd 5635 2c51 0038
00000060: ff1e 4737 8696 0238 30b2 7836 e45a 94b6
00000070: fa11 3a37 221b 3437 d499 0639 aa69 8137
00000080: 935d f735 dc24 8eb7 8421 7038 5005 bcb6
00000090: f6ef e038 c21c 49b7 a015 1436 d53c 8735
000000a0: cbfb d838 ed86 0780 1a2c cbb7 fb38 1339
000000b0: 1e1e ca38 46e8 7f38 c8b4 acb5 3e33 cbb5
000000c0: 740e 0138 2002 d637 b4ad c8b6 28b1 e638
000000d0: c3cd 9c35 f48c a136 19df ad37 b34c aa38
000000e0: 788c b334 53f4 d1b7 cb09 3137 1be2 a2b7
000000f0: 20f7 e938 71b4 dc37 12ff 9d37 2a2e 69b7
00000100: 3e74 3438 6a11 5637 81b8 bf38 b002 7fb6
00000110: 0464 f3b4 f5c7 1e37 1cc2 a138 5c9d 0780
00000120: 00e7 6336 7a39 1f39 f620 c938 e17b 9638
00000130: 2c3d a636 4aed a4b6 c7da 1238 1a8c 4b38
00000140: 48a0 17b7 1229 c438 b15a 8635 8c96 ec37
00000150: 2c37 8d37 44f3 4038 f0d0 b435 6aeb 46b7
00000160: 5c90 1237 b371 8637 c2bf fa38 9ee2 1138
00000170: 83f0 f937 66e7 afb7 1637 3038 5307 2f37
00000180: 2a6d b338 7811 23b6 34f3 0036 d696 9f37
00000190: 5e30 ba38 e879 0780 382a bcb6 6a06 2b39
000001a0: ce15 de38 aeed 8638 2ba0 2437 5b09 80b6
000001b0: 4f1a 1738 400b 4b38 4c06 0ab7 f816 d538
000001c0: 22f1 3d35 73e1 c337 e8ce ec37 6086 8438
000001d0: a2f8 6837 1c73 8cb6 27cb 3d37 126e 1b37
000001e0: 91d2 b638 9f0a c837 8fa6 bd37 522c 86b7
000001f0: f6e4 eb37 58a1 f036 be28 7538 50fa 70b6
00000200: 4c27 eb35 69c7 6537 308a 8238 339d 0700
00000210: fe71 bfb6 de93 f938 464a 9e38 9fa9 3b38
00000220: 8564 e636 ea97 4bb6 f3d8 e537 8cb1 1338
00000230: 9c8a dbb6 d462 9d38 bffd 1c35 3c27 7837
00000240: 2f86 bb37 810b 3d38 c947 3837 5cbd 8eb6
00000250: e02d 1237 0245 d536 2882 0e39 f47c 2638
00000260: c250 0d38 90cf cab7 452f 4838 7e1f 4537
00000270: c0ea cb38 e8d0 4fb6 36e9 1e36 a58d b337
00000280: c631 d338 1d7b 0780 b884 deb6 692a 4239
00000290: 68d4 fc38 fc50 9938 922c 3a37 2015 87b6
000002a0: e9b6 2a38 183d 6638 fc48 1eb7 72bd f138
000002b0: 20a5 7235 16e0 dc37 0d99 0638 748a 9638
000002c0: 1b31 8537 fcbb 9eb6 6c5a 5a37 c806 2b37
000002d0: e6ce a8b9 b94a 3cb9 a4fb b0b8 f424 61b7
000002e0: d6d0 79b9 2685 95b8 caec 03b9 84ea 2bb9
000002f0: 1869 62b7 b4dc 09b8 2ffa 1bb9 ae79 0700
00000300: 876c 84b9 acf6 ccb9 62a0 6fb9 5595 cdb9
00000310: facd 6fb7 dd1c 9237 b022 d4b8 a58f bfb9
00000320: 4637 45b8 50a3 e0b9 0417 7bb6 bfa6 dfb8
00000330: 23be b4b8 b796 14b9 b296 09b9 8ef6 20b8
00000340: 32ec 8eb6 f9a6 beb8 3c53 95b9 6827 8fb8
00000350: 8582 b5b8 cfbc 8738 c467 bab8 3505 5fb8
00000360: 6a2b 07b9 86fb 99b7 6bc4 68b7 a6e1 d1b7
00000370: 3bfb 0eb9 ac9d 0780 0073 fa36 9cf1 b5b9
00000380: e64a 44b9 c218 43b9 fb78 4fb7 037e 9537
00000390: 4e1f e0b8 36db 27b9 e094 2d37 a179 9fb9
000003a0: d174 9e36 9ad1 01b8 6577 fab8 9ef5 13b9
000003b0: e657 66b8 9e95 02b8 fc90 2db6 abe3 e4b8
000003c0: d3c9 b238 e88d e136 5703 9d37 4155 aab7
000003d0: 583b 39b7 8048 41b4 9ff3 5238 f0a4 46b7
000003e0: 801f e435 96bf 7437 e35c 4838 569d 0780
000003f0: 3040 dfb7 1f54 d838 997a 9c38 7065 0d37

exp_avg_sq f4 [30, 30]
2.9604075e-07 9.3774446e-08 1.735259e-08 2.857071e-09 2.3608818e-07 5.140451e-08 1.282773e-07 1.7913707e-07
1.3759281e-09 4.5541175e-09 9.810757e-08 7e-43 1.7381512e-07 4.4957153e-07 1.8541847e-07 5.4456007e-07
1.2614148e-09 4.1322226e-10 6.187167e-08 4.1712983e-07 5.8818495e-10 6.040785e-07 1.0044959e-09 9.9019594e-08
3.1599605e-08 5.58098e-08 4.4568083e-08 1.0590495e-08 2.84012e-09 1.0601985e-07 4.6180097e-07 1.3354584e-07
1.2981359e-08 7.2656383e-09 4.2474466e-07 2.288891e-08 2.5036724e-07 3.640896e-07 2.4565727e-09 1.9030537e-10
1.8429436e-07 7e-43 2.3553122e-07 4.9513e-07 2.8381777e-07 7.2185406e-07 3.044033e-10 5.8622335e-10
4.333398e-08 5.537795e-07 3.3677696e-09 9.854708e-07 2.1073832e-09 3.2743447e-08 5.3921184e-08 1.1973957e-07
8.55736e-08 3.4226448e-09 1.1890599e-09 4.211953e-08 4.372672e-07 1.505208e-07 2.3565494e-08 3.565218e-09
4.0818801e-07 8.9100865e-08 2.1831727e-07 3.064613e-07 2.1417512e-09 4.6341144e-09 1.5373361e-07 7e-43
2.5781753e-07 6.202831e-07 2.692271e-07 9.2515984e-07 1.9420887e-09 7.452519e-10 1.09907184e-07 6.8076844e-07
6.2003414e-10 1.044698e-06 1.7629428e-09 1.5477458e-07 5.569728e-08 9.610957e-08 7.646128e-08 1.07004805e-08
7.0067113e-10 1.6291449e-07 3.1387464e-07 1.0047731e-07 1.7102238e-08 6.1099334e-09 2.455961e-07 5.0442196e-08
1.2689988e-07 1.7589979e-07 1.4525764e-09 5.0494093e-09 9.992595e-08 7e-43 2.0275455e-07 4.652808e-07
1.8495241e-07 5.65657e-07 2.0186093e-09 4.1800288e-10 6.457334e-08 4.4607347e-07 1.5420886e-08 6.336184e-07
9.91387e-10 1.11730756e-07 3.7331812e-08 6.827111e-08 4.8733135e-08 1.0423604e-08 2.8599214e-09 1.0403703e-07
1.8112213e-07 5.7020088e-08 9.858437e-09 3.578733e-09 1.4103011e-07 2.8800759e-08 7.1215524e-08 1.0022307e-07
8.4820284e-10 2.809706e-09 5.671479e-08 7e-43 1.1768395e-07 2.687115e-07 1.0452526e-07 3.2453642e-07
1.0452911e-09 1.5071958e-10 3.699053e-08 2.585866e-07 9.025427e-09 3.6254767e-07 5.756776e-10 6.489693e-08
2.143636e-08 3.9031175e-08 2.7614076e-08 5.7939893e-09 1.6730454e-09 6.062997e-08 4.052056e-07 1.2950761e-07
2.1875707e-08 7.890641e-09 3.172065e-07 6.48888e-08 1.6390611e-07 2.2717072e-07 1.8751818e-09 6.358882e-09
1.2907968e-07 7e-43 2.617092e-07 5.9977145e-07 2.3833047e-07 7.3030697e-07 2.5227869e-09 5.395864e-10
8.330843e-08 5.758356e-07 1.9917747e-08 8.181473e-07 1.2808861e-09 1.4407762e-07 4.8186912e-08 8.817759e-08
6.281629e-08 1.3251698e-08 3.6932786e-09 1.3411734e-07 3.4809339e-06 9.728559e-07 1.8072687e-07 7.794611e-09
2.7366593e-06 6.285947e-07 1.4699938e-06 1.8907538e-06 1.7584142e-08 1.939236e-08 1.0641882e-06 7e-43
1.7021842e-06 4.82346e-06 1.8563768e-06 6.6089788e-06 2.6777747e-09 8.950472e-10 8.1070294e-07 4.9481228e-06
1.8709452e-08 7.7509085e-06 1.3162009e-08 1.1198644e-06 4.1908865e-07 7.097857e-07 5.14704e-07 3.1929428e-08
2.1308917e-09 1.2713169e-06 4.186164e-06 1.2777751e-06 1.9549744e-07 1.18244195e-07 3.3717263e-06 7.4800346e-07
1.2982841e-06 1.8137578e-06 2.3219279e-08 3.811858e-08 1.0932849e-06 7e-43 2.8928066e-06 5.9193585e-06
1.8534932e-06 8.309127e-06 1.9911512e-08 1.2058385e-09 1.0796373e-06 6.719689e-06 3.3050623e-07 9.2897e-06
1.0928777e-08 1.7410771e-06 6.0549746e-07 1.0214624e-06 6.326033e-07 4.202972e-08 6.0294307e-09 1.5871145e-06
5.558596e-07 1.8127709e-07 2.7216194e-08 7.193597e-10 4.6125118e-07 9.837156e-08 2.2009175e-07 3.1832906e-07
2.249604e-09 7.030499e-09 1.85349e-07 7e-43 2.9073354e-07 7.6091055e-07 3.3383853e-07 1.1056372e-06
00000000: 88ef 9e34 0c61 c933 c00e 9532 2056 4431
00000010: 6d7f 7d34 dbc7 5c33 99bc 0934 d358 4034
00000020: 2b1b bd30 717a 9c31 35af d233 f401 0000
00000030: f0a1 3a34 a45c f134 7117 4734 e22d 1235
00000040: 165e ad30 dd2b e32f 4fde 8433 e3f1 df34
00000050: d6ad 2130 f527 2235 8f0e 8a30 99a4 d433
00000060: 22b8 0733 86b3 6f33 206b 3f33 7df1 3532
00000070: eb2b 4331 07ad e333 71ed f734 cd64 0f34
00000080: 9f04 5f32 3ba5 f931 7608 e434 3f9d c432
00000090: 366a 8634 1878 c334 7cd0 2831 333e 512f
000000a0: 73e2 4534 f401 0000 54e6 7c34 13e9 0435
000000b0: 9e5f 9834 6fc5 4135 f558 a72f cd23 2130
000000c0: 371e 3a33 70a7 1435 6e6e 6731 8544 8435
000000d0: 7ad1 1031 cda1 0c33 f896 6733 c391 0034
000000e0: 96c4 b733 ce33 6b31 536c a330 eae6 3433
000000f0: 8cc1 ea34 d89e 2134 126d ca32 faff 7431
00000100: ef24 db34 b857 bf33 986a 6a34 b887 a434
00000110: 162e 1331 1a3a 9f31 f911 2534 f401 0000
00000120: 2c6a 8a34 8881 2635 4a8a 9034 8058 7835
00000130: 9675 0531 71da 4c30 1d06 ec33 0dbe 3635
00000140: 066f 2a30 8d37 8c35 094c f230 1d30 2634
00000150: cf37 6f33 cb64 ce33 0933 a433 36d5 3732
00000160: 5999 4030 98ed 2e34 9a82 a834 fcc5 d733
00000170: 38e8 9232 8bef d131 79da 8334 c8a5 5833
00000180: f941 0834 f7de 3c34 fda3 c730 137f ad31
00000190: df96 d633 f401 0000 bfb4 5934 b5cb f934
000001a0: 5597 4634 a7d7 1735 c0b7 0a31 adcc e52f
000001b0: 92ab 8a33 df7b ef34 e376 8432 ed15 2a35
000001c0: 5441 8830 a2f0 ef33 c356 2033 719c 9233
000001d0: a64e 5133 7f13 3332 4588 4431 f66a df33
000001e0: 797a 4234 40e6 7433 dd5d 2932 bded 7531
000001f0: 106e 1734 8a65 f732 26ef 9833 373a d733
00000200: f826 6930 df14 4131 9296 7333 f401 0000
00000210: 70b9 fc33 6d43 9034 5f77 e033 f23b ae34
00000220: e9a9 8f30 cab7 252f 85df 1e33 dfd3 8a34
00000230: 3f0e 1b32 2ca4 c234 b63d 1e30 775d 8b33
00000240: 0e23 b832 3ba3 2733 ff33 ed32 7814 c731
00000250: 0df1 e530 ae33 8233 098b d934 c80e 0b34
00000260: 30e9 bb32 688f 0732 884c aa34 ff58 8b33
00000270: 2bfe 2f34 36ec 7334 8cdc 0031 517d da31
00000280: 2799 0a34 f401 0000 0a81 8c34 fbff 2035
00000290: c8e7 7f34 500a 4435 565d 2d31 0452 1430
000002a0: 4be7 b233 1f93 1a35 9717 ab32 a89e 5b35
000002b0: 2c0b b030 c1b3 1a34 12f6 4e33 255c bd33
000002c0: 9fe5 8633 96a9 6332 d8cc 7d31 e501 1034
000002d0: fd99 6936 1393 8235 d30d 4234 10e9 0532
000002e0: 73a7 3736 b3bc 2835 9a4c c535 cec5 fd35
000002f0: f00b 9732 4094 a632 3ad5 8e35 f401 0000
00000300: 9b76 e435 35d9 a136 9f28 f935 b2c2 dd36
00000310: e903 3831 5907 7630 159f 5935 0d08 a636
00000320: 85b6 a032 e609 0237 211f 6232 3f4e 9635
00000330: 1bff e034 1a88 3e35 312a 0a35 c722 0933
00000340: 0b6f 1231 1ea2 aa35 e076 8c36 0580 ab35
00000350: ede9 5134 6fed fd33 d145 6236 68ca 4835
00000360: b440 ae35 3e70 f335 bc73 c732 d2b7 2333
00000370: fcbc 9235 f401 0000 0a22 4236 e79e c636
00000380: 8bc5 f835 6e67 0b37 e109 ab32 acba a530
00000390: 0ee8 9035 b079 e136 6e70 b134 f5da 1b37
000003a0: 45c1 3b32 f4ae e935 7889 2235 2e19 8935
000003b0: 2bd0 2935 2a84 3433 6f2b cf31 d704 d535
000003c0: 6136 1535 11a5 4234 0bc9 e932 70bc 4530
000003d0: e1a1 f734 5640 d333 5c52 6c34 d0e6 aa34
000003e0: 7497 1a31 ec90 f131 5804 4734 f401 0000
000003f0: 1d16 9c34 6041 4c35 6b3a b334 6865 9435

exp_avg f4 [30]
0.00018123217 0.00019640621 0.00022530208 0.00023190933 0.00016535909 0.00026315544 -0.00085510785 -0.00053653866
0.000110076755 -3.4430042e-05 -0.00042246998 -0.00047809377 0.00015962693 -0.00043766413 -0.00061665 0.00018095384
-2.9528223e-05 5.6966834e-05 -0.00020441107 -0.0002541619 -0.00049053016 3.7357684e-05 -6.99252e-40 0.00039321888
-0.00018545997 0.00062155805 0.00010013131 0.00019513977 0.00021139848 0.00011840399
00000000: 2409 3e39 64f2 4d39 113f 6c39 b02c 7339
00000010: 3e64 2d39 20f8 8939 5129 60ba 80a6 0cba
00000020: 02d9 e638 fa68 10b8 f67e ddb9 a9a8 fab9
00000030: 8761 2739 4976 e5b9 aea6 21ba 6dbe 3d39
00000040: 60b3 f7b7 acef 6e38 2e57 56b9 0841 85b9
00000050: ec96 00ba 82b0 1c38 3b9d 0780 f228 ce39
00000060: 0878 42b9 0ef0 223a 96fd d138 6f9e 4c39
00000070: d9aa 5d39 a84f f838

exp_avg_sq f4 [30]
2.4153044e-06 3.3406325e-06 3.86225e-06 2.443628e-06 1.3975528e-06 3.152298e-06 2.7866643e-05 3.202296e-05
4.652972e-06 2.0041177e-06 2.2903844e-06 6.8021795e-06 1.1550296e-06 2.9754627e-05 2.3363948e-05 2.304284e-06
2.428762e-05 1.468624e-07 4.0676928e-06 6.9046023e-06 3.3555878e-06 1.0432065e-06 7e-43 5.258632e-06
1.6292033e-05 1.9148183e-05 4.5404917e-07 1.6721018e-06 1.3687131e-06 8.2055685e-06
00000000: 9d16 2236 a12f 6036 7a98 8136 36fd 2336
00000010: 8c93 bb35 118c 5336 29c3 e937 6450 0638
00000020: ba20 9c36 7b7e 0636 81b4 1936 473e e436
00000030: 8406 9b35 9399 f937 b2fd c337 4ca3 1a36
00000040: 44bd cb37 3bb1 1d34 377d 8836 15ae e736
00000050: 8f30 6136 4d04 8c35 f401 0000 4e73 b036
00000060: e0aa 8837 69a0 a037 0bc4 f334 fb6c e035
00000070: a0b4 b735 a6aa 0937

exp_avg f4 [1, 30]
2.2103446e-05 2.0874137e-05 2.4262736e-06 0.00013974636 -4.7288944e-05 0.00011278839 3.3927074e-05 1.3514269e-05
4.424046e-07 5.2329182e-05 0.00021175569 0.00011607688 0.00018909221 -6.0623934e-06 4.2813277e-05 4.0907013e-05
-5.0967483e-05 9.4123694e-05 6.7924295e-05 -4.9080918e-05 0.0001155373 -4.9837414e-05 -6.99346e-40 -5.790245e-05
-2.61196e-05 -1.6003141e-05 0.00024501755 4.7607995e-05 0.00010761226 1.4964084e-05
00000000: ca6a b937 de1a af37 10d3 2236 e188 1239
00000010: 1e58 46b8 ce88 ec38 eb4c 0e38 58bb 6237
00000020: a083 ed34 087c 5b38 bc0a 5e39 4d6e f338
00000030: 0e47 4639 906b cbb6 6892 3338 9293 2b38
00000040: ebc5 55b8 4664 c538 9472 8e38 3cdc 4db8
00000050: 9e4c f238 8408 51b8 7e9d 0780 48dc 72b8
00000060: 6a1b dbb7 7c3e 86b7 b375 8039 b2ae 4738
00000070: e4ad e138 400e 7b37

exp_avg_sq f4 [1, 30]
1.3335325e-07 2.6658964e-07 9.0729664e-08 4.9224896e-06 1.507635e-06 1.6804408e-06 3.052354e-08 6.4940416e-08
1.4717289e-08 5.206683e-07 4.9002404e-07 1.8206089e-07 7.4066024e-06 1.0609986e-07 3.3974224e-08 5.376413e-07
1.0381674e-07 1.713618e-06 4.1921604e-07 8.202288e-09 3.6176525e-07 4.9278515e-07 7e-43 4.0465444e-08
9.360665e-08 6.875546e-08 7.4540953e-06 1.6636221e-07 2.6804727e-07 2.5276947e-07
00000000: dd2f 0f34 cd1f 8f34 29d7 c233 dd2b a536
00000010: f259 ca35 828b e135 fd18 0333 5f75 8b33
00000020: 52d7 7c32 0ec4 0b35 328a 0335 847c 4334
00000030: 3b86 f836 04d9 e333 0eeb 1133 6e52 1035
00000040: dbf1 de33 77ff e535 9d10 e134 0bea 0c32
00000050: a338 c234 f047 0435 f401 0000 3acc 2d33
00000060: cd04 c933 b7a6 9333 311e fa36 4ca1 3234
00000070: 23e8 8f34 5fb4 8734
