Checkpoints/ANN_Simple_128.pth (torch, 23446 bytes, 15 tensors)

linear.0.weight f4 [30, 12]
000000 3f d3 a8 3e bd 8e ae be a4 32 3b b9 7a 16 8d bf
       0.32973668 -0.34093276 -0.00017852575 -1.1022484
000010 04 d4 e8 bd b0 08 b1 3d 95 b0 b2 bd 12 e1 1e 3e
       -0.11368564 0.08644235 -0.087250866 0.15515545
000020 f8 ac f2 84 0d 77 f5 84 a4 18 5c bd aa 71 57 3e
       -5.7052773e-36 -5.7708554e-36 -0.053734437 0.21039453
000030 4c 16 43 3f b5 9a a8 3e 0c 3f 19 bf 9d dc aa be
       0.762059 0.32930532 -0.59861827 -0.3337144
000040 aa 40 d9 bc 90 e9 fa 3c 1f 6c b3 bd c1 1a 1c be
       -0.026520092 0.03062895 -0.08760857 -0.15244581
000050 c3 6a 83 be 75 7b d8 bc 7f 35 00 3e 82 f9 9c be
       -0.2566739 -0.026426056 0.12520407 -0.3065911
000060 dd a2 c0 bf 5d 0f b5 bd 1b a3 2b 3f fb b0 c1 3e
       -1.5049702 -0.08840821 0.67045754 0.37830338
000070 a0 ba bf 3c 82 44 58 bc 68 5c 85 bd 1a d8 9e 3d
       0.02340442 -0.013199927 -0.06511766 0.07756062
000080 f6 5c c6 be 0b e0 88 3d d8 9d 81 3e 15 4a 07 bd
       -0.387428 0.06683358 0.25315738 -0.033029635
000090 ba 05 71 bd 11 3d 8d 3e c9 4c 87 3e 50 fe 26 be
       -0.058843352 0.27585652 0.2642577 -0.1630795
0000a0 51 aa 81 3d 20 55 3b 3e af 99 0a bd 1f d0 4a 3e
       0.063313134 0.18294191 -0.03383797 0.19805954
0000b0 f5 86 61 bd 83 62 99 3e 8c a0 c3 3d e5 4c 86 3b
       -0.055060346 0.2995797 0.09552106 0.004098522
0000c0 a0 dd 3e 3c 59 21 95 bd d3 fd f2 3e d7 4c ab be
       0.011649519 -0.07281751 0.47459278 -0.33457062
0000d0 55 e0 bf bd cc 17 ee 3c 42 3f 11 3d 25 b5 2a be
       -0.0936896 0.029064082 0.035460718 -0.16670664
0000e0 18 67 8b 3e 90 73 04 3e f1 24 b3 3d b8 1b a8 bd
       0.27227092 0.12934709 0.087472804 -0.08208412
0000f0 59 ee 62 be a7 80 2e 3e 1a d8 1a bf 97 26 14 bf
       -0.22161235 0.17041264 -0.60485995 -0.57871383
000100 07 fe 57 3e fc 96 77 3d 57 93 3a 3e 24 8a fe 3d
       0.21092997 0.060446724 0.18220268 0.12428692
000110 33 ae 95 3d 6a 3c 72 3c 4c 51 4c bd 3e 7c 01 3e
       0.073086165 0.014784912 -0.04988222 0.12645051
000120 11 8e c3 bf 0d e0 80 be 5f 85 97 3e 54 91 6f bd
       -1.527773 -0.25170937 0.29593942 -0.058488205
000130 db 3b b9 bd b2 3f b4 3d da f6 d0 3d 98 a0 d1 3d
       -0.0904462 0.088012114 0.10203333 0.10235709
000140 02 c1 9e 3e 7b 9e bd 3e 09 16 0c 3d a9 9c 3a 3e
       0.31006628 0.37034974 0.0342007 0.18223824
000150 51 f5 df 3e 4d 12 b9 be bf af e1 3e 75 f4 ac 3e
       0.4374185 -0.36146775 0.44079396 0.33780256
000160 e1 bd 21 3e 51 4d 22 be 5c 7b a4 bd fb bc 80 3e
       0.1579509 -0.15849806 -0.080313414 0.2514418
000170 42 35 68 3e 03 fd 74 3e b2 19 01 bd c6 35 87 be
       0.22676566 0.23924641 -0.031518646 -0.26408213
000180 74 51 da be c9 1d b1 bd a5 d8 2b 3f 99 ce 9b be
       -0.4264027 -0.08648259 0.6712745 -0.3043106
000190 3f d8 21 3e df 14 65 3e 75 5f 97 bb 9b a8 db 3d
       0.15805148 0.22371243 -0.0046195337 0.10725518
0001a0 6b 6d c3 3c 7f 80 dc bd 4e db 4f be 12 28 2e 3d
       0.023855885 -0.10766696 -0.20298502 0.042518683
0001b0 a5 29 56 bf 9e d9 dc be e9 12 42 be f9 20 3c 3e
       -0.83657295 -0.4313478 -0.18952526 0.18371953
0001c0 d4 31 a5 bd fc 6b 95 3d cd 44 c1 3c 84 82 97 3e
       -0.080661446 0.07295987 0.023592377 0.29591763
0001d0 47 43 f3 84 a7 63 f2 84 bc ba 4c 3e d0 2b 3c 3e
       -5.719081e-36 -5.6985443e-36 0.19993109 0.18376088
0001e0 03 74 fa bd f2 6f 7d bd 51 54 a5 3e 65 62 b7 3e
       -0.12229159 -0.061874337 0.3229089 0.35817257
0001f0 56 40 1c bd 17 2d 13 3d d4 ef 72 3e 95 66 47 be
       -0.038147293 0.035931673 0.237243 -0.19472726
000200 ef 2b ea bd 55 21 78 3d 42 21 e4 bd 52 95 d0 bd
       -0.11434161 0.060578663 -0.11139156 -0.101847306
000210 2b 7c 2a 3f 0f ff 9c 3d cd f2 27 bf b1 d3 6f be
       0.66595715 0.07665836 -0.6560486 -0.23420598
000220 08 00 94 3b eb 75 b1 bc e6 16 f1 3d e0 47 b9 3c
       0.0045166053 -0.021662673 0.11771946 0.02261728
000230 e8 cc a3 bd e2 0e a2 bd d4 da db 3d d0 69 b3 3d
       -0.07998067 -0.07912995 0.107350975 0.087604165
000240 72 29 9c 3b 3c 3e ff 3e ff 65 bd bd 4c ab e1 bd
       0.004765683 0.4985217 -0.0924797 -0.110190004
000250 06 7a 87 3e f1 7b 95 3d db c4 37 3e 5a 16 82 3e
       0.26460284 0.072990306 0.17946188 0.25407678
000260 28 95 19 3a a4 e9 81 bd bd 77 31 be 4a 06 9c bc
       0.0005858713 -0.063433915 -0.17330833 -0.019045968
000270 77 1f f1 04 b1 ac f5 84 44 eb f3 84 a9 2f f2 84
       5.6687724e-36 -5.7757815e-36 -5.7345083e-36 -5.6937696e-36
000280 c2 b4 f1 84 b8 fe f3 04 3c 1c f4 84 9f a4 f4 84
       -5.6824828e-36 5.7362948e-36 -5.7390053e-36 -5.7515305e-36
000290 0f 18 f1 84 6d b9 f4 84 f9 e9 f0 84 2d 49 f0 84
       -5.6680922e-36 -5.753441e-36 -5.66386e-36 -5.649093e-36
0002a0 22 82 b7 3d f7 95 d9 3e 72 dc 1f 3f b6 89 f8 3e
       0.08960368 0.42497227 0.6244575 0.48542565
0002b0 85 2b 52 bd bc c1 db bd 22 e6 87 be f0 bc 75 be
       -0.051311035 -0.10730311 -0.26542765 -0.23997855
0002c0 dd f9 8e bc e2 1d b5 bd 0f 57 80 3c 46 1f bf 3d
       -0.017453128 -0.0884359 0.015666513 0.09332137
0002d0 1d e9 93 3e f4 34 ae be cc 4e 98 be 02 2e a7 3e
       0.2888879 -0.34024775 -0.29747617 0.3265229
0002e0 8d 69 37 3e 43 9f 3a be fa 6a 01 bd 2f 01 b4 3e
       0.17911358 -0.18224816 -0.03159616 0.35157153
0002f0 f9 f0 0d 3e 78 6b 48 3d 20 62 e4 3d 79 3d 72 3e
       0.13861455 0.048930615 0.11151528 0.23656262
000300 f5 41 f2 84 69 f0 f1 84 c4 a3 f0 84 09 1c f1 84
       -5.69545e-36 -5.687961e-36 -5.6574124e-36 -5.6684574e-36
000310 70 72 f1 84 1a 6d f3 84 96 7a f5 84 93 68 f0 84
       -5.6763922e-36 -5.722922e-36 -5.77118e-36 -5.6519765e-36
000320 04 e3 f0 84 5b 85 f3 84 8f 75 f2 84 c1 7a f3 04
       -5.663221e-36 -5.7251493e-36 -5.7001887e-36 5.7241757e-36
000330 9b 33 cc bc e2 da 08 be b3 db a3 be 5f ea 91 bd
       -0.024926951 -0.13364747 -0.32003555 -0.07124781
000340 c6 cf 11 3c 7d 85 d9 bd a8 8e 18 bd fb f8 c7 bb
       0.008899635 -0.10621164 -0.037245423 -0.006102679
000350 93 a6 07 bc f1 a4 3e 3e 1b 35 58 3b 4f 80 4b bb
       -0.0082794605 0.18617608 0.0032990638 -0.003105182
000360 d4 9d f1 84 6b bf f4 84 16 fd f0 84 cf 30 f5 04
       -5.680377e-36 -5.7539914e-36 -5.665615e-36 5.7644047e-36
000370 ad 71 f1 84 aa 2c f4 04 b1 64 f5 84 da c6 f2 84
       -5.6763222e-36 5.740514e-36 -5.7691694e-36 -5.7076543e-36
000380 91 92 f0 84 ad 3a f3 04 43 fa f4 84 2c 99 f4 84
       -5.655833e-36 5.718291e-36 -5.7593953e-36 -5.750479e-36
000390 e3 c3 94 3f 28 a5 ad bd 1b cb 01 bf 13 89 06 3f
       1.162228 -0.08478767 -0.5070054 0.5255291
0003a0 32 32 8d be a1 60 3e 3e 4c 76 41 3e ad bd 93 3e
       -0.27577358 0.18591549 0.18892783 0.2885565
0003b0 99 49 89 be ee 5c 31 3e 7b 69 94 3c 0f 6b 59 3d
       -0.26813963 0.17320606 0.018116703 0.053080615
0003c0 e9 78 f2 84 b7 1d f5 84 6a 5d f4 84 c4 71 4c 04
       -5.7004965e-36 -5.7626512e-36 -5.744991e-36 2.4032323e-36
0003d0 37 1f ef 84 ac 60 f0 84 37 50 ef 84 dd f2 f2 84
       -5.6217296e-36 -5.6512508e-36 -5.6262296e-36 -5.711696e-36
0003e0 a4 a0 f0 04 04 51 f5 84 bd d1 f1 84 92 53 08 03
       5.6571254e-36 -5.7673624e-36 -5.6851442e-36 4.006274e-37
0003f0 23 3c d3 bd 2e ef c3 be 1f 0d 31 be 4e 38 19 3d
       -0.103142045 -0.38268417 -0.17290162 0.037407212

linear.0.bias f4 [30]
000000 b7 ed 2c 3d c0 22 da 3d 11 56 58 be 57 93 8a 3e
       0.04221889 0.10651159 -0.21126582 0.27065536
000010 63 44 65 3e da e2 db 3e 65 ca e0 bd 90 87 c5 3c
       0.22389369 0.42946512 -0.10976104 0.024112493
000020 a9 c1 85 3e 15 02 f3 bd cb 2f 0f 3e a3 f9 3d 3d
       0.26124313 -0.118656315 0.13983075 0.04638065
000030 c6 48 4c be 3b be f2 84 03 f3 31 3d 35 65 36 3e
       -0.19949636 -5.7068626e-36 0.043444645 0.17812045
000040 8d 25 f5 84 a9 aa 86 3d e6 93 f4 84 5b bc 16 3e
       -5.7633708e-36 0.065755196 -5.7499948e-36 0.1472029
000050 20 d0 ee 84 49 05 b0 3e f3 cf 46 3e 85 da d7 bd
       -5.6144664e-36 0.34379032 0.19415264 -0.10539726
000060 d2 68 b2 3d 02 a3 19 3e 8b 92 38 3d fb db ab bd
       0.08711399 0.15003589 0.04506163 -0.08391567
000070 16 22 cd bd 2e 8c ad 3e
       -0.10016267 0.3389601

linear.2.weight f4 [30, 30]
000000 9a ca 8a 3e 86 ce 2f 3e 74 96 c0 be 3b e6 88 3d
       0.27107698 0.17168626 -0.37614787 0.06684538
000010 14 33 ab 3e d5 48 47 be 8e 2b 92 3c bb d4 1c 3e
       0.33437407 -0.19461377 0.017843034 0.15315525
000020 63 4a 86 3e 1f 24 1b 3d 4a 94 b7 bc 57 e3 8b bd
       0.26228628 0.037876245 -0.022409577 -0.06830471
000030 cd d4 54 bd 48 2c f5 04 84 64 57 be 86 9b 0b 3e
       -0.051960755 5.763989e-36 -0.21034437 0.13633546
000040 2c 65 f2 84 d5 7b 97 bc 33 60 f1 04 38 9c c8 3d
       -5.698684e-36 -0.018491665 5.6747173e-36 0.09795421
000050 65 60 ff 04 b1 4e 9a 3d d7 31 9b 3e 14 9b 01 3e
       6.0038736e-36 0.075345404 0.30311462 0.12656814
000060 4b f0 36 be 98 3e 96 3d f9 85 0b 3e aa 23 ad bd
       -0.17865102 0.073361576 0.13625325 -0.08454068
000070 d9 00 88 be 6d 58 64 bc e4 bf 81 be 77 d4 85 bf
       -0.26563147 -0.013937098 -0.25341713 -1.0455464
000080 00 61 84 3e 25 b0 c8 bb 6a 11 92 3c c6 64 25 bd
       0.25855255 -0.0061245137 0.01783057 -0.04037931
000090 bb c9 6c 3e 20 f6 b7 bc 0f 7a 12 3e 65 eb 3b bd
       0.23123829 -0.022456229 0.14304374 -0.045878787
0000a0 a7 02 98 bd 75 4b 19 3f 39 6e 4f 3d 77 58 f1 04
       -0.07422381 0.59880763 0.050642226 5.674007e-36
0000b0 21 53 72 3e bd e7 6d be 7d 92 f1 04 20 a7 65 bc
       0.23664524 -0.23232932 5.6793356e-36 -0.0140168965
0000c0 e8 59 f0 04 64 07 3f be f0 58 f1 04 94 8a e1 bd
       5.6506295e-36 -0.18655163 5.6740504e-36 -0.1101276
0000d0 8e 6e 8a be 10 d4 42 bc 2c 29 c5 3d b1 c1 b7 bd
       -0.27037472 -0.01189138 0.096269935 -0.089724906
0000e0 06 0e 32 3c 0c c8 86 3d 58 4e 9c bc bb 14 bc be
       0.010867601 0.06581125 -0.019080326 -0.36734566
0000f0 90 d6 48 3d a4 64 9a be 0b 74 3a 3e 7e f8 ba 3d
       0.049032748 -0.30154908 0.1820833 0.091294274
000100 f0 41 8b 3b 5b 88 88 3d 50 4d fe 3d 1b bc a0 be
       0.0042498037 0.06666633 0.1241709 -0.31393513
000110 93 f6 94 3d 82 37 c7 3e 4c ea 1a bc 97 ed b8 3e
       0.07273593 0.38909537 -0.009455275 0.36118767
000120 fd 65 f0 3d a1 2b f5 04 b9 c8 ec bd ee b8 a5 bd
       0.11738203 5.763929e-36 -0.11561722 -0.08091913
000130 61 b1 f3 84 40 44 29 3d 50 26 f4 84 b4 e8 96 be
       -5.7291922e-36 0.041324854 -5.739931e-36 -0.29474413
000140 90 60 f2 04 0b e1 56 bc 87 af 9f bd e1 07 62 bd
       5.6982605e-36 -0.013115178 -0.07797151 -0.055183295
000150 2e 8b 0b be 88 40 02 3e a5 b8 f2 bc e6 f8 06 be
       -0.13627312 0.12719929 -0.029629061 -0.13180885
000160 66 eb 56 bc d0 b1 a2 be c0 a2 ec bd d0 80 ef 3e
       -0.013117647 -0.31776285 -0.115544796 0.46777964
000170 7e 2d 82 3d 8f 3c e3 bc 2c a4 9f 3b e7 87 28 3e
       0.06356333 -0.027738838 0.0048718657 0.16458093
000180 7e e2 4e bd 87 9b 36 be 2d ee ce bd 3b 84 40 3e
       -0.05050897 -0.17832766 -0.10104022 0.18800442
000190 53 74 e2 bd 07 0d 00 3e 38 78 f0 3d 90 f9 f2 84
       -0.11057343 0.1250497 0.1174168 -5.7123114e-36
0001a0 ff c6 f4 bb 8c 19 ad bd b9 e4 f4 84 73 d6 83 bc
       -0.0074700112 -0.08452138 -5.7574173e-36 -0.016093468
0001b0 6e 2e f3 84 10 23 20 3d 2d e4 f2 04 8c a7 28 be
       -5.7171664e-36 0.03909594 5.7103473e-36 -0.16470164
0001c0 8e d3 7e be cb 26 d4 bd 17 28 34 3d c9 d0 b9 bc
       -0.24885389 -0.10358962 0.043983545 -0.022682564
0001d0 1a 42 c4 be 45 44 0d 3e 73 2f 6b 3a e5 0e f6 3d
       -0.3833168 0.13795574 0.0008971609 0.1201456
0001e0 0e 8f b8 3e 33 f6 59 3c ae 00 4b be 21 be ee 3b
       0.36046642 0.013303327 -0.19824478 0.0072858487
0001f0 03 35 cc 3d 4b 7e 1e 3e d2 80 8e 3e a7 08 a7 be
       0.09971049 0.15477864 0.27832657 -0.3262379
000200 29 95 9b 3d be fc 36 3e 97 fe 2c be a5 a2 01 3f
       0.075968094 0.17869851 -0.16893993 0.506388
000210 be e0 b4 bc 95 92 f5 84 80 c8 ca be de 6b 7b 3d
       -0.022079822 -5.7733838e-36 -0.39606094 0.061382167
000220 1e 92 f0 04 f2 32 8e 3e 25 21 f3 84 b9 50 08 3d
       5.6557916e-36 0.27773243 -5.7159464e-36 0.033280108
000230 c0 14 f2 04 11 4e e5 3e a4 60 34 3f 68 68 f3 ba
       5.6912982e-36 0.44786122 0.7045996 -0.0018570544
000240 27 37 12 be 96 91 57 be 15 eb 8f 3d b8 4d 8e be
       -0.14278851 -0.2105163 0.0702726 -0.2779367
000250 00 38 23 be 58 bd 5a 3e 81 f6 ef 84 f7 d2 f2 84
       -0.15939331 0.21361291 -5.6415008e-36 -5.7087667e-36
000260 df 83 f2 84 f9 14 f2 84 98 cb f2 84 ce 85 f3 84
       -5.701503e-36 -5.6913187e-36 -5.7080898e-36 -5.7251906e-36
000270 24 58 f3 84 33 45 f1 84 c0 51 f1 84 02 63 ef 84
       -5.720997e-36 -5.6722377e-36 -5.6733903e-36 -5.6279554e-36
000280 b2 d5 f4 84 43 e3 f2 84 d6 f5 f3 84 a9 b9 f0 84
       -5.7560372e-36 -5.7102634e-36 -5.735479e-36 -5.659423e-36
000290 2c 40 f2 04 0b 60 f2 84 e7 df f5 84 68 1d f1 84
       5.695286e-36 -5.6982128e-36 -5.7804845e-36 -5.6685833e-36
0002a0 f6 9f f1 04 4d 8b f1 84 d6 d6 f1 84 b6 4a ef 84
       5.680573e-36 -5.6786755e-36 -5.6856123e-36 -5.625724e-36
0002b0 64 19 f4 84 c8 d1 f2 84 44 51 f3 84 5a 58 f0 84
       -5.7387442e-36 -5.708658e-36 -5.7203656e-36 -5.6504867e-36
0002c0 a5 ff f1 84 b0 8c ef 84 aa b2 f0 84 06 5c f2 84
       -5.68936e-36 -5.631783e-36 -5.6587806e-36 -5.6978437e-36
0002d0 cb a0 88 3d 7f ee 08 3d 6a 6c 29 bd 7a 85 37 bb
       0.06671294 0.033430573 -0.041363157 -0.0028003142
0002e0 de c9 4c 3d dd 96 89 bc 29 b3 35 be 92 3a e4 3d
       0.049997203 -0.01679557 -0.17744125 0.11143984
0002f0 59 80 34 be 61 4b 89 bc 15 b4 f7 3d 02 8e 99 bd
       -0.17627086 -0.016759576 0.12094895 -0.07497789
000300 fa 90 05 3e 63 0f f2 04 b1 3f c9 bd 9b 3a d5 3d
       0.13043585 5.6908057e-36 -0.09826601 0.10411569
000310 6c 81 f0 04 7a b6 6e bc 98 8f f1 84 ef 8e 58 3d
       5.6542584e-36 -0.014569873 -5.6790698e-36 0.052870687
000320 e0 9f f3 84 eb bc ae 3d 0c 78 14 3e d9 aa 8e bd
       -5.7275847e-36 0.08532127 0.14498919 -0.0696618
000330 7e 49 e3 bd e3 7d e6 3c 36 66 0a 3e e8 ab 8f bd
       -0.11098002 0.0281362 0.13515553 -0.070152104
000340 85 6d 1b 3e 8b f0 7f 3d d9 81 81 3e c0 65 aa 3e
       0.15178497 0.06248526 0.25294378 0.33280754
000350 91 76 fc be e3 53 11 bd 11 a4 46 3d 7e 40 7f 3d
       -0.4930921 -0.03548039 0.04849631 0.062317364
000360 91 70 3b be 02 21 c1 3d 6c a4 30 bd cf ef 0c be
       -0.1830466 0.09430124 -0.043125555 -0.13763355
000370 3a 63 f9 3d 67 1a 8c be 71 3b 01 bd b7 c1 f3 04
       0.12177129 -0.27363893 -0.03155083 5.7306924e-36
000380 c8 1b b6 be a3 4f ea 3c 22 50 f4 84 9d 9e 9f bb
       -0.3556807 0.028602427 -5.7437715e-36 -0.004871203
000390 0e 3b f1 84 03 26 2a 3e dd 64 f2 84 a6 70 99 3d
       -5.671306e-36 0.16616063 -5.6986555e-36 0.07492189
0003a0 40 d8 43 3e db 89 b3 3d 97 4c 30 bc ce d3 58 be
       0.19125462 0.08766528 -0.010760448 -0.21174547
0003b0 bf 85 06 3e a1 4f 09 be 52 fd 2b 3d ca 56 5d 3e
       0.13136958 -0.13409282 0.041989632 0.21615139
0003c0 ee 0a fe 3c bf e9 86 be 67 ef b0 3e 86 6b 37 3c
       0.031011071 -0.2635021 0.3455765 0.011195069
0003d0 d0 94 23 bc 86 80 99 3d d0 74 53 3e f7 43 f9 be
       -0.00998421 0.07495217 0.20650029 -0.48684666
0003e0 aa 4d 88 bd 77 b3 ee 3e 2d 63 d2 bc dc c0 09 3f
       -0.06655438 0.46621296 -0.025682056 0.53809905
0003f0 32 30 17 3e 5d 8d f3 04 81 95 a6 bd e3 72 33 be
       0.14764479 5.7258847e-36 -0.08133984 -0.17524295

linear.2.bias f4 [30]
000000 dc 9a 44 bd 45 e2 21 3c 5a f7 01 3e dc 4e 77 3d
       -0.047999248 0.009880607 0.12692013 0.06037794
000010 d4 59 b7 3d 97 fe f3 84 a7 b9 23 3e 10 6a 57 3e
       0.0895268 -5.736283e-36 0.1598879 0.21036553
000020 ea 14 e5 3d 46 4b df bd a9 42 b0 bd f8 c5 e3 3d
       0.1118563 -0.10903029 -0.086064644 0.11121744
000030 1a e8 35 3e d6 ef 16 3e 24 19 00 bb 87 7d e6 3d
       0.17764321 0.14739928 -0.0019546235 0.11254411
000040 9d 07 1c 3c 68 2d 19 bd 82 2c 8c bd 0d 4b 7b bd
       0.0095232995 -0.03739682 -0.06844427 -0.06135087
000050 36 ce 02 3e d2 7d 35 3d c2 ed 3d 3d 03 5d 29 3e
       0.12773976 0.044309445 0.04636932 0.16539387
000060 b8 14 1b be bb 3c 83 3d f2 11 a4 3d 79 8f df ba
       -0.15144622 0.06408068 0.08011235 -0.0017056308
000070 34 e5 f1 bd 42 7e 01 be
       -0.11811295 -0.1264582

linear.4.weight f4 [1, 30]
000000 6a 08 1a 3f 1b c5 97 bf e7 dd 4b bf f1 7d bb be
       0.6016909 -1.1857027 -0.7963547 -0.36619523
000010 15 12 eb bf 8a 12 f4 84 52 a9 6d 3e fa f3 2a 3f
       -1.8364893 -5.738115e-36 0.23209122 0.6677853
000020 37 f6 95 bf 22 82 f1 3f 6d e1 82 bf a7 1f 7b 3e
       -1.1715764 1.8867838 -1.0225044 0.24523793
000030 6b 79 e9 3d 4d 12 01 bf b8 4d f2 bf 47 6e 7c 3f
       0.11400112 -0.5041855 -1.8929968 0.9860577
000040 03 ed 42 bf b6 9b 80 3e db 11 0e bf 8e bc 34 3e
       -0.761429 0.25118798 -0.55495995 0.17650053
000050 72 e4 a2 3e b7 d4 37 3f d6 9b ba 3e 1d 8f c2 3d
       0.31814915 0.7180895 0.36447018 0.09499953
000060 6f 49 07 3f 57 be 8e bf bb 01 ab 3e 24 67 ee 3d
       0.52846426 -1.1151837 0.33399758 0.11640766
000070 40 25 40 3f 1f 8a d4 bf
       0.7505684 -1.6604651

exp_avg f4 [30, 12]
000000 ea de cd b5 79 30 23 ba 18 46 a6 b9 12 52 d0 b8
       -1.5338567e-06 -0.00062251795 -0.0003171421 -9.9335e-05
000010 77 9a 97 b9 fa af 9b b9 6e c1 49 b9 38 2b 88 ba
       -0.0002891605 -0.00029695017 -0.00019240912 -0.0010388857
000020 0e 9f 00 80 e2 a0 00 80 b5 3e 10 b5 af 18 88 ba
       -5.7058e-41 -5.7714e-41 -5.373543e-07 -0.0010383333
000030 07 89 e0 36 98 ce ed 3a 1d ea a0 3a 50 e1 0c 3a
       6.6916723e-06 0.0018143235 0.0012276802 0.00053741504
000040 85 0e 3d 3a bc 9c 41 3a 32 2f 32 3a 5e d5 b9 b9
       0.00072119414 0.0007385721 0.0006797194 -0.0003544492
000050 d9 81 7c b6 f4 1a 86 3b d8 67 b8 b9 5f 7d 40 b6
       -3.7626507e-06 0.0040925685 -0.00035172584 -2.8683205e-06
000060 6a 2b a7 35 42 03 4b 39 26 30 85 38 22 36 63 b8
       1.2455105e-06 0.00019360802 6.3509025e-05 -5.4171433e-05
000070 84 1a 88 b9 17 99 71 b9 10 04 ff 36 17 72 e7 3a
       -0.00025959697 -0.00023040581 7.600065e-06 0.0017657903
000080 7a 00 82 b6 b4 93 ea ba c6 9f 57 3a 10 a4 77 3a
       -3.8743574e-06 -0.0017896802 0.0008225407 0.00094467495
000090 1e 7d 3a 36 bf 33 53 38 66 06 83 38 cb 51 9e 37
       2.7788988e-06 5.0354512e-05 6.2477586e-05 1.8873156e-05
0000a0 ce 07 0d 38 e2 71 15 38 e8 dc cb 37 a6 b7 a4 39
       3.362429e-05 3.563043e-05 2.4302353e-05 0.00031417346
0000b0 2e d4 f8 b7 8a 68 2b b9 e8 1e b4 38 40 08 72 39
       -2.9662708e-05 -0.00016346775 8.5888256e-05 0.00023081992
0000c0 90 be 26 34 ac 22 b2 38 82 04 f7 38 6c 58 3c 38
       1.5529281e-07 8.4941596e-05 0.000117787175 4.4905042e-05
0000d0 29 c2 39 b8 42 eb 31 b8 00 59 50 38 d4 a0 a1 b8
       -4.4288263e-05 -4.241919e-05 4.9673952e-05 -7.707035e-05
0000e0 a1 34 53 38 56 15 9d 39 b2 f4 a5 b8 9c 6c 04 b6
       5.0355335e-05 0.0002996127 -7.913391e-05 -1.9732752e-06
0000f0 30 dd 0d b6 6d 7e af 38 72 74 a2 38 a6 a6 45 b8
       -2.1139385e-06 8.368199e-05 7.7464516e-05 -4.7123664e-05
000100 f1 c7 6f 37 f9 6c 98 37 8c 69 f3 37 60 5b ab 39
       1.4292063e-05 1.8170556e-05 2.9017006e-05 0.0003268374
000110 5e 67 e7 b8 45 7f a8 b8 f6 b0 68 39 aa 33 f7 38
       -0.00011034192 -8.03457e-05 0.00022191167 0.00011787501
000120 4f d1 15 b6 f4 b7 19 39 fa 83 5f 39 ee b7 97 b8
       -2.2324564e-06 0.00014659745 0.00021316102 -7.234501e-05
000130 cf 6a 9f b9 7f 1b 95 b9 7f 16 42 38 7b 6d d6 3a
       -0.00030406422 -0.0002843998 4.6274155e-05 0.0016359532
000140 90 af 7f b9 a1 ad 9f ba db ce a0 39 a4 49 b2 3a
       -0.00024384097 -0.0012182483 0.00030671697 0.0013602269
000150 9a da c9 b6 02 ab e4 b8 76 56 41 b9 48 fa 12 36
       -6.0157154e-06 -0.0001090374 -0.00018438124 2.1901378e-06
000160 a7 17 1b b9 14 cd 3a b9 f1 b1 93 b8 ba 8d d0 ba
       -0.00014790763 -0.0001781474 -7.0426504e-05 -0.0015911378
000170 6c 3a 66 39 63 ca 8d 3a 3c 4b 55 ba 11 22 54 ba
       0.00021956273 0.0010817762 -0.0008136516 -0.00080922345
000180 b4 e3 a7 b5 c2 21 7e 38 c8 be 10 37 c1 1e b8 38
       -1.250874e-06 6.058976e-05 8.627489e-06 8.779532e-05
000190 b7 f4 8d b8 6a 4f 99 b8 58 2a 0d 37 ea 98 9c 38
       -6.7689856e-05 -7.3104005e-05 8.414114e-06 7.467142e-05
0001a0 09 10 e3 38 0e db 1f b9 c6 b5 84 b8 26 27 00 39
       0.0001082719 -0.00015245026 -6.3281084e-05 0.00012221615
0001b0 65 23 95 b5 db 1f 83 3a a2 82 3d 3a f7 17 fc 38
       -1.1111666e-06 0.0010004 0.00072292436 0.0001202076
0001c0 32 cc ee b7 c0 57 e9 b5 af 99 a3 39 02 60 e1 3a
       -2.8466897e-05 -1.7385391e-06 0.00031204286 0.001719475
0001d0 71 9f 00 80 de 9e 00 80 0b e0 63 3a e0 1a 5f 3a
       -5.7197e-41 -5.6991e-41 0.0008692748 0.00085107796
0001e0 5b 5a e0 b6 89 cf 7c 39 10 df 67 b7 5f 33 f2 38
       -6.686239e-06 0.00024109906 -1.3820609e-05 0.00011549028
0001f0 89 93 bd 38 16 d9 a5 38 dd cc 24 38 b0 b0 d1 b9
       9.039703e-05 7.9082485e-05 3.929144e-05 -0.0003999523
000200 20 59 80 39 af 4f d4 39 72 c5 53 b9 3b fa 6e b9
       0.00024480466 0.0004049516 -0.00020196082 -0.00022790667
000210 9b f5 76 37 c0 e8 01 3b 45 52 0f 3a cc 45 c3 38
       1.4719927e-05 0.0019822568 0.0005467276 9.311325e-05
000220 69 4d 79 3a 98 8a 7d 3a 42 ab fb 39 31 c4 34 3b
       0.0009510131 0.0009671836 0.00048002048 0.002758276
000230 a2 b5 56 b5 9e 35 54 b5 c1 08 af 3a 75 b9 ba 3a
       -7.9985523e-07 -7.905418e-07 0.0013354049 0.0014245944
000240 75 cf b9 35 c0 ba 94 39 ea fe 25 38 a0 3e 42 38
       1.3843952e-06 0.000283679 3.9576473e-05 4.631153e-05
000250 93 90 8b 39 28 4e 8c 39 f3 34 90 38 5c af f0 39
       0.00026619862 0.00026761112 6.876318e-05 0.0004590702
000260 f0 94 f7 b5 ed f3 65 b8 21 f3 8a 38 66 b9 cb 39
       -1.8446281e-06 -5.482503e-05 6.625639e-05 0.0003885731
000270 0a 9e 00 00 05 a1 00 80 df 9f 00 80 bc 9e 00 80
       5.6694e-41 -5.7763e-41 -5.7351e-41 -5.6943e-41
000280 6c 9e 00 80 ec 9f 00 00 ff 9f 00 80 58 a0 00 80
       -5.6831e-41 5.7369e-41 -5.7396e-41 -5.752e-41
000290 05 9e 00 80 66 a0 00 80 e7 9d 00 80 7d 9d 00 80
       -5.6687e-41 -5.754e-41 -5.6645e-41 -5.6496e-41
0002a0 b0 b4 06 37 52 84 38 b8 d9 1d 5d b8 09 60 11 38
       8.029092e-06 -4.399225e-05 -5.2718304e-05 3.4660134e-05
0002b0 28 5c dc 38 ea d3 e3 38 8a f8 08 b7 3e 02 9f 39
       0.00010507583 0.000108636756 -8.164099e-06 0.00030328514
0002c0 a4 14 7a 37 65 4f c0 b9 69 3b 87 b9 a8 8e 13 3a
       1.4905967e-05 -0.00036680247 -0.0002579347 0.00056288624
0002d0 0c 73 19 b7 bd bc 5d ba f8 0a 00 ba 74 be f9 b7
       -9.146297e-06 -0.0008458605 -0.0004884447 -2.97718e-05
0002e0 12 fa c8 b9 2a 82 de b9 e4 48 89 b9 13 ca e1 ba
       -0.0003833329 -0.0004244012 -0.00026184984 -0.001722636
0002f0 82 79 4a 39 89 f5 1f 39 ef 97 1f ba dc 08 95 ba
       0.00019309486 0.0001525489 -0.00060880085 -0.0011370438
000300 c8 9e 00 80 93 9e 00 80 b9 9d 00 80 07 9e 00 80
       -5.696e-41 -5.6886e-41 -5.658e-41 -5.669e-41
000310 40 9e 00 80 8c 9f 00 80 e5 a0 00 80 92 9d 00 80
       -5.677e-41 -5.7235e-41 -5.7718e-41 -5.6526e-41
000320 e2 9d 00 80 9c 9f 00 80 ea 9e 00 80 95 9f 00 00
       -5.6638e-41 -5.7257e-41 -5.7008e-41 5.7247e-41
000330 70 4e 65 34 92 48 05 38 73 26 b6 37 92 2c 44 37
       2.1355822e-07 3.1777257e-05 2.1713995e-05 1.1692888e-05
000340 29 c2 07 37 46 9f e3 36 1b dd 20 37 cd 13 83 b3
       8.0918335e-06 6.783669e-06 9.588223e-06 -6.1037646e-08
000350 32 d2 b1 b3 8e 38 87 38 45 b8 0d 33 3e 7f 05 b3
       -8.280439e-08 6.447836e-05 3.2996713e-08 -3.10822e-08
000360 5d 9e 00 80 6a a0 00 80 f3 9d 00 80 b4 a0 00 00
       -5.681e-41 -5.7546e-41 -5.6662e-41 5.765e-41
000370 40 9e 00 80 0a a0 00 00 d6 a0 00 80 1f 9f 00 80
       -5.677e-41 5.7411e-41 -5.7697e-41 -5.7082e-41
000380 ad 9d 00 80 6b 9f 00 00 90 a0 00 80 51 a0 00 80
       -5.6563e-41 5.7188e-41 -5.7599e-41 -5.751e-41
000390 60 e2 cd b6 7c 21 1b ba 0f 68 a5 b9 d1 9c 64 b8
       -6.1358296e-06 -0.00059177703 -0.00031548782 -5.4505483e-05
0003a0 51 2e 77 38 9d 5b 43 38 76 d2 19 b9 77 11 09 bb
       5.8932525e-05 4.6576944e-05 -0.0001466962 -0.002091495
0003b0 f9 9c 06 b8 4f c8 b0 3a 61 8b 27 ba e0 2e be ba
       -3.209428e-05 0.0013487431 -0.00063913135 -0.001450982
0003c0 ec 9e 00 80 a8 a0 00 80 2a a0 00 80 fa 42 00 00
       -5.701e-41 -5.7633e-41 -5.7456e-41 2.4027e-41
0003d0 ba 9c 00 80 8d 9d 00 80 da 9c 00 80 3c 9f 00 80
       -5.6223e-41 -5.6519e-41 -5.6268e-41 -5.7123e-41
0003e0 b7 9d 00 00 c9 a0 00 80 7f 9e 00 80 2f 0b 00 00
       5.6577e-41 -5.7679e-41 -5.6858e-41 4.012e-42
0003f0 ec 01 ef b5 24 d9 5e 39 c0 d7 18 39 29 c3 df b7
       -1.7807447e-06 0.00021252461 0.00014576223 -2.667455e-05

exp_avg_sq f4 [30, 12]
000000 84 e5 1b 2f d4 5d 0f 37 24 34 5c 36 66 59 28 35
       1.4178708e-10 8.54531e-06 3.2812904e-06 6.271497e-07
000010 b5 2b f4 36 76 f0 f7 36 47 75 97 35 d2 7c 0e 38
       7.276855e-06 7.389167e-06 1.1284509e-06 3.3971686e-05
000020 f4 01 00 00 f4 01 00 00 b2 85 43 31 90 79 0e 38
       7e-43 7e-43 2.8452232e-09 3.3968652e-05
000030 75 22 e0 30 76 21 52 38 5d 49 9e 37 6d ec 38 36
       1.6307938e-09 5.0099065e-05 1.886923e-05 2.7555755e-06
000040 1c 19 79 37 09 8c 86 37 50 28 e0 36 75 79 ba 36
       1.4847403e-05 1.6039254e-05 6.680413e-06 5.5573714e-06
000050 30 1a 30 31 f5 d0 49 39 93 87 ba 36 2d 84 d7 2f
       2.5626257e-09 0.00019246696 5.559015e-06 3.920219e-10
000060 e7 14 5d 30 e1 0e 06 38 11 bb 52 37 a3 2f 04 36
       8.0429036e-10 3.1961947e-05 1.256053e-05 1.969726e-06
000070 3c 74 bb 37 6e 3b c0 37 e5 33 91 36 b5 91 a6 38
       2.2346263e-05 2.2915858e-05 4.327378e-06 7.942637e-05
000080 a1 40 24 31 51 68 56 38 ba b4 d9 36 b0 11 98 38
       2.3901878e-09 5.1118728e-05 6.4881433e-06 7.251219e-05
000090 db 69 86 2f 2e d0 17 35 d2 0f 80 34 de 73 30 33
       2.4449673e-10 5.6554825e-07 2.385337e-07 4.1083574e-08
0000a0 e5 f4 bb 34 2a 87 c2 34 f8 9a b5 33 84 71 99 35
       3.5009649e-07 3.623366e-07 8.456658e-08 1.1432426e-06
0000b0 65 c9 e7 32 ae 97 ab 35 4e 8b 27 34 ec 4c 7d 35
       2.6983523e-08 1.2784637e-06 1.5603766e-07 9.436178e-07
0000c0 58 04 95 2d 89 53 ef 34 5b 2e eb 33 22 7a 91 32
       1.6941268e-11 4.4578e-07 1.0951472e-07 1.6935761e-08
0000d0 b5 c8 4a 34 b4 45 4d 34 52 0d 53 33 16 3f 69 35
       1.8885733e-07 1.911747e-07 4.913938e-08 8.6891066e-07
0000e0 fd 51 78 33 71 b0 fe 34 84 a1 d4 34 af 42 fa 34
       5.7816568e-08 4.7439565e-07 3.9605595e-07 4.6614647e-07
0000f0 96 e1 60 2f 1a e1 5d 35 bc 80 99 34 12 ac 96 33
       2.0452826e-10 8.265648e-07 2.8592137e-07 7.016219e-08
000100 9b 02 ed 34 a6 2d f3 34 f1 9b df 33 c0 1c fc 35
       4.4146586e-07 4.529549e-07 1.0412612e-07 1.878383e-06
000110 76 df b1 33 0e a7 92 35 b9 da 94 34 80 37 d2 35
       8.282852e-08 1.0926467e-06 2.772629e-07 1.5662372e-06
000120 ce 35 1f 30 99 97 db 37 59 fa 32 37 27 8e c4 35
       5.7920324e-10 2.6177428e-05 1.0667915e-05 1.464451e-06
000130 40 aa 97 37 ab 13 9c 37 5b c5 77 36 bf d4 88 38
       1.8079882e-05 1.8605808e-05 3.6920744e-06 6.5246124e-05
000140 37 ec 98 35 c0 fd 34 38 75 e0 47 36 7f 06 81 38
       1.139363e-06 4.3151667e-05 2.9783962e-06 6.152409e-05
000150 b6 13 8e 30 87 33 87 37 2a ab d1 36 99 27 48 35
       1.0337462e-09 1.6117248e-05 6.2486115e-06 7.456343e-07
000160 c0 2b 2a 37 81 19 2f 37 5a 52 18 36 0f 13 0b 38
       1.0142976e-05 1.0436751e-05 2.26977e-06 3.3157932e-05
000170 db 17 b6 35 b1 63 08 38 62 bb 07 37 3e 10 d5 37
       1.3567e-06 3.251777e-05 8.0902555e-06 2.5399142e-05
000180 fc 39 1f 2f 2e 1d cb 35 e2 8f 15 35 04 ec 32 34
       1.4481566e-10 1.5133171e-06 5.57162e-07 1.6663404e-07
000190 a7 ab 7e 35 43 b6 82 35 6d da 50 34 7a f1 6b 36
       9.487216e-07 9.7388e-07 1.9450972e-07 3.5158287e-06
0001a0 cf 2b 70 33 c8 4b 0d 36 7f 51 90 34 9e 1c 52 36
       5.5919198e-08 2.1054748e-06 2.6881386e-07 3.1309096e-06
0001b0 91 89 6d 2f f4 a7 90 37 c9 42 f1 36 6f fc 6a 35
       2.1603898e-10 1.7244347e-05 7.1901345e-06 8.753913e-07
0001c0 05 9f 8d 37 71 da 8f 37 39 53 20 36 42 47 96 38
       1.6882559e-05 1.7148648e-05 2.38903e-06 7.16583e-05
0001d0 f4 01 00 00 f4 01 00 00 05 c1 ca 36 48 03 88 38
       7e-43 7e-43 6.0425396e-06 6.4855965e-05
0001e0 dd cb 13 31 d8 e4 69 36 cd 14 a6 35 69 11 e9 34
       2.1507198e-09 3.485291e-06 1.2374018e-06 4.34123e-07
0001f0 b8 9b e5 35 12 58 ed 35 37 af e9 34 7a 16 c7 36
       1.710715e-06 1.7683508e-06 4.3527118e-07 5.9332788e-06
000200 b4 2f c3 34 21 55 cc 36 0f 1c d2 34 75 5e b6 36
       3.635629e-07 6.089584e-06 3.9135963e-07 5.435019e-06
000210 eb 15 18 32 36 ef 74 37 f5 84 d6 35 bc 99 1e 34
       8.852548e-09 1.4599229e-05 1.5982938e-06 1.4770825e-07
000220 84 49 a0 36 e1 68 9b 36 3b 97 8b 35 5d 50 00 38
       4.77693e-06 4.6315695e-06 1.0400321e-06 3.0592422e-05
000230 59 3a a4 31 b8 2c 9d 31 7d 55 98 37 b5 90 1f 37
       4.7796616e-09 4.5743853e-09 1.815962e-05 9.510831e-06
000240 f1 24 bc 2e d6 00 31 35 b8 94 2f 34 f4 72 0c 33
       8.555812e-11 6.5938855e-07 1.6352249e-07 3.270084e-08
000250 19 15 b3 34 4c ce b3 34 e5 4e 8f 33 3b 6a e2 35
       3.33567e-07 3.349145e-07 6.673307e-08 1.6869229e-06
000260 7d 49 3d 33 1a 17 43 34 09 da cf 34 3e 7e a5 35
       4.407183e-08 1.8169195e-07 3.8715396e-07 1.2330199e-06
000270 f4 01 00 00 f4 01 00 00 f4 01 00 00 f4 01 00 00
       7e-43 7e-43 7e-43 7e-43
000280 f4 01 00 00 f4 01 00 00 f4 01 00 00 f4 01 00 00
       7e-43 7e-43 7e-43 7e-43
000290 f4 01 00 00 f4 01 00 00 f4 01 00 00 f4 01 00 00
       7e-43 7e-43 7e-43 7e-43
0002a0 3c 62 73 31 94 c9 73 36 80 c3 bf 35 fb 20 92 34
       3.5416994e-09 3.6327156e-06 1.4287507e-06 2.7218616e-07
0002b0 de 6f 37 36 76 4f 3b 36 ce 80 02 35 35 08 3d 37
       2.733424e-06 2.7911424e-06 4.861621e-07 1.1267189e-05
0002c0 59 b3 0f 33 ba f1 6c 36 7a 34 df 34 d9 43 35 37
       3.3457898e-08 3.5307444e-06 4.1575169e-07 1.0804238e-05
0002d0 f8 b1 23 31 98 19 3e 37 dc 7f 8f 36 97 d1 4a 35
       2.3820785e-09 1.13308415e-05 4.276617e-06 7.555586e-07
0002e0 19 f4 0c 37 28 93 0f 37 48 ee cd 35 59 7a 0e 38
       8.401484e-06 8.557727e-06 1.5343039e-06 3.3969383e-05
0002f0 49 50 dd 34 c4 2c 3b 37 62 d6 76 36 19 af f8 37
       4.1222873e-07 1.1156491e-05 3.6781644e-06 2.964544e-05
000300 f4 01 00 00 f4 01 00 00 f4 01 00 00 f4 01 00 00
       7e-43 7e-43 7e-43 7e-43
000310 f4 01 00 00 f4 01 00 00 f4 01 00 00 f4 01 00 00
       7e-43 7e-43 7e-43 7e-43
000320 f4 01 00 00 f4 01 00 00 f4 01 00 00 f4 01 00 00
       7e-43 7e-43 7e-43 7e-43
000330 5c 01 bc 2c 76 52 3e 34 a0 04 64 33 19 8f 0f 32
       5.3434323e-12 1.7725128e-07 5.3089593e-08 8.356232e-09
000340 dc 5b 37 33 2c b4 46 33 a7 5b ba 32 e0 f6 08 2e
       4.2691553e-08 4.6264333e-08 2.1694929e-08 3.114209e-11
000350 7d a8 9b 2e 57 27 2c 35 0b f8 ff 2d 08 62 8f 2b
       7.0785135e-11 6.413224e-07 2.9100297e-11 1.018797e-12
000360 f4 01 00 00 f4 01 00 00 f4 01 00 00 f4 01 00 00
       7e-43 7e-43 7e-43 7e-43
000370 f4 01 00 00 f4 01 00 00 f4 01 00 00 f4 01 00 00
       7e-43 7e-43 7e-43 7e-43
000380 f4 01 00 00 f4 01 00 00 f4 01 00 00 f4 01 00 00
       7e-43 7e-43 7e-43 7e-43
000390 57 51 de 30 82 1d f6 37 b7 20 4b 37 86 0c e2 35
       1.6175744e-09 2.9339226e-05 1.210736e-05 1.6841957e-06
0003a0 78 ff b1 37 0d d9 b6 37 18 a1 8c 36 bb 74 a3 38
       2.1219006e-05 2.1797163e-05 4.191079e-06 7.7941884e-05
0003b0 f2 5d d7 30 2f 9b 46 38 57 56 b4 36 5c a9 95 38
       1.567001e-09 4.7351405e-05 5.3744693e-06 7.136419e-05
0003c0 f4 01 00 00 f4 01 00 00 f4 01 00 00 f4 01 00 00
       7e-43 7e-43 7e-43 7e-43
0003d0 f4 01 00 00 f4 01 00 00 f4 01 00 00 f4 01 00 00
       7e-43 7e-43 7e-43 7e-43
0003e0 f4 01 00 00 f4 01 00 00 f4 01 00 00 f4 01 00 00
       7e-43 7e-43 7e-43 7e-43
0003f0 15 74 f0 2e 97 c2 f3 35 53 36 37 35 a7 ae e9 33
       1.0934557e-10 1.8161544e-06 6.8251865e-07 1.0881677e-07

exp_avg f4 [30]
000000 1d 51 88 ba 79 19 75 3b 10 3d e6 b7 54 cf 00 39
       -0.001040015 0.0037399216 -2.7446571e-05 0.00012284267
000010 1c 00 8c 39 db 1e 1f 39 f4 3f 4c 39 38 58 a9 b9
       0.00026702962 0.00015174916 0.0001947878 -0.0003229992
000020 f8 31 a6 37 e3 d4 e0 3a 14 d6 6a 39 30 c8 34 3b
       1.981201e-05 0.0017153289 0.0002239573 0.0027585141
000030 e9 0a d1 39 1a 9f 00 80 4b 35 43 b8 e9 fe b7 ba
       0.00039871715 -5.7075e-41 -4.6541256e-05 -0.0014037761
000040 ad a0 00 80 0d b2 84 38 4d a0 00 80 a4 4f 4a ba
       -5.764e-41 6.327415e-05 -5.7505e-41 -0.0007717556
000050 86 9c 00 80 9d c5 c1 39 ec cb 10 ba 62 09 87 b9
       -5.615e-41 0.00036959062 -0.0005523551 -0.00025756197
000060 72 90 74 b8 a3 83 01 39 f0 a9 71 3a 0e c5 9e b9
       -5.830866e-05 0.00012351437 0.0009218743 -0.00030282926
000070 8c b8 a1 ba 04 44 42 ba
       -0.0012338324 -0.0007410648

exp_avg_sq f4 [30]
000000 dc 7c 0e 38 9c 1e 4e 39 0b 6d 07 39 00 e9 26 36
       3.3971723e-05 0.00019657094 0.00012915225 2.4871551e-06
000010 8d 81 c3 35 58 58 4e 36 6c be e5 38 7e 93 8c 38
       1.4566336e-06 3.0747815e-06 0.0001095504 6.703193e-05
000020 0c fc c0 36 60 47 96 38 d6 75 56 37 5c 50 00 38
       5.751388e-06 7.165852e-05 1.278283e-05 3.059242e-05
000030 41 97 04 36 f4 01 00 00 e4 51 74 37 1a de 3f 38
       1.9757574e-06 7e-43 1.45626e-05 4.5744797e-05
000040 f4 01 00 00 6f 2c 2c 35 f4 01 00 00 fc e4 02 39
       7e-43 6.413965e-07 7e-43 0.0001248307
000050 f4 01 00 00 c0 95 f9 36 6f a8 9a 38 46 57 77 35
       7e-43 7.4382115e-06 7.3746654e-05 9.214167e-07
000060 eb a7 a8 36 e8 03 84 36 61 f0 93 37 ed 8f ea 36
       5.0263384e-06 3.9343613e-06 1.76357e-05 6.9904986e-06
000070 4a f2 5e 38 40 36 b6 38
       5.3154574e-05 8.688541e-05

exp_avg f4 [30, 30]
000000 74 a1 16 37 db 04 63 b7 7e 9b 7f b6 91 f8 b0 39
       8.978288e-06 -1.3531385e-05 -3.808847e-06 0.00033754532
000010 f8 ec 13 39 f1 25 60 39 3e 5f c5 38 8f 24 91 38
       0.0001410729 0.00021376439 9.411432e-05 6.920948e-05
000020 dc 82 56 39 27 be 91 37 12 81 e2 38 03 54 24 b7
       0.0002045738 1.7373894e-05 0.00010800561 -9.794722e-06
000030 e2 6c 96 38 b1 a0 00 00 fb b0 10 39 13 2a 9e 38
       7.1728384e-05 5.7645e-41 0.0001379884 7.541864e-05
000040 df 9e 00 80 a3 74 81 37 34 9e 00 00 f2 38 df 38
       -5.6992e-41 1.5432312e-05 5.6753e-41 0.000106440755
000050 59 a7 00 00 a9 fa e3 38 9f 21 2e 38 94 a0 6c b7
       6.0033e-41 0.000108708926 4.1516145e-05 -1.4104084e-05
000060 ac 9c 91 39 21 2c 5b 39 48 86 6c 38 62 fe 22 39
       0.00027773285 0.00020901907 5.6391844e-05 0.00015544289
000070 3f 27 b8 37 90 c4 87 38 4a c2 87 38 e6 b5 66 b7
       2.1952785e-05 6.473914e-05 6.473491e-05 -1.375142e-05
000080 d6 29 de 38 0a 90 22 39 d5 8d 36 b9 b4 19 85 39
       0.000105935775 0.00015503183 -0.00017409709 0.00025386887
000090 d8 60 4a b8 2b 5a cd b8 aa 51 98 39 a7 8a 3d 38
       -4.8250746e-05 -9.791957e-05 0.00029052544 4.519024e-05
0000a0 db 36 88 b9 64 4d c2 37 c4 39 55 39 2f 9e 00 00
       -0.00025980812 2.316264e-05 0.00020334782 5.6746e-41
0000b0 7c 33 6e b8 d4 bc cb 39 55 9e 00 00 0c 81 bf b7
       -5.679157e-05 0.00038859865 5.6799e-41 -2.2829066e-05
0000c0 88 9d 00 00 bc dd 2d 39 2f 9e 00 00 d2 2f 2c b9
       5.6512e-41 0.00016581168 5.6746e-41 -0.00016421013
0000d0 33 4e 07 b8 6b ea b9 b7 e8 65 12 38 8e 38 e8 b9
       -3.2259337e-05 -2.2162878e-05 3.490402e-05 -0.00044292625
0000e0 e0 05 c5 b8 b0 98 3f 38 1a b6 e7 37 91 53 c4 b8
       -9.394786e-05 4.568015e-05 2.7622144e-05 -9.361574e-05
0000f0 e6 e3 8b 38 8c 4a 7b 38 c0 1c 1e 39 eb bf f5 39
       6.670486e-05 5.991249e-05 0.00015078764 0.00046873032
000100 2c 12 ac b8 1d 2d d7 39 d9 a2 19 b8 5f 38 94 b7
       -8.204984e-05 0.00041041608 -3.6629706e-05 -1.7669225e-05
000110 f2 97 be 39 ac d8 59 38 48 18 29 b9 b3 9b 93 38
       0.00036352832 5.1938623e-05 -0.00016126141 7.0385075e-05
000120 6f 29 b1 39 b1 a0 00 00 b8 4e 18 39 54 1b ee 39
       0.0003379094 5.7645e-41 0.00014525175 0.00045415259
000130 b9 9f 00 80 08 b8 b3 b7 06 a0 00 80 3c 7d 83 39
       -5.7298e-41 -2.1424159e-05 -5.7406e-41 0.00025079574
000140 dc 9e 00 00 f4 ba ec b8 63 9c b0 37 eb 0c 02 39
       5.6988e-41 -0.0001128818 2.1053658e-05 0.00012402578
000150 58 b9 a5 39 84 a5 5c b9 b8 aa c1 b8 50 77 a3 39
       0.00031609344 -0.00021042494 -9.234756e-05 0.00031178677
000160 67 e2 2e 38 20 93 17 36 cc 41 17 38 db bb f7 37
       4.1695686e-05 2.2586391e-06 3.6062484e-05 2.9532172e-05
000170 22 99 83 38 dc d9 b8 39 d1 09 bd 37 e1 37 8f 39
       6.27509e-05 0.00035257533 2.2535127e-05 0.00027316718
000180 48 ea 13 38 02 3b 99 36 37 b3 79 39 24 d8 fc 37
       3.5265723e-05 4.5666247e-06 0.00023813253 3.014139e-05
000190 7e d2 e4 b7 f8 31 05 38 51 af 22 39 40 9f 00 80
       -2.7277736e-05 3.1756208e-05 0.00015514834 -5.7128e-41
0001a0 58 e4 94 38 c6 97 50 39 82 a0 00 80 c0 d7 57 34
       7.099722e-05 0.00019892966 -5.758e-41 2.0101925e-07
0001b0 63 9f 00 80 29 b6 25 39 32 9f 00 00 9d 1b 98 36
       -5.7177e-41 0.00015803486 5.7109e-41 4.5331676e-06
0001c0 d2 9e 0b 38 77 c4 d9 37 c2 d7 55 39 c0 38 35 b8
       3.3288095e-05 2.5959902e-05 0.00020393639 -4.3206615e-05
0001d0 54 0d 11 b6 dd 5c e4 38 e6 76 cb 37 88 53 c9 b7
       -2.1614442e-06 0.00010889184 2.4254852e-05 -2.3999964e-05
0001e0 11 d5 ef 38 0b c7 1c 39 fc 9a 0f 39 e1 7d 8e 3a
       0.00011436095 0.00014951469 0.00013695279 0.0010871255
0001f0 b8 42 9c 38 79 f6 56 3a 9a fe c2 38 cf 32 6d 38
       7.451087e-05 0.00082001794 9.298064e-05 5.6552522e-05
000200 45 3f 1b 3a d6 e2 96 38 ca bd 1f 38 52 76 22 39
       0.00059222087 7.194809e-05 3.808531e-05 0.00015493602
000210 98 b6 01 3a f4 a0 00 80 5d d4 9d 39 93 aa 11 3a
       0.0004948168 -5.7739e-41 0.00030103597 0.00055567286
000220 ad 9d 00 00 f7 a5 ef 36 5a 9f 00 80 d7 6c 04 3a
       5.6563e-41 7.142076e-06 -5.7165e-41 0.0005051619
000230 aa 9e 00 00 28 d3 6e 38 e4 d5 0d 39 ea e9 2d 39
       5.6918e-41 5.6940276e-05 0.00013526488 0.00016585705
000240 1c 7b 36 3a de b5 ca 38 f1 c5 54 38 03 19 e9 39
       0.0006961094 9.665986e-05 5.0729086e-05 0.00044459858
000250 e9 1e ae 38 d0 48 5d b6 47 9d 00 80 27 9f 00 80
       8.302724e-05 -3.2973949e-06 -5.642e-41 -5.7093e-41
000260 f3 9e 00 80 ab 9e 00 80 22 9f 00 80 9c 9f 00 80
       -5.702e-41 -5.692e-41 -5.7086e-41 -5.7257e-41
000270 7e 9f 00 80 22 9e 00 80 2b 9e 00 80 e6 9c 00 80
       -5.7215e-41 -5.6727e-41 -5.674e-41 -5.6285e-41
000280 78 a0 00 80 32 9f 00 80 e6 9f 00 80 c7 9d 00 80
       -5.7565e-41 -5.7109e-41 -5.7361e-41 -5.66e-41
000290 c7 9e 00 00 dc 9e 00 80 27 a1 00 80 08 9e 00 80
       5.6959e-41 -5.6988e-41 -5.781e-41 -5.6691e-41
0002a0 5e 9e 00 00 50 9e 00 80 82 9e 00 80 d7 9c 00 80
       5.6811e-41 -5.6792e-41 -5.6862e-41 -5.6264e-41
0002b0 fd 9f 00 80 26 9f 00 80 7a 9f 00 80 87 9d 00 80
       -5.7393e-41 -5.7092e-41 -5.721e-41 -5.651e-41
0002c0 9d 9e 00 80 02 9d 00 80 c2 9d 00 80 d9 9e 00 80
       -5.69e-41 -5.6324e-41 -5.6593e-41 -5.6984e-41
0002d0 12 cd c0 b7 86 d4 86 b7 ec cf 13 b8 b2 4b ed b8
       -2.2983677e-05 -1.6073009e-05 -3.5241173e-05 -0.0001131514
0002e0 ee 1c 31 38 eb 6d fb b8 3a 25 a6 36 b3 fb ce 37
       4.222703e-05 -0.000119890865 4.9515193e-06 2.467432e-05
0002f0 e2 32 dd b8 56 7c b3 b7 b5 db 7c 38 58 78 a8 b7
       -0.00010547579 -2.1396361e-05 6.02861e-05 -2.00832e-05
000300 6a ff b0 b8 a7 9e 00 00 c0 a7 7c 36 24 59 08 b9
       -8.4399086e-05 5.6914e-41 3.764857e-06 -0.00013003178
000310 a2 9d 00 00 a0 6e c6 36 53 9e 00 80 2d 43 a0 b8
       5.6548e-41 5.9137383e-06 -5.6796e-41 -7.641907e-05
000320 ad 9f 00 80 d9 42 1e 38 2a 60 ec b6 4f a9 95 b7
       -5.7281e-41 3.7732392e-05 -7.044543e-06 -1.7841025e-05
000330 b0 19 67 b8 02 c5 d0 38 6b 0a ca 37 53 f4 56 b8
       -5.5098615e-05 9.9549085e-05 2.4085128e-05 -5.124912e-05
000340 44 c4 96 b7 de 65 94 37 2e ec 7b b8 3c d2 5a b8
       -1.7972787e-05 1.769041e-05 -6.0063023e-05 -5.2171046e-05
000350 4a ac ba b7 00 f0 74 b9 77 21 08 39 e2 66 9c b9
       -2.2253156e-05 -0.0002335906 0.00012982437 -0.00029831292
000360 24 fa cd 37 7c ed aa 38 fb a8 62 b9 50 d5 2e b8
       2.4554385e-05 8.1504666e-05 -0.0002161599 -4.1683496e-05
000370 b1 33 02 39 ca 53 6f b8 06 29 81 b9 c4 9f 00 00
       0.00012417023 -5.7060075e-05 -0.00024635362 5.7313e-41
000380 f6 dc 3a b8 b6 a7 a2 b9 21 a0 00 80 d1 e0 91 37
       -4.455164e-05 -0.00031024002 -5.7443e-41 1.7390035e-05
000390 1c 9e 00 80 bc 24 39 b9 df 9e 00 80 5b 09 ee 38
       -5.6719e-41 -0.0001765666 -5.6992e-41 0.00011350467
0003a0 2e 6c 99 b7 52 93 56 b8 b7 f9 27 b9 bb e8 1d 39
       -1.8289396e-05 -5.115878e-05 -0.00016019387 0.00015059386
0003b0 bd ff 89 38 c0 79 51 b9 27 e2 56 b8 94 13 b7 36
       6.580304e-05 -0.00019977149 -5.1232197e-05 5.456104e-06
0003c0 c5 eb d2 38 a4 83 bd 38 e4 1b 57 39 f4 97 11 3a
       0.00010057496 9.036742e-05 0.00020514388 0.0005553954
0003d0 ae bf 21 b9 cd d5 09 3a ba 76 a2 b8 67 74 4b b8
       -0.00015425563 0.0005257994 -7.7468765e-05 -4.850738e-05
0003e0 65 9c eb 39 69 1c 95 38 55 10 8b b9 6a 5e d2 38
       0.00044939216 7.1101655e-05 -0.00026524314 0.00010031166
0003f0 9d 12 eb 39 a1 9f 00 00 b0 5a 15 39 d7 24 21 3a
       0.0004483656 5.7264e-41 0.00014243531 0.0006147152

exp_avg_sq f4 [30, 30]
000000 91 c9 dd 32 7e f5 12 32 74 10 0c 33 ba 8c 11 36
       2.5819448e-08 8.554137e-09 3.2611254e-08 2.1688597e-06
000010 f8 3f f2 34 a4 5e 48 35 29 5e 24 34 53 45 2e 34
       4.5122556e-07 7.4643526e-07 1.5307945e-07 1.6230233e-07
000020 d5 de 45 35 8d 0f 9f 32 6c 6c 98 34 2f 4a 73 31
       7.371248e-07 1.8517108e-08 2.8391094e-07 3.5403322e-09
000030 c6 0d 0c 34 f4 01 00 00 12 84 9e 34 77 d2 87 34
       1.3043527e-07 7e-43 2.9525887e-07 2.5298843e-07
000040 f4 01 00 00 74 ec da 31 f4 01 00 00 5a e0 5b 34
       7e-43 6.3715166e-09 7e-43 2.0477583e-07
000050 f4 01 00 00 39 ff 97 34 14 8e 5d 33 e7 28 e4 32
       7e-43 2.831164e-07 5.158479e-08 2.6561294e-08
000060 c4 dc 9c 35 ef 20 45 35 01 79 db 33 a2 0b ba 34
       1.1687157e-06 7.3436144e-07 1.0219993e-07 3.4653664e-07
000070 0e e1 04 32 8a 62 c9 33 3f f6 ca 33 9c 4e 16 31
       7.734583e-09 9.377716e-08 9.45115e-08 2.1872557e-09
000080 00 77 69 34 51 ef 79 37 9b 0a d0 35 d4 2e f2 36
       2.1743108e-07 1.4897277e-05 1.5500294e-06 7.2176135e-06
000090 31 9d 52 35 22 55 23 35 83 b6 08 37 71 95 39 34
       7.845984e-07 6.0846116e-07 8.148726e-06 1.7283834e-07
0000a0 85 31 93 35 dc 46 1a 31 fb d9 35 36 f4 01 00 00
       1.0966766e-06 2.2450228e-09 2.7097983e-06 7e-43
0000b0 95 a7 1c 36 af f5 89 36 f4 01 00 00 38 42 b9 32
       2.3343357e-06 4.1115195e-06 7e-43 2.1566947e-08
0000c0 f4 01 00 00 6a d4 1c 36 f4 01 00 00 36 0c 81 35
       7e-43 2.3369453e-06 7e-43 9.614803e-07
0000d0 45 f4 16 34 e9 72 ab 33 29 e6 38 37 c1 e7 59 36
       1.4058703e-07 7.98371e-08 1.1020843e-05 3.2470418e-06
0000e0 8c 1d cd 34 bf 33 f0 36 87 82 74 34 c0 19 a6 34
       3.8205724e-07 7.1585814e-06 2.2771756e-07 3.0938645e-07
0000f0 c3 80 e4 33 f6 3d f1 32 62 27 c4 33 b5 6b 0e 37
       1.0640499e-07 2.808427e-08 9.134125e-08 8.488937e-06
000100 e2 7e 3e 35 93 6a 9e 36 b3 b3 e0 34 ad 7b 86 34
       7.0965154e-07 4.721174e-06 4.1854e-07 2.504943e-07
000110 65 94 a8 36 1a e0 05 34 54 84 fa 34 40 ce 51 32
       5.0240656e-06 1.2468118e-07 4.666241e-07 1.2212297e-08
000120 07 1f e1 35 f4 01 00 00 28 f8 80 35 59 6f 33 36
       1.6772836e-06 7e-43 9.608966e-07 2.6737891e-06
000130 f4 01 00 00 fc cc 29 32 f4 01 00 00 c5 0f b1 35
       7e-43 9.883703e-09 7e-43 1.3192117e-06
000140 f4 01 00 00 52 4f ea 34 b4 47 e4 33 ed dd 83 33
       7e-43 4.364361e-07 1.063012e-07 6.140531e-08
000150 72 43 c0 36 18 da ae 35 ee 5c 31 34 e6 9d 78 36
       5.7298976e-06 1.3027484e-06 1.6518217e-07 3.7046789e-06
000160 56 56 ea 33 f4 48 59 34 a4 bb c5 32 de 30 d6 31
       1.09121785e-07 2.023624e-07 2.3019147e-08 6.2337753e-09
000170 ac 71 06 33 cd 50 c9 35 67 68 22 33 a6 0c 86 35
       3.130269e-08 1.4999183e-06 3.7813518e-08 9.987459e-07
000180 67 2f 51 33 0b cb 90 32 b9 90 8b 35 ad fc 07 33
       4.8704717e-08 1.685614e-08 1.0398427e-06 3.1661944e-08
000190 b1 ae c3 31 6f 50 60 31 4e fb d1 34 f4 01 00 00
       5.695107e-09 3.2642011e-09 3.9112132e-07 7e-43
0001a0 16 4e 43 34 40 e4 2b 35 f4 01 00 00 75 c7 73 2e
       1.8189198e-07 6.403461e-07 7e-43 5.5428957e-11
0001b0 f4 01 00 00 d6 c0 a3 34 f4 01 00 00 20 a6 7b 32
       7e-43 3.0501423e-07 7e-43 1.4647895e-08
0001c0 75 6b 92 32 39 84 e0 32 80 f1 96 35 de 53 a6 33
       1.7045503e-08 2.613716e-08 1.1246157e-06 7.745233e-08
0001d0 dd 1f c3 2e 3d f8 74 35 d9 8f 11 33 14 48 9e 33
       8.8732334e-11 9.125832e-07 3.3891272e-08 7.370559e-08
0001e0 5c 17 0b 35 60 03 27 34 c9 b0 fa 34 b9 6a 11 38
       5.181553e-07 1.5554315e-07 4.6694757e-07 3.4670087e-05
0001f0 7f 8c 4a 36 ed ad a8 37 40 0f dc 35 e9 e7 92 35
       3.0182125e-06 2.0108151e-05 1.6395716e-06 1.0945342e-06
000200 3c 27 a9 37 a4 f2 21 35 f3 a4 dd 35 d2 92 a9 33
       2.016464e-05 6.033026e-07 1.651379e-06 7.896382e-08
000210 3e b3 df 36 f4 01 00 00 f0 37 6a 36 d9 2e 3b 37
       6.6667844e-06 7e-43 3.4901277e-06 1.1156976e-05
000220 f4 01 00 00 81 8a 34 33 f4 01 00 00 db 31 b8 36
       7e-43 4.2035484e-08 7e-43 5.4894313e-06
000230 f4 01 00 00 04 d9 fc 35 68 d6 1f 35 f1 1b f3 34
       7e-43 1.8838623e-06 5.954412e-07 4.5282607e-07
000240 fd dd b9 37 88 4b 9d 36 d5 11 20 35 24 c9 70 37
       2.215709e-05 4.6877576e-06 5.9630594e-07 1.4351946e-05
000250 01 4d fc 34 b6 06 cf 35 f4 01 00 00 f4 01 00 00
       4.6994685e-07 1.5424655e-06 7e-43 7e-43
000260 f4 01 00 00 f4 01 00 00 f4 01 00 00 f4 01 00 00
       7e-43 7e-43 7e-43 7e-43
000270 f4 01 00 00 f4 01 00 00 f4 01 00 00 f4 01 00 00
       7e-43 7e-43 7e-43 7e-43
000280 f4 01 00 00 f4 01 00 00 f4 01 00 00 f4 01 00 00
       7e-43 7e-43 7e-43 7e-43
000290 f4 01 00 00 f4 01 00 00 f4 01 00 00 f4 01 00 00
       7e-43 7e-43 7e-43 7e-43
0002a0 f4 01 00 00 f4 01 00 00 f4 01 00 00 f4 01 00 00
       7e-43 7e-43 7e-43 7e-43
0002b0 f4 01 00 00 f4 01 00 00 f4 01 00 00 f4 01 00 00
       7e-43 7e-43 7e-43 7e-43
0002c0 f4 01 00 00 f4 01 00 00 f4 01 00 00 f4 01 00 00
       7e-43 7e-43 7e-43 7e-43
0002d0 50 8b 11 32 90 22 2f 31 4a 5c 6b 32 94 21 46 35
       8.471787e-09 2.5485498e-09 1.3699784e-08 7.380961e-07
0002e0 58 97 99 33 09 91 cd 34 ec 22 17 33 69 85 f0 32
       7.152147e-08 3.8289753e-07 3.518919e-08 2.8000345e-08
0002f0 80 83 cc 34 74 2b 43 32 74 e4 3e 33 9f 3b b4 30
       3.809364e-07 1.1360374e-08 4.44456e-08 1.3113669e-09
000300 26 2a 08 34 f4 01 00 00 6e a9 e0 33 4c d0 72 34
       1.268132e-07 7e-43 1.0461632e-07 2.2613784e-07
000310 f4 01 00 00 fc 88 82 30 f4 01 00 00 8a ce 07 34
       7e-43 9.497678e-10 7e-43 1.2647993e-07
000320 f4 01 00 00 e5 40 3d 33 93 25 36 32 8e 02 35 32
       7e-43 4.4064013e-08 1.0602338e-08 1.05361675e-08
000330 6d e2 07 35 24 5f 11 34 5c 8e 84 32 28 7f a7 34
       5.062091e-07 1.353879e-07 1.543156e-08 3.1198692e-07
000340 f0 50 50 32 e5 80 e4 32 a9 b8 a3 33 bc 22 b2 32
       1.21255965e-08 2.6601308e-08 7.6238685e-08 2.0737723e-08
000350 36 30 95 33 a8 ab d4 36 fb f0 18 35 ed 95 6e 36
       6.947123e-08 6.3380758e-06 5.6975085e-07 3.5552032e-06
000360 05 e6 a6 34 77 2c 60 34 b9 f0 76 36 04 92 de 33
       3.108727e-07 2.0877802e-07 3.6796976e-06 1.0364241e-07
000370 3b ee ba 34 13 eb 35 32 3f 55 a2 35 f4 01 00 00
       3.4818535e-07 1.0589036e-08 1.209475e-06 7e-43
000380 41 43 3c 35 80 32 07 36 f4 01 00 00 61 eb 06 32
       7.0133325e-07 2.0145962e-06 7e-43 7.8533455e-09
000390 f4 01 00 00 50 09 88 35 f4 01 00 00 26 40 c1 34
       7e-43 1.01355e-06 7e-43 3.5995726e-07
0003a0 38 47 c0 33 35 14 84 33 c7 22 8e 36 6f bf 83 35
       8.953651e-08 6.1504046e-08 4.2359784e-06 9.815975e-07
0003b0 8f 1e 07 34 ba 61 37 36 15 e3 be 33 d0 29 80 34
       1.2583972e-07 2.732601e-06 8.8888704e-08 2.387228e-07
0003c0 0b 2e 76 34 8c bf 81 33 50 2c 52 34 94 24 98 37
       2.2927286e-07 6.041873e-08 1.9573895e-07 1.8136845e-05
0003d0 07 09 cd 35 95 c0 29 37 50 e5 6f 35 26 2e 0f 35
       1.5276318e-06 1.0118024e-05 8.936813e-07 5.3338806e-07
0003e0 71 0c 35 37 59 2a 8f 34 6b 42 85 35 27 a3 dc 32
       1.0791337e-05 2.6666638e-07 9.928602e-07 2.5685564e-08
0003f0 09 42 72 36 f4 01 00 00 47 ce 0a 36 33 5a c0 36
       3.6099248e-06 7e-43 2.0683672e-06 5.7325465e-06

exp_avg f4 [30]
000000 6a 91 ef 39 c2 fd 31 39 cc fc 17 3a 74 77 d5 39
       0.00045693974 0.00016974568 0.00057978625 0.00040715525
000010 d7 bd a8 3a eb 9f 00 80 08 fc ff b8 6e c1 96 b9
       0.001287396 -5.7368e-41 -0.00012206292 -0.00028754346
000020 87 30 32 3a 3b cf 9b b9 ba 79 11 38 f6 af 10 b9
       0.0006797392 -0.00029718303 3.468406e-05 -0.0001379846
000030 24 d9 83 b8 1f cf 89 39 f6 1f 16 b9 3b 41 f5 b9
       -6.2870124e-05 0.00026284994 -0.00014317021 -0.00046778642
000040 7b 7d 0b 3a 2e c9 15 b9 eb 56 98 b8 4f c2 cf b8
       0.0005321127 -0.00014284693 -7.2641145e-05 -9.906722e-05
000050 17 cf 3f b9 e0 0d 99 b9 5b 16 3b 39 f9 ff 5a b8
       -0.00018292326 -0.00029192772 0.00017842038 -5.2213643e-05
000060 5f bc 80 39 be d4 03 ba ed cf 45 b9 c4 78 8a b8
       0.0002455441 -0.00050289545 -0.00018864842 -6.602847e-05
000070 14 f8 a5 b9 5c 84 cd 39
       -0.00031656085 0.00039199262

exp_avg_sq f4 [30]
000000 8c 77 68 36 35 4e c7 37 f6 e5 63 37 01 77 29 36
       3.464028e-06 2.3759067e-05 1.3583796e-05 2.5252232e-06
000010 ba 81 6f 38 f4 01 00 00 48 48 a5 35 57 34 2e 37
       5.7102858e-05 7e-43 1.2314495e-06 1.03833945e-05
000020 d2 8a f3 37 04 7c b0 36 95 59 0c 37 02 a6 c8 35
       2.90325e-05 5.259646e-06 8.365508e-06 1.4949476e-06
000030 b4 70 ad 34 54 81 b9 36 12 b3 7e 38 da 7a 3e 37
       3.2305763e-07 5.5284854e-06 6.072509e-05 1.1353486e-05
000040 11 37 38 37 67 7f d2 35 d9 e1 94 36 1a bf 4f 35
       1.0980076e-05 1.5683298e-06 4.437036e-06 7.73916e-07
000050 64 16 28 36 0f b4 49 37 53 07 8d 35 ea cd 70 34
       2.5046984e-06 1.2022457e-05 1.050745e-06 2.2426653e-07
000060 f9 66 11 36 13 8f 0f 37 a4 11 3a 36 85 d4 b4 34
       2.1666622e-06 8.556776e-06 2.7726428e-06 3.368224e-07
000070 0c 74 b4 36 0b 12 e4 37
       5.3779277e-06 2.718812e-05

exp_avg f4 [1, 30]
000000 6c 99 44 38 0e 16 38 b8 26 c3 f7 b7 8c 41 4f b9
       4.6872927e-05 -4.388956e-05 -2.9535568e-05 -0.00019765476
000010 2e 41 f6 b8 f9 9f 00 80 20 2a d7 35 84 3d a3 b8
       -0.00011742335 -5.7387e-41 1.6031008e-06 -7.783904e-05
000020 14 80 1d b8 38 ca 61 b7 4b 70 59 38 0a a3 d5 b9
       -3.7551e-05 -1.3458128e-05 5.1841413e-05 -0.00040748
000030 6e a9 97 b9 a0 2f 0b b7 9c 3c c2 b7 5f c2 1a b8
       -0.000289272 -8.296134e-06 -2.3154826e-05 -3.6897483e-05
000040 fb 41 43 b8 a3 2e 98 b8 8d 41 61 39 f7 3d 9f b9
       -4.6553072e-05 -7.2566116e-05 0.00021482092 -0.0003037301
000050 fe 99 09 ba 0a bf 72 b8 2c c4 7a 39 ee 7e b2 b8
       -0.0005249082 -5.7875215e-05 0.00023914938 -8.511344e-05
000060 7c 88 19 39 8f 2a 55 37 32 e5 8e b9 25 af 26 b9
       0.00014642061 1.2705698e-05 -0.00027255114 -0.0001589624
000070 47 a0 92 b7 30 4f cb b7
       -1.7479191e-05 -2.423636e-05
