Checkpoints/ANN_Simple_128_v2.pth (torch, 24109 bytes, 15 tensors)

linear.0.weight f4 [30, 12]
000000 bf 0d 7e 3f 4c ca ca be 29 9a a4 be 37 47 a9 be
       0.99239725 -0.39607465 -0.32148865 -0.33062145
000010 47 ef 94 bd d2 80 40 3d 5b 38 86 3e 40 35 66 3e
       -0.07272201 0.046997853 0.2621487 0.22481251
000020 a6 e8 c2 bd af 93 81 3e f9 66 ea 3d af 58 bc bd
       -0.095170304 0.25307986 0.11445422 -0.091966026
000030 10 cf 98 bd b9 f0 0c bd 69 e7 82 3e e7 54 09 be
       -0.07461369 -0.03440926 0.25567177 -0.13411294
000040 10 f5 ab 3d 15 b7 99 bd 85 b3 80 bc 8a df 81 bc
       0.08396351 -0.07505623 -0.015710602 -0.015853662
000050 f6 f9 23 bb e3 00 07 3d c3 7f d9 3a bd 0c 16 3e
       -0.0025020815 0.03295983 0.0016593862 0.14653297
000060 49 34 f1 84 75 e7 f0 84 39 90 f0 84 b2 5a f2 84
       -5.6706844e-36 -5.663629e-36 -5.6556176e-36 -5.6977217e-36
000070 07 8e f3 04 4e 94 f2 84 07 5d f3 84 27 44 f1 84
       5.7259457e-36 -5.7030123e-36 -5.7214458e-36 -5.6721416e-36
000080 8c 15 f2 84 a1 f2 f0 84 31 95 f5 84 ae 1e f1 84
       -5.6913714e-36 -5.664655e-36 -5.7736234e-36 -5.6687003e-36
000090 e8 f1 bf bd db 40 5e 3e a4 dd 51 bd 57 f9 3d 3d
       -0.09372312 0.21704428 -0.051236764 0.046380367
0000a0 91 72 b9 3d c3 68 cd bd 4e 36 6b bd 89 d1 4d 3e
       0.09055055 -0.10029747 -0.057424836 0.20099463
0000b0 ff b6 92 bd e4 14 86 3d 7b c1 18 bd b0 cf 00 3e
       -0.0716381 0.06546953 -0.037293892 0.12579226
0000c0 87 c6 16 be 46 ca fd 3e e0 5f 80 be 9b fc 79 3f
       -0.1472417 0.49568385 -0.25073147 0.9765107
0000d0 e2 d1 cb 3d e9 00 bd bd 42 9e 48 3d f5 8a d0 bc
       0.09952141 -0.09228689 0.04897905 -0.025456885
0000e0 f3 fa 25 3e c1 32 49 bd b6 44 89 bd 9c 15 bd bc
       0.16209011 -0.04912067 -0.06702559 -0.023081593
0000f0 3b a8 27 be ac 51 f5 bc 4a f1 12 be ac 65 f9 bd
       -0.16372769 -0.02994617 -0.14349857 -0.121775955
000100 79 ad d7 3c c4 13 09 bd 3b 4a 7c 3d cc 6a c8 3d
       0.026327835 -0.033466116 0.06159423 0.09785995
000110 4e 48 19 3d bf 65 30 3e f4 51 f4 3c 51 b0 16 3e
       0.03742247 0.17226313 0.029824235 0.14715697
000120 d3 46 31 3e 69 ac 13 bd 92 04 8c bd b3 13 cb 3e
       0.17312174 -0.036053095 -0.06836809 0.39663467
000130 84 f2 5c bc 52 f7 a5 bd 4f 12 ac 3b 76 87 3d bd
       -0.013485555 -0.08103813 0.005251206 -0.046271764
000140 95 bf d1 3c 41 3e 23 3e de 6e 3d bd 8e 2b 16 3e
       0.025604049 0.15941717 -0.04624831 0.14665052
000150 6a 7d 47 bf 28 b3 a2 3e cd fa ce 3e 77 3f 0b bf
       -0.7792574 0.3177731 0.4042572 -0.54393715
000160 57 5b 7d bd f1 d4 76 3d 7e b1 e1 3d f5 3f 2f 3e
       -0.061854687 0.06026167 0.11020182 0.17114241
000170 63 e1 39 be c3 dc 60 3e 5d 77 08 bd c9 02 84 3c
       -0.18152384 0.21959214 -0.03331696 0.01611461
000180 b4 1a d6 be 01 90 b4 bd 7a 5d c2 be 6b 5a bc bd
       -0.41817248 -0.08816529 -0.37961942 -0.09196933
000190 5c 08 70 3e 5d a4 5e be 52 1b 00 39 ee 6e 81 3d
       0.23440689 -0.21742387 0.00012217209 0.06319986
0001a0 1b 0b f5 84 b9 dc f5 84 73 b2 f3 04 22 db 81 3e
       -5.7609422e-36 -5.7801925e-36 5.7292905e-36 0.25362498
0001b0 11 64 48 3f 39 cb a5 be 96 21 39 3f 22 c0 b3 3e
       0.7827769 -0.3238161 0.72316873 0.35107523
0001c0 d0 50 0d be 7c 6b 08 3e aa 08 5e 3c 76 8e 49 3c
       -0.13800359 0.13322252 0.01355187 0.012302032
0001d0 13 f2 07 3e 69 94 05 be 7f 9d e9 3d 99 2b 10 be
       0.13275938 -0.13044895 0.11406993 -0.14079131
0001e0 bf 18 9f 3e d8 97 a4 be 49 3d d5 3e 9e b7 ab 3e
       0.31073567 -0.32147098 0.4164832 0.33538526
0001f0 7c 32 2b be 5c 62 26 3e 99 89 17 3e 1b af ed bd
       -0.16718477 0.16248459 0.14798583 -0.11605664
000200 0c e7 12 3e 27 ce 2e 3e 38 9a 8e bc c6 64 cb 3c
       0.1434595 0.17070828 -0.017407522 0.024828326
000210 da 55 16 3d 71 5f de 3d c9 db a8 bb 72 b7 fc 3d
       0.03670297 0.10858048 -0.0051531536 0.12339677
000220 86 c8 28 3c 7c 69 e7 3c 78 cf 44 3d 66 28 38 3d
       0.010301715 0.028248541 0.04804942 0.044960402
000230 0c f5 e7 bd 1d 8b 5f 3e a8 e6 24 be 2b 58 3f bd
       -0.11326036 0.21830411 -0.16103613 -0.046714943
000240 31 68 47 3e d6 85 2f be c4 fa 03 be 89 a6 5b bd
       0.1947334 -0.17140898 -0.12888628 -0.053625617
000250 93 5f ab bd 7f 7f 70 3d 30 9e 8f 3d c7 34 66 3e
       -0.08367839 0.05871534 0.07012594 0.2248107
000260 9b ab df bd 5e f8 f1 3c f7 de 13 3e 9f 76 e9 3d
       -0.10921403 0.029537376 0.14440523 0.11399578
000270 59 dc ff ba 06 02 8b be 73 94 a2 3e 81 b9 01 3f
       -0.0019520625 -0.2714998 0.31753883 0.5067368
000280 30 21 13 3c 12 3b 9c bc 79 37 47 bc 77 a5 cb bd
       0.0089800805 -0.019071136 -0.012159222 -0.09943669
000290 34 42 26 3e f4 af 7b bd 93 61 93 3b c5 ca a4 bd
       0.16236192 -0.0614471 0.0044977157 -0.08046488
0002a0 9d a6 b0 be ba 44 00 bd 7f 3e 90 3e d3 b2 37 bf
       -0.34502116 -0.031315543 0.2817268 -0.7175724
0002b0 76 36 81 3d 44 9c 64 bd 5c 12 32 3d 0e a8 d0 3d
       0.06309216 -0.05581309 0.04347454 0.10188304
0002c0 3f 8d 3b 3e 05 64 1f ba 6b de 81 bc e4 fb b3 3b
       0.183156 -0.0006080273 -0.015853127 0.005492674
0002d0 df 04 9e bd 40 c3 ae 3e e7 93 a3 3e e9 07 78 3f
       -0.07715773 0.3413334 0.31948778 0.9688707
0002e0 8e 4b 22 3e 33 cd 21 be 85 d2 81 bd 3d 98 8f be
       0.15849134 -0.15800934 -0.063389815 -0.28045836
0002f0 c5 0b 25 be ee 65 34 be c7 4a ae 3d 3b 1f d3 3d
       -0.16117771 -0.17617008 0.085103564 0.10308691
000300 95 8f 90 3d 28 36 d9 bd d1 bd 76 bd f1 7a 66 3d
       0.07058636 -0.106060326 -0.060239617 0.05626959
000310 c6 d7 9a bd ec 2d 00 3e 89 5f 17 3d 99 3c 5a 3d
       -0.07560687 0.12517518 0.036956344 0.053280447
000320 ab db 01 3e 1c 22 99 bd d3 d3 38 3d 35 6e 18 be
       0.12681453 -0.07477209 0.045123886 -0.1488579
000330 c1 bb 0c be 3b e8 ad be f5 c3 be 3d 1e 4e 6d 3e
       -0.13743497 -0.3396624 0.093147196 0.2317433
000340 33 6d a8 3d dd 9e 97 bd f2 d2 b2 3d 2a e6 df 3d
       0.08223953 -0.07403348 0.08731641 0.10932572
000350 0c c8 8d 3e 5a dd 4c 3d fe f8 60 3d 07 55 8a bd
       0.27691686 0.050015785 0.054924957 -0.06754499
000360 18 6f 7d 3e 9b a7 bc bd 99 0b 24 be d8 eb 04 be
       0.2474941 -0.09211656 -0.16020049 -0.12980592
000370 f9 c7 90 bd 69 cb 1e 3e 0e 3a a2 3d 81 98 0c 3e
       -0.07069392 0.15507282 0.07921229 0.1373005
000380 2d c4 93 3d 2c 60 8c bc 5a 99 41 bd 43 d2 21 3e
       0.07215152 -0.017135702 -0.047265388 0.15802865
000390 e3 cf 09 3f fb 23 7d be 4b bf f5 be 97 2d 44 bd
       0.53832835 -0.24720757 -0.47997507 -0.04789504
0003a0 47 6b b2 bd c8 cc 0a 3e 40 72 92 3d 5e 66 d1 3d
       -0.08711868 0.1355468 0.07150698 0.10224603
0003b0 d1 03 d3 bd e0 0e 6e 3e fd 1c 70 3c e6 23 93 3d
       -0.10303462 0.23247862 0.014655349 0.071845815
0003c0 01 f3 36 3e b5 e6 bd be b3 bb ef bd f4 d7 61 be
       0.17866136 -0.37090078 -0.11705723 -0.22055036
0003d0 9a c5 b1 bd cd d4 af 3b a4 a6 9e 3d 32 9d 1a 3e
       -0.08680268 0.005365944 0.07746628 0.15099028
0003e0 43 79 07 bd 7f 9a 04 bd 3a 84 36 bd 5c 3e 23 3e
       -0.03307463 -0.0323739 -0.044559695 0.15941757
0003f0 a7 35 ed bc 6d 31 14 3d 63 51 5d bd ea 54 03 bd
       -0.028956247 0.03617995 -0.054032695 -0.032063402

linear.0.bias f4 [30]
000000 5d f6 47 3e 5a 42 3a bc 1c 0b f2 84 d6 4d 0a be
       0.19527574 -0.0113683585 -5.690413e-36 -0.13506255
000010 1c d9 7f be 17 e5 89 3e e4 af 7c 3e 4f d7 1a bd
       -0.24985164 0.26932594 0.24676472 -0.03780299
000020 eb 6e f8 bd f6 1f 8e 3c ce 5a 53 3d d8 cd 2d 3e
       -0.12130531 0.017349225 0.05160027 0.16973054
000030 22 33 73 3e c0 11 12 3d 30 bf c2 bd 88 54 4d be
       0.23749974 0.03566146 -0.09509122 -0.20051777
000040 02 6a 4e 3e cd 77 64 3e f4 a3 e9 3d a6 d8 47 3e
       0.20157626 0.22311325 0.11408225 0.19516239
000050 79 38 3a 3e c9 c8 f1 3d 43 7e ee 3d e7 ef 1c be
       0.18185605 0.11805875 0.11645176 -0.1532589
000060 fe 49 56 3d cb 59 e0 3d 0c 76 7a be c8 7b 72 3d
       0.05231666 0.10954627 -0.24459094 0.05920008
000070 a9 17 54 be b7 34 8e 3e
       -0.2071215 0.27774593

linear.2.weight f4 [30, 30]
000000 f0 b4 a3 bc f7 fe 82 bd f9 b1 f4 04 7b b4 d1 3c
       -0.019983739 -0.06396287 5.7527566e-36 0.025598755
000010 6a f5 9b bd 2b e9 6d bc 9a 10 32 bd bc 60 b9 3d
       -0.076151684 -0.014520924 -0.043472864 0.09051654
000020 56 61 1a bc fa 94 b0 3d 3b e1 17 3d 94 07 a2 3a
       -0.009422621 0.08622165 0.03708003 0.0012361878
000030 e6 20 80 bd df cc 7c bc 4b 87 d9 3c 32 f1 6b bd
       -0.06256275 -0.015429704 0.02655377 -0.05760307
000040 9b 5b c7 bc ff c6 97 bd d1 0a e6 bc 90 bc 84 bc
       -0.024335673 -0.07411002 -0.02808133 -0.016203195
000050 8d 13 95 bd b7 fc 60 3b 3a 4f 38 bd 4c 85 1d 3e
       -0.0727912 0.0034330317 -0.04499743 0.1538288
000060 6b 0e 92 3d 39 73 a1 bd 14 05 5a 3c e4 b1 57 3d
       0.07131656 -0.07883305 0.013306875 0.052659884
000070 16 22 80 3e 05 8e 07 bd 27 0a 38 3c 06 4e bf bc
       0.25026006 -0.033094425 0.011232889 -0.023352634
000080 33 2e f4 04 6b f5 ba bb 38 d0 bb 3c 31 23 b7 3b
       5.740655e-36 -0.0057055256 0.022926435 0.005588912
000090 47 f9 52 bc ac 3d 87 3c c0 e4 08 3a 06 82 3f 3b
       -0.012876815 0.0165089 0.00052220747 0.0029221787
0000a0 b4 b7 4e 3c bb 4a ee bb 47 8e 84 3a c6 eb 48 bb
       0.01261704 -0.007272092 0.0010113203 -0.003065811
0000b0 5a 9c 14 3d 51 2c 89 bb c7 68 8d 3c 15 36 81 bc
       0.03628192 -0.004186191 0.017261876 -0.015772859
0000c0 a4 c3 62 3c 86 e4 7c 3c 98 d1 11 bc 3c a9 0b 3d
       0.01384059 0.015435344 -0.008900069 0.03409694
0000d0 23 cb d3 bc 03 59 44 3d c7 d9 ac 3d 52 e4 31 3c
       -0.0258537 0.04793645 0.08439975 0.010857658
0000e0 bd 2a 4a bd 08 38 59 3b 99 ec a4 3d 5d 79 6e bc
       -0.049357165 0.003314497 0.0805294 -0.014555302
0000f0 b8 dd 66 3e 1a ed 1d bd 15 0d f5 84 08 0c cf bd
       0.22545516 -0.038556196 -5.7611237e-36 -0.10109717
000100 fd 08 aa be 1c 9f 29 3d 88 ac 20 3e 53 83 30 be
       -0.33209983 0.041411504 0.15690815 -0.17237596
000110 58 5c a6 bc 7e 47 d3 3d 00 c7 f0 3d 6d b7 ca 3d
       -0.020307705 0.103163704 0.11756706 0.09898267
000120 55 ab d1 3c 34 5b eb 3d cb 25 d7 bd 8a fb 01 bf
       0.025594393 0.11492005 -0.10505255 -0.50774443
000130 da 72 f7 3d 4c ae 29 3e fc cb c3 3d 0e 8e 00 3e
       0.12082453 0.16570395 0.09560391 0.1255419
000140 80 84 ed 3d 5c e5 94 3d 26 07 90 3c 16 aa 63 3d
       0.11597538 0.07270309 0.017581534 0.05558213
000150 ba c7 3a 3e e7 c8 84 bd 25 4a 7a be 12 42 af bd
       0.18240252 -0.064836316 -0.24442346 -0.08557524
000160 35 2d 14 3e f3 4c 2a 3c a2 f2 b6 3c 61 a5 2b 3d
       0.1447037 0.010394323 0.022332493 0.041905764
000170 37 c5 f3 84 78 e7 42 3d ea 31 10 bd bc 76 48 3d
       -5.731014e-36 0.047584027 -0.03520385 0.04894136
000180 9f 7c 8c 3d 13 79 22 3c 9c 84 94 bb af 94 a0 3c
       0.06859707 0.009916562 -0.00453241 0.019602148
000190 84 56 fb bc 83 5a 84 3c e6 3b c3 3c 97 7f 08 3c
       -0.030680902 0.01615644 0.023832273 0.008331201
0001a0 45 10 8b bd 40 03 17 bd 3d 80 34 bc 97 c6 23 3c
       -0.067902125 -0.036868334 -0.0110169025 0.009996078
0001b0 d6 54 f1 bc 22 6c 44 bc ab 73 c4 bb bc 6e 8f 3b
       -0.029459398 -0.0119886715 -0.005995234 0.0043772142
0001c0 f0 5c 2f 3d f5 6a 23 bd 91 00 35 bd 43 7a f8 3c
       0.04281324 -0.039896924 -0.044189993 0.030331736
0001d0 60 5e a2 3d c6 04 82 3d 04 5e dd bc b6 b5 d7 3c
       0.07928157 0.06348567 -0.02702237 0.026331764
0001e0 b1 53 53 be 32 f6 fc 3d 9b 43 f1 84 28 4d 9a 3d
       -0.20637394 0.123516455 -5.6720914e-36 0.07534248
0001f0 75 03 7c 3e 9b f1 e1 3d f0 a2 9b 3d 79 32 98 3e
       0.24610694 0.11032411 0.07599437 0.29726008
000200 ff d0 57 3e 4e c2 ae be df 95 09 be b8 cb ef bd
       0.2107582 -0.34132618 -0.13436078 -0.11708778
000210 21 54 00 be d1 1f 2d 3d 47 f4 82 3e 6e f9 9d 3d
       -0.12532093 0.04226667 0.25576994 0.077135906
000220 76 90 91 3d 5d cd 64 3e 7a 30 bb bd 61 25 1d be
       0.07107632 0.22343965 -0.091401055 -0.1534629
000230 56 50 e0 bd 2c 6a f3 bc ba 1f 6f bd 0c 72 f1 be
       -0.10952823 -0.029713713 -0.058379866 -0.47157323
000240 1d 4d 13 bf 08 f7 3b 3e 5f 31 d0 3c 22 fb 2b bc
       -0.5753954 0.18355954 0.025414167 -0.010496886
000250 95 42 de be 90 b5 2e 3e 76 eb f1 84 76 17 f3 84
       -0.43410173 0.17061448 -5.6875064e-36 -5.715057e-36
000260 bf 60 f3 04 19 aa f2 84 82 4a f2 84 fb 5b f0 04
       5.7217873e-36 -5.7050137e-36 -5.696235e-36 5.65082e-36
000270 d6 c2 f4 84 ef 14 f2 04 95 4b f3 04 7b ab f0 84
       -5.7543053e-36 5.691315e-36 5.7198437e-36 -5.658121e-36
000280 ea e0 f0 84 97 b5 f5 84 7b 9b f4 04 3b b1 f4 84
       -5.663028e-36 -5.7765987e-36 5.750691e-36 -5.7526885e-36
000290 d8 8d f3 04 be 28 f0 84 26 2c f2 84 ba 3f f3 84
       5.725929e-36 -5.6461145e-36 -5.693447e-36 -5.718755e-36
0002a0 95 03 f5 84 dc e7 f4 84 ae ac f1 84 f0 d1 f1 84
       -5.7602513e-36 -5.7577054e-36 -5.681741e-36 -5.6851625e-36
0002b0 49 5a f0 84 a6 04 f6 04 d9 be f1 84 a3 d6 f4 84
       -5.6506643e-36 5.783859e-36 -5.6834094e-36 -5.7561237e-36
0002c0 da 46 f4 84 0e 72 f1 84 d1 5f f0 84 a7 ce f0 84
       -5.742919e-36 -5.676357e-36 -5.6511722e-36 -5.661351e-36
0002d0 cc bb 90 3e 64 28 48 3d 3c 2b f4 84 88 0d f5 bd
       0.28268278 0.048866645 -5.740383e-36 -0.119654715
0002e0 a0 ac 16 bf 45 80 9d 3d 05 39 03 3e 76 93 0d bd
       -0.58857155 0.07690481 0.1281472 -0.034564458
0002f0 3a d2 7f bb 9b 49 d5 3b cf 3c a5 3d 9e 0a db 3d
       -0.0039035217 0.0065090186 0.08068239 0.106953844
000300 b8 64 89 3d cd af 0f bd ef 65 6c bd c3 c3 0c bf
       0.06708664 -0.035079766 -0.0577144 -0.5498621
000310 5d c8 20 bd e5 2f fd 3b 6f 5d fd 3d 0c e3 7c 3e
       -0.03925358 0.0077266567 0.12371337 0.24695987
000320 08 02 d4 3d e3 ec dd bb ea c9 29 bd 3e a4 71 3e
       0.1035195 -0.006772624 -0.041452326 0.2359781
000330 06 5a 91 3e 22 4c cb 3c 50 13 6c be 57 3d 8b be
       0.28388995 0.024816576 -0.23054242 -0.27195236
000340 69 cb 24 3e 49 54 00 3e 72 c6 86 3e e9 b9 6f 3a
       0.1609322 0.12532152 0.26323277 0.0009144829
000350 9d 95 f0 04 c0 99 09 be c5 18 81 be 5f 93 14 3c
       5.6561127e-36 -0.13437557 -0.2521421 0.009068339
000360 bb f3 63 3e 73 44 45 be b1 c9 2f 3b 31 7e 62 3e
       0.22260945 -0.19264393 0.0026823098 0.2211845
000370 7d 8e f7 3d cf 2b 9d 3b 5e d2 5a bc f5 0d 6f 3e
       0.12087724 0.004796482 -0.0133558195 0.23345168
000380 1b 8a 0a be 2f 7c dc be 00 4c fb 3d 59 83 4c 3e
       -0.13529246 -0.43063495 0.12270355 0.1997198
000390 d0 9d c3 3d aa 7f 32 3d bd 90 cd 3d c1 68 0b 3d
       0.09551585 0.04357878 0.10037372 0.034035448
0003a0 ab 8a fd 3d e1 e4 90 bd 4e 78 31 3e 79 df f0 bd
       0.123799644 -0.07074905 0.17331049 -0.11761374
0003b0 ab f8 92 be 08 2a 91 bd 9f ec c4 3d da 42 0d 3b
       -0.28705344 -0.07088095 0.096154444 0.002155474
0003c0 e0 59 2d 3e 26 d0 d1 3c dd 5a f3 84 da 56 c2 bd
       0.16928816 0.025611948 -5.721247e-36 -0.09489222
0003d0 72 b2 4a be 17 ac 0e 3e d9 6b ec bc a2 64 30 be
       -0.19794634 0.13932835 -0.02886002 -0.17225888
0003e0 d2 6c 33 bc 37 b4 eb 3d e2 c6 c4 3d 11 36 3f bc
       -0.010951238 0.11508983 0.096082464 -0.011670605
0003f0 de 4d 94 3d 5b 8f 06 3e a3 9f d6 bd 07 b6 cd be
       0.072414145 0.13140623 -0.10479667 -0.40177938

linear.2.bias f4 [30]
000000 18 ce 43 3d f1 b4 1c 3c 2f f2 a5 b9 8a dc f0 3d
       0.04780397 0.009564624 -0.00031651693 0.117608145
000010 ae af ef bd 82 13 f2 84 c0 25 b9 ba 1c 99 68 3d
       -0.1170343 -5.691184e-36 -0.001412563 0.05678664
000020 b1 b1 24 3d 2b fa 7a 3d 41 d0 01 bd fd b8 f0 84
       0.040208522 0.061273735 -0.031692747 -5.6593614e-36
000030 dd 5d 7f bd 58 0e f1 84 68 51 93 bd db 37 11 bd
       -0.062345374 -5.6672e-36 -0.071932614 -0.03545366
000040 23 74 fa bc a9 5b 37 bd 2f f0 0c 3d 1a 9f 36 3d
       -0.030572956 -0.04476515 0.034408744 0.044585325
000050 28 e0 2a 3c e8 2b 25 3c 31 ff a7 bc 80 5b b6 3d
       0.01042942 0.010081269 -0.020507427 0.08904171
000060 ed 3a 1e 3e 8e 7e 3c 3d 6a 7c 92 3c 64 e4 e3 bd
       0.15452166 0.04601913 0.01788159 -0.111275464
000070 2b 73 f1 84 e1 f2 f7 3c
       -5.6764593e-36 0.03026718

linear.4.weight f4 [1, 30]
000000 83 3d bb be 7f e4 16 be 3e e0 50 3f 5a 15 6a 3e
       -0.36570367 -0.14735602 0.81592166 0.22859707
000010 ef 17 92 bf 3f 80 f2 04 e1 83 8a 3f 57 b5 5f 3f
       -1.1413554 5.7011702e-36 1.0821496 0.8738608
000020 51 43 32 3f a2 07 60 3e 44 f6 13 bf 1d bc ee 84
       0.69633967 0.21877912 -0.57797647 -5.6126286e-36
000030 22 a0 ea be 41 ad f1 84 02 f7 93 bf 9e 6e a3 bf
       -0.45825297 -5.6817936e-36 -1.1559756 -1.2768133
000040 be 96 90 be b8 05 e4 3e ce db 57 3f 74 a4 db be
       -0.28240007 0.44535613 0.8431977 -0.42898905
000050 ac 73 86 3d e7 b2 df be a2 e6 06 bf a5 b8 68 c0
       0.065650314 -0.4369118 -0.5269567 -3.6362698
000060 17 13 c4 bf 4d 73 b4 3d 96 b9 88 3f 75 ed 60 3f
       -1.5318326 0.088110544 1.0681636 0.8786233
000070 7b dc ef 04 be fe 0a 3e
       5.639111e-36 0.13573739

exp_avg f4 [30, 12]
000000 89 0d f3 36 a9 24 fa 3a 90 16 a1 3a ee 88 ea 39
       7.24354e-06 0.0019084412 0.0012290049 0.0004473398
000010 70 ee 9d 3a 32 d8 9e 3a ba 5d 3f 3a 3b 3d 5b 3b
       0.0012049209 0.0012118875 0.0007300038 0.0033453244
000020 d7 c5 c0 b5 b7 ed 1a 3a c6 f9 3a 39 a7 6c 4f 3b
       -1.4362694e-06 0.0005910056 0.0001783139 0.0031650455
000030 d0 31 42 36 dc c3 20 b9 e3 44 86 b8 36 37 d3 b7
       2.8937247e-06 -0.00015331752 -6.402449e-05 -2.517887e-05
000040 ee 33 a8 b8 af ff a6 b8 ac c0 33 b8 32 a7 8a b9
       -8.020537e-05 -7.9631216e-05 -4.2856365e-05 -0.0002644598
000050 b2 f6 55 b7 8c 15 0e 38 2a 58 46 b9 d1 41 97 b8
       -1.2753228e-05 3.3875505e-05 -0.00018915595 -7.2125e-05
000060 17 9e 00 80 e5 9d 00 80 ac 9d 00 80 d8 9e 00 80
       -5.6712e-41 -5.6642e-41 -5.6562e-41 -5.6982e-41
000070 a2 9f 00 00 fe 9e 00 80 82 9f 00 80 22 9e 00 80
       5.7265e-41 -5.7036e-41 -5.722e-41 -5.6727e-41
000080 ab 9e 00 80 ec 9d 00 80 f6 a0 00 80 09 9e 00 80
       -5.692e-41 -5.6652e-41 -5.7742e-41 -5.6692e-41
000090 d7 3d a4 b6 a5 57 1e b9 93 87 2b b9 b8 1f a8 b8
       -4.89478e-06 -0.00015100704 -0.00016358336 -8.016772e-05
0000a0 94 1c 32 b9 c7 ae 36 b9 27 36 c0 b8 d6 6c ce b9
       -0.00016986049 -0.00017421982 -9.16536e-05 -0.0003937247
0000b0 b6 ee 49 35 d7 8e db b8 24 b8 0b 39 dd 7b 0a ba
       7.5225705e-07 -0.0001046934 0.0001332467 -0.00052827393
0000c0 17 17 a0 b7 d3 3b 89 ba 2f 3b 62 ba 72 e7 d6 b9
       -1.9084238e-05 -0.00104701 -0.0008630035 -0.000409897
0000d0 57 b4 71 ba 80 b4 75 ba 32 5e f2 b9 20 0e 94 ba
       -0.0009220293 -0.0009372905 -0.00046228018 -0.0011295713
0000e0 71 56 8b 38 86 b1 bf ba 02 4e 1a 3a b7 51 e2 ba
       6.6441375e-05 -0.001462505 0.0005886258 -0.0017266785
0000f0 7f fc f2 33 5e de ac b9 67 b9 5a b9 1a d7 70 b8
       1.1314932e-07 -0.00032972073 -0.00020859168 -5.7420788e-05
000100 e4 45 4d b9 81 ab 4e b9 0f ba ff b8 d9 af 1e ba
       -0.0001957636 -0.00019709581 -0.00012194004 -0.0006053425
000110 1e f8 e7 b6 5a 6f 56 b8 a9 06 6b b8 3b 8f 0f ba
       -6.913221e-06 -5.112528e-05 -5.603457e-05 -0.000547636
000120 cb 65 0d 37 eb 5b 9f 39 c1 c5 a1 39 4a 03 20 39
       8.427955e-06 0.00030395327 0.0003085565 0.00015260014
000130 c3 d0 9e 39 00 08 a0 39 f1 25 31 39 d6 f6 50 3a
       0.00030291648 0.0003052354 0.0001689417 0.0007971352
000140 24 0b b1 b7 e4 99 25 39 e7 6a 4a b9 a5 50 82 3a
       -2.1105232e-05 0.00015792955 -0.00019304045 0.0009942247
000150 34 4d a1 b6 6f ea ae ba 77 cd 71 ba f4 ac b5 b9
       -4.8071615e-06 -0.0013345013 -0.0009224037 -0.0003465187
000160 fa 17 68 ba 94 21 6a ba fa 93 0d ba a4 b0 24 bb
       -0.00088536704 -0.0008931395 -0.00054007734 -0.00251297
000170 a6 66 1f 38 2d f4 ef b9 40 34 ef 36 98 98 25 bb
       3.8004153e-05 -0.00045767557 7.1288378e-06 -0.0025267955
000180 0c a0 84 b6 87 54 77 ba 32 12 25 ba 2b 51 5b b9
       -3.9525385e-06 -0.0009434898 -0.0006296962 -0.00020915705
000190 78 be 29 ba 33 12 2b ba 83 c5 c2 b9 c0 c1 05 bb
       -0.00064752204 -0.0006525844 -0.0003714972 -0.0020409673
0001a0 9b a0 00 80 25 a1 00 80 ba 9f 00 00 cc a1 05 bb
       -5.7614e-41 -5.7808e-41 5.7299e-41 -0.0020390628
0001b0 69 c3 0d 37 a8 15 fb 3a 8a 7d ad 3a ce cc ef 39
       8.449752e-06 0.0019156234 0.0013236266 0.00045738224
0001c0 d5 c7 af 3a c6 6a b2 3a b9 a4 44 3a 61 20 74 3b
       0.0013410995 0.0013612143 0.0007501352 0.0037250745
0001d0 d3 83 8a b8 6a aa f0 39 18 82 58 38 72 40 71 3b
       -6.604907e-05 0.00045903336 5.1619572e-05 0.0036812094
0001e0 9b 40 2c 36 d3 dc 4b 3a 2c 39 08 3a e4 fb 41 39
       2.5667603e-06 0.0007776741 0.00051965076 0.00018499751
0001f0 db 01 fc 39 2d 44 ff 39 90 5d a0 39 40 1b b6 3a
       0.00048066568 0.00048688185 0.00030587288 0.0013893619
000200 7f f1 43 b7 d6 6b 90 39 35 0b bc 36 d6 bd b5 3a
       -1.1679133e-05 0.00027546164 5.6041413e-06 0.001386578
000210 9d b1 84 36 90 ba 58 35 8b 3d ad 38 88 b5 24 38
       3.9545835e-06 8.0737755e-07 8.260746e-05 3.926971e-05
000220 f0 51 9c 38 0c dc 9e 38 ee 46 22 38 99 f8 5e 39
       7.453922e-05 7.575014e-05 3.868987e-05 0.0002126418
000230 7e d0 36 b8 46 99 31 38 06 c6 1e b9 e6 3c c0 39
       -4.3586355e-05 4.2342836e-05 -0.00015141824 0.00036666467
000240 1d a9 b2 35 a6 e1 fb 39 8e 3d 92 39 25 3b cd 38
       1.3311252e-06 0.00048042572 0.00027893152 9.786178e-05
000250 4a df 86 39 08 fc 88 39 51 14 31 39 a0 f5 4f 3a
       0.00025724835 0.0002612772 0.00016887604 0.00079330243
000260 a8 5e b6 36 ed b9 e0 38 e4 ff c4 38 40 37 37 3a
       5.435042e-06 0.00010715784 9.393672e-05 0.0006989129
000270 46 86 3d 36 a9 0e 31 39 3e 69 cc 38 90 04 73 38
       2.8241352e-06 0.00016885497 9.747081e-05 5.7939964e-05
000280 98 2c 89 38 83 b2 8f 38 3a 1c 60 38 d1 f0 cf 37
       6.540975e-05 6.852022e-05 5.343205e-05 2.4788462e-05
000290 bc 8b 9e b7 3d 6e 97 39 0a 09 c2 37 a5 bf 92 36
       -1.8900137e-05 0.00028883098 2.3130811e-05 4.3734494e-06
0002a0 15 22 44 b6 03 54 8e ba 6c 1b 49 ba a0 50 8a b9
       -2.9226114e-06 -0.0010858778 -0.00076716277 -0.0002638148
0002b0 33 32 43 ba 01 17 44 ba a0 7b e0 b9 96 90 1d bb
       -0.000744614 -0.00074802345 -0.00042816717 -0.0024042479
0002c0 8e ee 31 38 fa 51 d1 b1 2c cb 0f b8 8f b6 1b bb
       4.242226e-05 -6.09202e-09 -3.4283075e-05 -0.0023759936
0002d0 fa 07 c2 b7 cd 0f 7e ba 6d f2 1b ba f7 45 7f b9
       -2.3130317e-05 -0.00096916856 -0.0005948905 -0.00024344759
0002e0 7e ff 21 ba 10 6a 28 ba c2 e4 b0 b9 d2 7e 0a ba
       -0.0006179734 -0.0006424496 -0.00033739774 -0.000528318
0002f0 7c 9d b9 36 a8 52 ae ba 5c ba 9f b8 f9 0d eb b9
       5.5317632e-06 -0.001329978 -7.616423e-05 -0.00044833103
000300 e0 92 0d 36 ac 81 06 39 c2 7d d1 38 8a 74 63 38
       2.109613e-06 0.00012827542 9.989321e-05 5.4229553e-05
000310 84 8b de 38 db 4d e4 38 78 80 6c 38 dc 16 7c 39
       0.00010611772 0.00010886389 5.638643e-05 0.00024041109
000320 27 da 49 36 1b 5a 88 38 62 38 3b b8 87 83 94 39
       3.0078315e-06 6.501769e-05 -4.4636785e-05 0.00028326755
000330 7b 53 12 37 a3 da b0 b9 70 68 c5 b8 57 bf 1f 38
       8.721715e-06 -0.00033732233 -9.413145e-05 3.8086753e-05
000340 a4 53 48 b8 52 05 48 b8 00 fa 87 b8 92 e5 d6 b9
       -4.7761612e-05 -4.768867e-05 -6.483868e-05 -0.00040988304
000350 bc 6c 62 37 bb 65 8d 38 2d 7c af b9 7d ec a2 b8
       1.3495966e-05 6.742353e-05 -0.0003347112 -7.768811e-05
000360 6e 21 74 35 65 13 e1 39 c6 ed 92 39 69 3f c2 38
       9.094573e-07 0.00042929794 0.00028024445 9.262452e-05
000370 c7 95 90 39 85 15 93 39 ec be 2b 39 ff 2a 45 3a
       0.00027577413 0.00028054058 0.00016378955 0.00075213605
000380 1f 69 66 b7 0a 40 11 39 36 c6 43 37 5a 7f 42 3a
       -1.3733544e-05 0.00013852134 1.1669055e-05 0.00074194896
000390 4a 9c 3b 36 dd f1 92 3a 19 8a 37 3a 2e 8a 80 39
       2.7956144e-06 0.0011210997 0.0007001474 0.00024517014
0003a0 27 4b 2e 3a 56 46 30 3a 9d d2 d9 39 8e 9c ff 3a
       0.0006648772 0.0006724348 0.00041546384 0.0019501613
0003b0 d2 49 70 b3 48 91 98 39 16 7c 05 39 d1 e3 ee 3a
       -5.5946494e-08 0.00029099942 0.00012730094 0.0018225854
0003c0 e0 6c af 35 4c 81 f3 39 d9 c3 9e 39 0f f8 ce 38
       1.3070203e-06 0.00046444905 0.00030282026 9.86905e-05
0003d0 51 32 98 39 2c 9d 99 39 bf 1d 3a 39 54 ae 7b 3a
       0.00029029188 0.00029299536 0.00017749424 0.0009600867
0003e0 a0 ee 55 b5 c6 82 b5 b4 9a 7e 08 b8 e3 10 82 3a
       -7.969593e-07 -3.3809027e-07 -3.2542834e-05 0.0009923246
0003f0 22 06 44 b5 2a 80 e3 b8 33 54 ad b8 04 b4 de b7
       -7.3024614e-07 -0.00010848076 -8.264966e-05 -2.6548289e-05

exp_avg_sq f4 [30, 12]
000000 29 0e 37 30 ca d0 cb 37 e3 e9 24 37 b7 7b cf 35
       6.6595135e-10 2.429671e-05 9.829618e-06 1.5458708e-06
000010 58 5f 8d 37 48 10 91 37 93 4e 5f 36 d4 b6 97 38
       1.6852908e-05 1.7292929e-05 3.3275326e-06 7.2342955e-05
000020 69 57 4b 2f 39 aa f4 37 42 e1 89 36 80 74 8c 38
       1.8493797e-10 2.9166333e-05 4.1091416e-06 6.69742e-05
000030 6c 1e 0e 2f cd d5 53 34 7a 24 11 33 85 03 b4 31
       1.2925633e-10 1.9728687e-07 3.379362e-08 5.2390896e-09
000040 ad 23 c4 33 87 d7 c2 33 4e 41 ad 32 34 a5 f5 34
       9.1334506e-08 9.073033e-08 2.0169548e-08 4.5755007e-07
000050 b8 db 29 32 7b df 6f 33 b9 3b 2a 34 c5 e0 89 34
       9.887053e-09 5.5849778e-08 1.5854211e-07 2.568178e-07
000060 f4 01 00 00 f4 01 00 00 f4 01 00 00 f4 01 00 00
       7e-43 7e-43 7e-43 7e-43
000070 f4 01 00 00 f4 01 00 00 f4 01 00 00 f4 01 00 00
       7e-43 7e-43 7e-43 7e-43
000080 f4 01 00 00 f4 01 00 00 f4 01 00 00 f4 01 00 00
       7e-43 7e-43 7e-43 7e-43
000090 8b 96 1c 2f 73 70 67 35 0f cc 9d 34 30 fc 44 33
       1.4241601e-10 8.621784e-07 2.9392e-07 4.586417e-08
0000a0 4f f8 18 35 36 98 1b 35 d8 a8 ed 33 a2 a9 30 36
       5.698575e-07 5.7963496e-07 1.1066885e-07 2.6324783e-06
0000b0 07 c1 14 2f bc 22 40 35 5f fa db 34 e6 09 0d 36
       1.3529099e-10 7.157612e-07 4.0974098e-07 2.10164e-06
0000c0 49 2b 0e 31 f0 4e 6e 37 e0 1d a4 36 66 88 68 35
       2.0688324e-09 1.42042845e-05 4.891059e-06 8.662522e-07
0000d0 7f 63 24 37 f5 d3 27 37 c0 94 ea 35 90 7c 1e 38
       9.7983275e-06 1.0003326e-05 1.747765e-06 3.7786143e-05
0000e0 83 f9 af 34 5e d5 73 37 4b 22 ee 35 e0 d1 15 38
       3.2777834e-07 1.4533607e-05 1.7742362e-06 3.571983e-05
0000f0 6a 46 e2 2d 53 17 d3 34 e5 49 30 34 30 4d c7 32
       2.5724495e-11 3.9318783e-07 1.641816e-07 2.320175e-08
000100 51 7d 96 34 32 3f 9a 34 58 23 6e 33 97 56 b2 35
       2.8030857e-07 2.8730716e-07 5.5445838e-08 1.3287234e-06
000110 97 d1 44 32 61 8f a8 34 42 a7 05 34 3f fe 9e 35
       1.1456357e-08 3.139676e-07 1.2447438e-07 1.1845913e-06
000120 50 50 07 30 14 3d 38 36 62 c1 7e 35 3b 47 18 34
       4.9226845e-10 2.7453689e-06 9.490378e-07 1.4182017e-07
000130 96 1e f0 35 d0 99 f4 35 44 0b c1 34 ad bc 09 37
       1.7890295e-06 1.8224182e-06 3.5957248e-07 8.209766e-06
000140 c8 9f 20 34 67 ef 1b 36 0b f7 c8 35 73 f7 d3 36
       1.4959289e-07 2.323615e-06 1.497306e-06 6.317097e-06
000150 21 81 d3 2f 09 e1 6c 37 31 90 be 36 9e 7a 6d 35
       3.8472428e-10 1.4119091e-05 5.6792273e-06 8.846781e-07
000160 fa 29 23 37 1d 72 27 37 b2 dd 01 36 a3 75 31 38
       9.7253305e-06 9.980545e-06 1.9351542e-06 4.2309646e-05
000170 4d 90 40 34 2e 05 8a 37 d2 a2 33 36 05 09 22 38
       1.793389e-07 1.6453294e-05 2.6767852e-06 3.863221e-05
000180 6b 7a 1a 2f 51 be c1 36 f1 e4 1d 36 56 07 ca 34
       1.404971e-10 5.774004e-06 2.3528085e-06 3.763077e-07
000190 be 85 aa 36 9a 97 ad 36 77 d9 58 35 24 42 cb 37
       5.0819644e-06 5.1734505e-06 8.0782723e-07 2.4230285e-05
0001a0 f4 01 00 00 f4 01 00 00 f4 01 00 00 b0 41 cb 37
       7e-43 7e-43 7e-43 2.4230074e-05
0001b0 d7 2a 45 30 6b 81 e6 37 c4 e1 41 37 d0 53 e8 35
       7.172906e-10 2.7478402e-05 1.1556262e-05 1.730974e-06
0001c0 31 ea 87 37 2a 64 8b 37 c8 48 80 36 6b e5 c4 38
       1.6202308e-05 1.6616734e-05 3.82317e-06 9.388741e-05
0001d0 fb 0a 01 35 7c 26 9e 37 37 19 f9 36 8c 39 b1 38
       4.8072224e-07 1.8852988e-05 7.4237137e-06 8.450737e-05
0001e0 90 f1 ce 2e 42 1d 61 36 f3 e8 b6 35 d1 4f 6a 34
       9.4107055e-11 3.3544643e-06 1.3627854e-06 2.1821985e-07
0001f0 53 1c e0 35 93 fd e8 35 7b c9 f8 34 05 58 14 37
       1.6697544e-06 1.7359147e-06 4.6340196e-07 8.841981e-06
000200 1b a4 39 33 2d 7b b7 36 a9 a0 1c 32 4e 0f 14 37
       4.3222922e-08 5.4681645e-06 9.116925e-09 8.825051e-06
000210 41 ec 17 2f 79 bb 1e 35 96 c9 46 34 8d 3b e8 32
       1.3817304e-10 5.9132395e-07 1.8513524e-07 2.7035435e-08
000220 bb 0b c3 34 89 68 c5 34 17 03 9f 33 e3 e7 e3 35
       3.6330115e-07 3.677017e-07 7.4045765e-08 1.6980306e-06
000230 ce aa 57 33 ed 8a cf 34 a9 62 08 35 6d 66 92 35
       5.0213934e-08 3.8657836e-07 5.080752e-07 1.0907657e-06
000240 9f 11 2c 2e 66 18 a5 35 2c bc 01 35 38 be a6 33
       3.9123923e-11 1.2300559e-06 4.833007e-07 7.764578e-08
000250 65 d8 58 35 5b 88 5e 35 29 1f 30 34 9c a3 64 36
       8.0781166e-07 8.289987e-07 1.6402613e-07 3.406988e-06
000260 b6 75 1f 32 65 03 d5 35 b8 ba 74 34 5e c5 50 36
       9.2817825e-09 1.5870725e-06 2.2792199e-07 3.1109298e-06
000270 d4 7f a9 2e b6 e9 f4 34 f3 5b 4e 34 a5 fc 22 33
       7.707937e-11 4.561859e-07 1.9218696e-07 3.7948343e-08
000280 5e 50 f9 33 32 37 08 34 f7 8c 8a 33 73 41 2d 33
       1.1609585e-07 1.2686067e-07 6.451767e-08 4.0339227e-08
000290 fe dd 31 34 2b 92 e1 35 88 a1 21 33 3c 5c 98 2f
       1.656517e-07 1.6806347e-06 3.7632645e-08 2.7714175e-10
0002a0 24 9f 20 2f be 51 f0 36 57 90 4a 36 bf bf d4 34
       1.4608453e-10 7.1620734e-06 3.0184362e-06 3.962759e-07
0002b0 37 a1 d9 36 64 3f dd 36 f1 c3 87 35 11 1c f7 37
       6.485872e-06 6.593693e-06 1.011531e-06 2.9457764e-05
0002c0 b2 8c b4 34 21 d3 90 2a 3c 03 de 35 6d 22 e6 37
       3.3629982e-07 2.5726039e-13 1.654123e-06 2.7434167e-05
0002d0 cb bb 71 31 31 e8 63 37 20 a4 b2 36 80 da 82 35
       3.5176864e-09 1.3584316e-05 5.32392e-06 9.749347e-07
0002e0 6e a8 10 37 25 40 14 37 17 a2 f1 35 09 23 20 38
       8.622284e-06 8.836422e-06 1.8003074e-06 3.81796e-05
0002f0 10 e2 68 33 7c cc 8c 37 46 b6 d5 35 c9 1a 19 38
       5.4222312e-08 1.6784521e-05 1.5922785e-06 3.650299e-05
000300 e0 ba b1 2d eb c8 6d 34 20 5f a5 33 63 b8 51 32
       2.020556e-11 2.2145439e-07 7.7007144e-08 1.2207326e-08
000310 15 ef 12 34 32 28 16 34 ee dc f3 32 f2 fa 22 35
       1.3684287e-07 1.3984462e-07 2.838939e-08 6.0714876e-07
000320 75 7e bf 32 0f 69 76 34 60 d5 8e 33 1d b6 0a 35
       2.2292832e-08 2.2948755e-07 6.651203e-08 5.1674016e-07
000330 90 80 44 30 6c 69 a1 35 83 22 35 34 15 7e 01 33
       7.1487083e-10 1.2026117e-06 1.6869494e-07 3.0149824e-08
000340 fa 6c 08 35 ec 4e 06 35 65 b6 fd 33 70 1b 3f 36
       5.082253e-07 5.0033736e-07 1.1814408e-07 2.8477189e-06
000350 d2 f2 25 34 bc c4 2f 34 fd fb d0 35 69 be 7a 35
       1.545516e-07 1.6369717e-07 1.5570546e-06 9.340934e-07
000360 bf dc 46 2e f1 37 ba 35 7e 67 16 35 a9 c8 be 33
       4.521605e-11 1.3874361e-06 5.6029955e-07 8.884064e-08
000370 c8 ae 75 35 2e 73 7c 35 15 cd 49 34 05 03 83 36
       9.152395e-07 9.4044924e-07 1.8794192e-07 3.9044558e-06
000380 e3 b7 84 32 39 1f f5 35 0f 31 6a 34 b7 8f 72 36
       1.5450444e-08 1.826301e-06 2.1810796e-07 3.6144463e-06
000390 1f 98 77 2f 9f 93 00 37 59 8d 4f 36 97 a5 02 35
       2.2518563e-10 7.663765e-06 3.0927679e-06 4.866974e-07
0003a0 87 9a b1 36 8c 44 b6 36 81 9d 8c 35 a8 92 bc 37
       5.2930004e-06 5.4320026e-06 1.0476653e-06 2.2479639e-05
0003b0 4f 4f bf 2f f9 9c 1f 37 18 1c b2 35 2e 0d ae 37
       3.479905e-10 9.513687e-06 1.327021e-06 2.0748554e-05
0003c0 54 03 38 2e 21 18 e9 35 60 ae 3f 35 90 cc ee 33
       4.1839712e-11 1.7366875e-06 7.1406794e-07 1.1119948e-07
0003d0 9d 54 c1 35 7f ce c4 35 84 32 80 34 15 68 ef 36
       1.4404246e-06 1.4663236e-06 2.3878613e-07 7.134872e-06
0003e0 0c 21 a8 2f b2 07 6a 2e 18 cb 8c 34 9c b1 e1 36
       3.0582503e-10 5.3212275e-11 2.6224802e-07 6.726199e-06
0003f0 4d af e3 2c e1 97 ba 33 4b d4 1a 33 a8 1a b0 31
       6.4711903e-12 8.6889266e-08 3.6049e-08 5.1253046e-09

exp_avg f4 [30]
000000 0c e1 80 3b 2c d1 7d b9 a4 9e 00 80 16 5f 03 ba
       0.0039330777 -0.00024205883 -5.691e-41 -0.00050114223
000010 2c 41 26 bb 47 c5 2d ba bd ca 75 3a c1 ab 40 bb
       -0.0025368435 -0.0006628823 0.00093762187 -0.0029399248
000020 b4 e0 05 bb 55 35 87 3b 5c b2 d8 3a 51 41 63 39
       -0.0020428123 0.0041262307 0.0016532647 0.00021672739
000030 a3 82 6d 3a 61 ff 9b 39 f4 5a 1b bb 6a 69 f2 ba
       0.0009060299 0.00029754176 -0.0023705335 -0.0018494551
000040 a1 1a a2 39 e2 44 ae b9 1e 22 66 3a 64 d7 12 3b
       0.00030918888 -0.00033239188 0.00087788876 0.0022406215
000050 97 a6 7b 3a df 33 83 b9 b1 1a 9c 3a 18 b4 de 3b
       0.0009599714 -0.00025024914 0.001190981 0.006796371
000060 70 37 d4 3b b8 e6 d0 b8 0a 94 a5 b9 ac ea 93 ba
       0.006476335 -9.9611876e-05 -0.0003158155 -0.0011285148
000070 56 70 c1 3b 84 2d 87 ba
       0.005903284 -0.0010313247

exp_avg_sq f4 [30]
000000 a5 a0 d0 38 3e da 13 35 f4 01 00 00 4a ec 5b 36
       9.948135e-05 5.507935e-07 7e-43 3.2771081e-06
000010 06 1f 5b 38 66 41 db 35 fb cf 30 37 e5 ab 71 38
       5.224256e-05 1.6335805e-06 1.0538842e-05 5.7618967e-05
000020 99 42 cb 37 c7 61 eb 38 6c 41 67 37 38 31 0f 36
       2.4230498e-05 0.00011223886 1.3783905e-05 2.133731e-06
000030 91 d7 a4 36 3d f2 f8 35 e8 02 fa 37 a5 fe 61 38
       4.912676e-06 1.854794e-06 2.9803676e-05 5.3881336e-05
000040 7e c6 61 35 fa 88 60 36 16 a0 bc 36 e9 47 03 38
       8.4107876e-07 3.3458332e-06 5.621473e-06 3.1299805e-05
000050 39 6d ef 36 23 cb bb 34 6e 04 6e 37 bb 63 c6 39
       7.1354702e-06 3.4979266e-07 1.4186937e-05 0.00037839808
000060 c4 ed af 39 36 80 0d 37 20 25 43 36 22 5e 09 37
       0.0003355575 8.434106e-06 2.9078874e-06 8.187753e-06
000070 64 5b 9b 39 08 04 b1 36
       0.00029631995 5.2754804e-06

exp_avg f4 [30, 30]
000000 36 52 b5 37 07 41 27 36 61 a0 00 00 42 05 3a 38
       2.1615164e-05 2.492279e-06 5.7533e-41 4.4350752e-05
000010 20 a7 c6 b6 31 b3 41 38 40 3b 56 b7 d9 d6 63 38
       -5.9203157e-06 4.618167e-05 -1.2769189e-05 5.432111e-05
000020 2c 13 31 36 a1 73 7e 37 43 64 d4 b7 03 ae 6b b7
       2.6386215e-06 1.5166502e-05 -2.5319057e-05 -1.4047607e-05
000030 15 b8 c1 38 34 56 2d b5 4f 4c b2 36 ec 9a 0f b7
       9.237245e-05 -6.4572964e-07 5.313697e-06 -8.559535e-06
000040 d4 db 16 38 13 01 ac 37 53 7b 21 38 de ce c0 b6
       3.5967518e-05 2.0504498e-05 3.8500246e-05 -5.7461284e-06
000050 6e bd 09 37 e0 31 dc 37 90 0e 4d b6 aa a1 c4 36
       8.209941e-06 2.6249269e-05 -3.0555857e-06 5.8600754e-06
000060 0b 70 0d 38 1c 53 20 37 07 26 20 38 67 90 11 38
       3.3721368e-05 9.556094e-06 3.818239e-05 3.470518e-05
000070 1d 0d b5 37 3d 18 cf 38 ec ab bd b5 9e 2d 0c b6
       2.1582988e-05 9.875044e-05 -1.4131633e-06 -2.0888178e-06
000080 0b a0 00 00 36 b3 11 37 75 fe a1 36 84 46 96 36
       5.7413e-41 8.684399e-06 4.8277966e-06 4.4785575e-06
000090 50 de 06 b7 3e 92 1f 37 d1 63 8d b4 a8 7f 8e 36
       -8.038784e-06 9.511188e-06 -2.6335923e-07 4.246791e-06
0000a0 54 f0 a1 b6 f8 02 1c b7 97 e4 57 37 6d d2 a3 36
       -4.826152e-06 -9.299016e-06 1.2868221e-05 4.8822753e-06
0000b0 9c bf b4 35 12 b7 b6 b5 50 e7 31 37 7c 4d 6f 36
       1.3466811e-06 -1.3613337e-06 1.0603879e-05 3.5658877e-06
0000c0 6f a4 99 36 a1 48 1b b7 51 3a ab b6 f2 70 41 37
       4.578898e-06 -9.25563e-06 -5.102986e-06 1.1529994e-05
0000d0 7c 66 24 b6 cc d8 f2 b5 54 ec 54 37 59 24 1e 36
       -2.4497558e-06 -1.8093501e-06 1.2691209e-05 2.3564992e-06
0000e0 22 c6 f8 36 e3 fc 70 37 1c cf 16 37 d9 19 91 37
       7.4140416e-06 1.43639945e-05 8.988918e-06 1.7297383e-05
0000f0 3d 72 17 38 5b 7c dd 38 9d a0 00 80 2d f4 d8 38
       3.6107598e-05 0.00010561264 -5.7617e-41 0.00010345164
000100 77 bf 37 b7 4d 3e 72 39 3e 01 72 39 3a 3f 1b 39
       -1.0952229e-05 0.00023102127 0.00023079381 0.00014805506
000110 19 14 9a 37 10 f8 cb b6 29 cf c9 37 9b be 3c 39
       1.836759e-05 -6.0787497e-06 2.4057534e-05 0.00018000083
000120 e0 3c 4b 39 be 78 51 b7 33 b5 92 b6 e1 81 bf 36
       0.00019382266 -1.2485483e-05 -4.3722334e-06 5.7073635e-06
000130 28 9e c6 b6 6a 06 d2 38 36 93 3b 39 b9 a7 fd 38
       -5.9192716e-06 0.00010014775 0.0001788855 0.00012095221
000140 2d 99 34 39 34 00 86 b6 ff 1b 21 39 be de a2 37
       0.000172232 -3.993535e-06 0.00015364586 1.9415627e-05
000150 99 9c 82 b8 eb a6 8c b7 7a b0 e2 38 10 b9 bb 35
       -6.228052e-05 -1.6767028e-05 0.00010809391 1.3986446e-06
000160 23 2c 58 b8 b6 e4 07 39 f0 b9 27 37 1b 5a f1 37
       -5.153952e-05 0.00012959805 9.997268e-06 2.8771397e-05
000170 c6 9f 00 80 90 bc b4 37 29 7c e8 b7 c5 01 71 38
       -5.7316e-41 2.1545478e-05 -2.7714372e-05 5.7460526e-05
000180 cc e0 5e 38 16 aa 34 38 41 15 ab 36 b5 85 0c b7
       5.3138283e-05 4.307375e-05 5.0986714e-06 -8.375781e-06
000190 d1 6c ef 36 b8 82 42 38 7e a4 3a 38 e0 40 13 b7
       7.135423e-06 4.6374946e-05 4.449905e-05 -8.776988e-06
0001a0 fa c3 fe b4 d1 bf 85 b7 25 73 0f b7 8f 74 98 37
       -4.7453779e-07 -1.5944157e-05 -8.550273e-06 1.8174089e-05
0001b0 7e ee 33 38 25 2f 0d 38 4c c2 44 38 44 42 f2 b6
       4.289904e-05 3.3660926e-05 4.6910995e-05 -7.2198764e-06
0001c0 0f 63 d4 37 6f d5 06 b7 e1 35 96 b7 8e 4b 0f b6
       2.5318497e-05 -8.036716e-06 -1.7906483e-05 -2.135264e-06
0001d0 ca 73 78 37 a9 d6 38 b7 07 d2 54 b7 d7 4a e1 37
       1.4808911e-05 -1.1017234e-05 -1.26850855e-05 2.685694e-05
0001e0 29 38 78 b8 26 6d 30 b9 21 9e 00 80 85 8e 79 b9
       -5.918011e-05 -0.00016825329 -5.6726e-41 -0.00023799583
0001f0 98 03 d8 38 24 60 e3 b9 5d c9 9b b9 e3 89 d6 b9
       0.00010300352 -0.00043368444 -0.0002971393 -0.00040919994
000200 42 9a 00 b8 99 93 31 38 9f 4c 8e b7 09 32 8c b9
       -3.0661242e-05 4.233755e-05 -1.6963399e-05 -0.0002674016
000210 c9 4b dd b9 b5 f3 17 38 7c 7f 95 b7 ad 9f 84 38
       -0.0004220887 3.6228175e-05 -1.7821549e-05 6.3239924e-05
000220 18 52 c4 b7 8a 66 04 b9 19 94 a2 b9 c8 9d 19 b9
       -2.3403249e-05 -0.000126267 -0.0003100939 -0.00014649995
000230 52 3a 7c b9 bd d9 1e b8 3b 11 25 b9 c2 6a aa 36
       -0.00024054319 -3.787292e-05 -0.00015742045 5.078823e-06
000240 da 6a e0 b6 3b f7 b2 b7 db 6b 57 b9 8d 2c 96 b8
       -6.6881594e-06 -2.133438e-05 -0.00020544177 -7.1608556e-05
000250 36 d4 5f b7 36 ac b6 b9 8f 9e 00 80 54 9f 00 80
       -1.3341245e-05 -0.00034842052 -5.688e-41 -5.7156e-41
000260 84 9f 00 00 0c 9f 00 80 ce 9e 00 80 8a 9d 00 00
       5.7223e-41 -5.7055e-41 -5.6968e-41 5.6514e-41
000270 6c a0 00 80 ab 9e 00 00 76 9f 00 00 be 9d 00 80
       -5.7549e-41 5.692e-41 5.7204e-41 -5.6587e-41
000280 e1 9d 00 80 0b a1 00 80 52 a0 00 00 61 a0 00 80
       -5.6636e-41 -5.7771e-41 5.7512e-41 -5.7533e-41
000290 a2 9f 00 00 68 9d 00 80 ba 9e 00 80 6e 9f 00 80
       5.7265e-41 -5.6467e-41 -5.694e-41 -5.7193e-41
0002a0 97 a0 00 80 84 a0 00 80 66 9e 00 80 7f 9e 00 80
       -5.7609e-41 -5.7582e-41 -5.6823e-41 -5.6858e-41
0002b0 88 9d 00 80 3f a1 00 00 72 9e 00 80 79 a0 00 80
       -5.6512e-41 5.7844e-41 -5.684e-41 -5.7567e-41
0002c0 1b a0 00 80 40 9e 00 80 8c 9d 00 80 d5 9d 00 80
       -5.7435e-41 -5.677e-41 -5.6517e-41 -5.662e-41
0002d0 7b 2e 3e 38 8a 1e 1b 39 09 a0 00 80 76 9e 16 39
       4.534282e-05 0.00014793329 -5.741e-41 0.00014364146
0002e0 a2 b8 60 b5 c3 38 af 39 02 2e b0 39 26 85 59 39
       -8.371518e-07 0.00033420892 0.00033603614 0.00020744334
0002f0 f2 bb cc 37 20 d2 41 37 3f 26 5a 38 d3 f3 84 39
       2.4406214e-05 1.155262e-05 5.201087e-05 0.00025358665
000300 ac ff 8b 39 f6 30 70 35 e0 6f 27 35 3d 1a 21 37
       0.00026702636 8.9478215e-07 6.237515e-07 9.602457e-06
000310 7c 81 32 37 00 0e 2f 39 d6 cd 84 39 ea aa 29 39
       1.0639775e-05 0.00016694516 0.00025330362 0.00016180766
000320 59 61 75 39 52 43 93 37 22 fc 6c 39 a6 78 e6 37
       0.00023401286 1.7555114e-05 0.0002260064 2.7474318e-05
000330 ae d0 a3 b8 b2 a8 53 b7 37 dd 1f 39 5d 04 e5 37
       -7.811315e-05 -1.26158575e-05 0.0001524583 2.730096e-05
000340 b0 ad 91 b8 26 ce 4b 39 41 5e 2d 38 cc 35 f3 38
       -6.9464906e-05 0.00019436385 4.1334195e-05 0.000115971634
000350 af 9d 00 00 d3 d2 f6 38 6c dd b2 b6 5f b2 88 39
       5.6566e-41 0.00011769463 -5.3305903e-06 0.00026072838
000360 a3 b7 85 39 e1 ac 38 39 b5 f6 a6 37 18 e5 8b b6
       0.00025504557 0.0001761201 1.9903624e-05 -4.169193e-06
000370 8b 3f e7 37 63 ce 50 39 cd bd 65 39 cf 3b 38 b7
       2.7566935e-05 0.00019913311 0.00021909848 -1.098118e-05
000380 28 ec b5 b5 6b 49 0c 37 00 3e 3f 34 4a b5 ed 38
       -1.3554281e-06 8.361744e-06 1.7810817e-07 0.000113348084
000390 ee 85 4e 39 f1 15 08 39 d1 99 43 39 de ba 83 36
       0.00019695584 0.00012978145 0.0001865395 3.9258584e-06
0003a0 fa 14 32 39 89 0b c9 37 30 34 73 b8 a8 d3 51 b7
       0.00016983217 2.3966439e-05 -5.7984318e-05 -1.2506651e-05
0003b0 ab dc 03 39 41 95 90 37 4c be 44 b8 ca 52 22 39
       0.00012575339 1.723564e-05 -4.690727e-05 0.00015480365
0003c0 bd 2a fc 37 4d 0f c6 38 80 9f 00 80 e0 48 c4 38
       3.0060643e-05 9.444226e-05 -5.7218e-41 9.359582e-05
0003d0 b1 1b 99 b6 44 8a 59 39 9c 49 56 39 7c 54 0e 39
       -4.562979e-06 0.0002074624 0.00020436052 0.00013573648
0003e0 3c 20 83 37 40 b9 1d b6 a7 8c b3 37 0f 19 26 39
       1.5631427e-05 -2.3502653e-06 2.140396e-05 0.00015840329
0003f0 68 cc 35 39 a2 27 22 b7 55 e4 04 b6 a4 91 0b 37
       0.00017337652 -9.66518e-06 -1.980244e-06 8.318955e-06

exp_avg_sq f4 [30, 30]
000000 43 86 70 32 9c 42 2b 31 f4 01 00 00 2b 59 47 32
       1.4000366e-08 2.4921638e-09 7e-43 1.1603599e-08
000010 c1 fb de 31 07 07 9a 33 4c 27 4c 33 fc 5b b8 33
       6.4896715e-09 7.172462e-08 4.753319e-08 8.5848995e-08
000020 7c 61 dd 2e 4d 23 ea 31 b6 48 8e 32 30 72 88 33
       1.0067233e-10 6.8143096e-09 1.656404e-08 6.353764e-08
000030 6e 80 79 33 93 09 24 30 14 16 60 30 53 e3 83 31
       5.8091636e-08 5.967646e-10 8.15221e-10 3.8384456e-09
000040 ce 9b 82 32 9f a8 b4 32 ed 51 48 32 e6 97 1a 32
       1.5204844e-08 2.1031438e-08 1.166016e-08 8.9985175e-09
000050 e3 34 1c 31 7d c7 09 32 cd 05 98 32 29 62 cb 31
       2.273105e-09 8.019808e-09 1.7697767e-08 5.919237e-09
000060 de eb 24 32 b8 86 c2 32 ad 30 11 33 d8 2a 52 33
       9.599686e-09 2.2645835e-08 3.3804714e-08 4.89334e-08
000070 db 3e a3 31 ff e9 d9 33 45 fc 65 31 cd 5f fb 2f
       4.75107e-09 1.01474136e-07 3.3467284e-09 4.5724705e-10
000080 f4 01 00 00 f7 03 0c 31 2a cf ae 30 fe 4d 72 32
       7e-43 2.0374935e-09 1.2719046e-09 1.4103987e-08
000090 1d 1b 17 32 1c 22 7b 32 98 fa 4c 2e 6f e7 e7 30
       8.795522e-09 1.46178785e-08 4.6606802e-11 1.687324e-09
0000a0 0f 99 45 31 95 9e 39 32 e3 0a 55 32 e2 b8 9d 2f
       2.8754277e-09 1.0804475e-08 1.2400707e-08 2.86895e-10
0000b0 42 37 42 2f fa 2a 01 30 91 9d 73 31 a5 97 ba 31
       1.7663829e-10 4.6991e-10 3.545072e-09 5.4305525e-09
0000c0 f9 af 43 31 2c 9a 05 31 95 14 68 30 27 66 00 31
       2.8476264e-09 1.9441684e-09 8.4430357e-10 1.8684518e-09
0000d0 34 35 72 31 a3 9b 61 30 b4 68 ec 30 b5 6d 8b 31
       3.5245877e-09 8.2075696e-10 1.7201018e-09 4.0579047e-09
0000e0 21 c2 b3 31 8c 53 14 32 c6 3b 50 30 45 02 ad 32
       5.2316556e-09 8.63373e-09 7.57549e-10 2.0140883e-08
0000f0 72 44 ea 33 f0 36 bb 33 f4 01 00 00 3f db 8e 34
       1.0908924e-07 8.717859e-08 7e-43 2.6609084e-07
000100 10 8e 3f 32 de 9f 83 35 06 d2 0f 35 7b 7b 62 35
       1.11499645e-08 9.806788e-07 5.3577276e-07 8.437125e-07
000110 b8 2e 83 31 60 c4 4e 33 48 d5 b8 33 0c 6e 06 35
       3.817913e-09 4.8141715e-08 8.606963e-08 5.007903e-07
000120 0d 5a 80 35 62 79 da 31 e9 4c bc 31 4d d2 d1 2f
       9.562951e-07 6.3584347e-09 5.480264e-09 3.8166306e-10
000130 97 3f ff 33 93 b6 83 34 46 38 e2 34 c6 08 e2 33
       1.188593e-07 2.4533492e-07 4.2136725e-07 1.0525541e-07
000140 cb 45 3c 34 cf b3 90 33 b5 30 85 34 52 62 a8 32
       1.7534255e-07 6.7382295e-08 2.480862e-07 1.9602485e-08
000150 27 88 61 33 fb 17 05 34 6d 48 bd 34 59 04 9a 34
       5.2510725e-08 1.2395314e-07 3.525669e-07 2.86879e-07
000160 65 7d b8 32 81 10 8c 35 9a e7 14 32 d9 ee f3 31
       2.1477442e-08 1.0435616e-06 8.667394e-09 7.0993846e-09
000170 f4 01 00 00 71 38 c4 32 79 29 dc 31 29 0d b0 33
       7e-43 2.284307e-08 6.4075576e-09 8.1980325e-08
000180 27 f2 48 33 d2 7f 96 33 f8 de a4 2f 4f c0 a9 31
       4.6786365e-08 7.00817e-08 2.9989855e-10 4.9404103e-09
000190 87 44 ef 31 97 dd 35 33 5d e9 ab 33 b6 16 4f 30
       6.963606e-09 4.234388e-08 8.0052565e-08 7.5338435e-10
0001a0 71 ca fa 2f ab 37 77 31 45 c0 36 32 b2 ba b8 32
       4.5618578e-10 3.5974874e-09 1.0637511e-08 2.1505318e-08
0001b0 b8 90 13 33 ee 9d 0f 32 3a b8 70 32 9d 99 d2 31
       3.4357726e-08 8.359605e-09 1.4011727e-08 6.129268e-09
0001c0 b7 4f d1 32 9d a3 9f 31 7c dd 90 31 4e 06 2b 32
       2.4367052e-08 4.6461097e-09 4.2161314e-09 9.9549435e-09
0001d0 ed 2c 19 33 ca 93 f6 32 f7 3b 01 31 ee 6f c1 33
       3.566395e-08 2.8705376e-08 1.8806057e-09 9.007623e-08
0001e0 6a 64 c8 33 c0 b6 23 34 f4 01 00 00 80 bd d3 34
       9.331491e-08 1.5247042e-07 7e-43 3.9439692e-07
0001f0 7a d4 fe 32 dd ac ba 35 97 35 6b 35 30 93 a1 35
       2.9666115e-08 1.390839e-06 8.7622306e-07 1.2038272e-06
000200 5f b4 86 31 f6 fa 73 33 25 f5 21 34 1b a4 5d 35
       3.920419e-09 5.6806094e-08 1.5083477e-07 8.256772e-07
000210 ab 72 a4 35 87 b2 9d 31 5d 8f c7 31 21 a8 83 32
       1.2252325e-06 4.5895976e-09 5.807961e-09 1.5326863e-08
000220 25 89 b6 33 d1 de 9a 34 39 f7 28 35 0d 4a 20 34
       8.499982e-08 2.8846856e-07 6.2944633e-07 1.4928101e-07
000230 c7 b1 97 34 1b 04 6b 33 3d 76 d6 34 6f 46 9d 32
       2.8255292e-07 5.4718935e-08 3.9946636e-07 1.8309235e-08
000240 1a 36 e4 30 91 69 36 34 10 5a 17 35 3c 1b c2 34
       1.660456e-09 1.6988476e-07 5.638294e-07 3.6155132e-07
000250 fc 18 6d 31 79 79 a5 35 f4 01 00 00 f4 01 00 00
       3.450224e-09 1.2328811e-06 7e-43 7e-43
000260 f4 01 00 00 f4 01 00 00 f4 01 00 00 f4 01 00 00
       7e-43 7e-43 7e-43 7e-43
000270 f4 01 00 00 f4 01 00 00 f4 01 00 00 f4 01 00 00
       7e-43 7e-43 7e-43 7e-43
000280 f4 01 00 00 f4 01 00 00 f4 01 00 00 f4 01 00 00
       7e-43 7e-43 7e-43 7e-43
000290 f4 01 00 00 f4 01 00 00 f4 01 00 00 f4 01 00 00
       7e-43 7e-43 7e-43 7e-43
0002a0 f4 01 00 00 f4 01 00 00 f4 01 00 00 f4 01 00 00
       7e-43 7e-43 7e-43 7e-43
0002b0 f4 01 00 00 f4 01 00 00 f4 01 00 00 f4 01 00 00
       7e-43 7e-43 7e-43 7e-43
0002c0 f4 01 00 00 f4 01 00 00 f4 01 00 00 f4 01 00 00
       7e-43 7e-43 7e-43 7e-43
0002d0 7b 93 4e 34 bd 95 26 34 f4 01 00 00 b8 d6 fe 34
       1.9238898e-07 1.5514429e-07 7e-43 4.7467415e-07
0002e0 e5 5d 51 31 89 d7 e3 35 a1 b8 77 35 c2 2b c8 35
       3.0466876e-09 1.6975547e-06 9.228334e-07 1.4913896e-06
0002f0 b0 dc e6 31 76 26 8d 33 47 d3 16 34 a2 ec 6a 35
       6.7189703e-09 6.57282e-08 1.4046701e-07 8.751614e-07
000300 a8 8c e3 35 24 ce 41 30 1f 6b a8 31 dc 14 69 30
       1.6953754e-06 7.0505934e-10 4.9016218e-09 8.479455e-10
000310 45 61 38 34 16 bc c4 34 9c c6 45 35 05 67 47 34
       1.7171722e-07 3.6644695e-07 7.3677234e-07 1.8570798e-07
000320 51 0a a7 34 d8 e7 b2 33 f6 03 e1 34 44 a2 15 33
       3.111368e-07 8.330943e-08 4.1912398e-07 3.4839346e-08
000330 df f3 a3 33 50 cd 5d 34 0e d7 28 35 e3 88 f1 34
       7.634639e-08 2.0656921e-07 6.289782e-07 4.4989346e-07
000340 28 a8 26 33 67 81 f3 35 21 c3 06 34 98 a1 d7 33
       3.8802824e-08 1.8142572e-06 1.255071e-07 1.00411114e-07
000350 f4 01 00 00 99 22 a4 34 58 f0 72 32 f2 9c 97 35
       7e-43 3.0572554e-07 1.4140902e-08 1.1296054e-06
000360 14 73 26 35 34 37 82 35 c8 44 96 31 8c a3 7c 33
       6.200728e-07 9.701821e-07 4.373394e-09 5.8822067e-08
000370 0f 38 d7 33 15 09 1b 35 1f d0 93 35 5f 85 07 32
       1.0021915e-07 5.7755216e-07 1.1012925e-06 7.888359e-09
000380 c1 75 dc 31 6f 4f 98 30 0a 6f 14 34 ad 66 99 34
       6.4162298e-09 1.1082032e-09 1.382397e-07 2.8573177e-07
000390 1f ea 01 35 a5 de 01 34 f6 24 59 34 e2 15 a9 33
       4.8396936e-07 1.2095059e-07 2.0223146e-07 7.873656e-08
0003a0 50 55 9a 34 f4 8a c1 32 0b 49 7c 33 dc 4c 1a 34
       2.8746808e-07 2.2531346e-08 5.8739754e-08 1.4370329e-07
0003b0 96 89 dc 34 af 13 b5 34 70 47 c7 32 a5 08 a2 35
       4.10783e-07 3.37282e-07 2.3199135e-08 1.2072456e-06
0003c0 f5 68 ac 33 ae b3 8a 33 f4 01 00 00 ca 3c 54 34
       8.028466e-08 6.458809e-08 7e-43 1.9766154e-07
0003d0 3d f7 11 32 7e d6 42 35 1a 8b d4 34 9f 7e 28 35
       8.496326e-09 7.258276e-07 3.9589287e-07 6.2769135e-07
0003e0 4e 33 3f 31 3a a5 23 33 a6 23 87 33 5c 0e c6 34
       2.7823321e-09 3.8101668e-08 6.292912e-08 3.6890822e-07
0003f0 a5 ca 3e 35 ea 32 a1 31 60 9c 8d 31 e8 80 46 30
       7.10754e-07 4.691505e-09 4.121418e-09 7.2215167e-10

exp_avg f4 [30]
000000 45 dc 00 39 89 42 b6 37 24 40 f2 39 5b 6e d8 38
       0.00012289088 2.1727074e-05 0.00046205625 0.00010320238
000010 c2 39 6c ba aa 9e 00 80 62 97 38 3a 7d 77 0c 3a
       -0.0009011292 -5.6918e-41 0.0007041601 0.00053583813
000020 57 05 dc 39 8d 0f ce 38 a6 4f 93 b9 c7 9d 00 80
       0.00041965648 9.825742e-05 -0.00028097368 -5.66e-41
000030 1a 80 a5 b9 fe 9d 00 80 5d a6 ae ba b2 7b e7 38
       -0.00031566696 -5.6677e-41 -0.0013324727 0.000110379784
000040 0e a4 ac b8 70 8a 60 39 e3 8f fb 39 4b b5 37 b9
       -8.232157e-05 0.00021413877 0.00047981655 -0.00017519777
000050 7b b7 f6 37 12 16 60 b9 33 fe f3 b9 5b c6 7b bb
       2.9410925e-05 -0.00021370527 -0.00046537965 -0.003841779
000060 20 43 e1 37 61 e4 26 38 ba 62 2f 3a c3 9e 32 3a
       2.6853348e-05 3.979018e-05 0.00066904316 0.00068138185
000070 39 9e 00 80 86 61 7f 38
       -5.676e-41 6.0887563e-05

exp_avg_sq f4 [30]
000000 24 f9 0d 35 8c d5 de 33 04 d9 c3 36 70 94 06 35
       5.288914e-07 1.03765245e-07 5.836717e-06 5.0134895e-07
000010 f8 84 04 37 f4 01 00 00 2c f4 24 37 2f 4f e2 36
       7.898772e-06 7e-43 9.832012e-06 6.744543e-06
000020 56 57 91 36 92 89 f6 34 a0 ee 04 36 f4 01 00 00
       4.331504e-06 4.5921166e-07 1.980843e-06 7e-43
000030 03 d8 55 35 f4 01 00 00 d0 e0 05 37 24 80 8d 36
       7.966302e-07 7e-43 7.979761e-06 4.217045e-06
000040 d9 de 2a 35 e1 ce bb 35 52 dc d2 36 d8 70 8a 35
       6.365422e-07 1.3992795e-06 6.2841364e-06 1.0314643e-06
000050 83 b0 31 33 90 67 c2 35 f5 15 20 36 0f b6 a3 38
       4.137156e-08 1.4484267e-06 2.3854639e-06 7.806357e-05
000060 ed 2e 37 37 c4 fe 9f 33 14 43 22 37 63 10 a5 36
       1.0918576e-05 7.450356e-08 9.67157e-06 4.919291e-06
000070 f4 01 00 00 24 d2 3d 34
       7e-43 1.7678445e-07
