Checkpoints/ANN_v2_64.pth (torch, 110837 bytes, 27 tensors)

linear_relu_stack.0.weight f4 [50, 12]
-0.03251475 -0.076070026 0.084432155 0.27385747 -0.03236261 0.061373085 -0.18946494 -0.1385503
-0.17653736 -0.19648084 0.025580078 -0.09315196 -1.9434516 -0.31717506 0.33491224 0.050634418
-0.38225347 0.10087298 -0.048237287 -0.27029663 -0.10404342 -0.14928113 -0.015206839 0.017503608
4.526173 -0.28159118 0.1940414 0.114773825 0.09660692 -0.13249299 -0.20393664 -0.017487537
-0.15366715 -0.14898244 0.076387405 0.11110706 0.75210464 -0.4092244 -0.14931288 0.13362814
0.09271213 -0.025640327 -0.06732902 0.06889774 -0.07006756 0.09457625 -0.056231808 -0.30088374
-7.9482985 0.17261659 0.29197705 0.17418902 -0.083334826 0.032373663 -0.050786927 -0.1580073
-0.22217663 -0.19203594 -0.08616517 -0.026858937 -0.9172463 -0.06510284 0.33180487 -0.37783843
0.09286779 -0.14066014 -0.07508871 -0.18184642 0.1711521 -0.0791142 0.011735618 -0.23522499
0.70129585 -0.07445625 -0.2676804 -0.5935426 -0.14639054 0.10952865 -0.08882462 0.19432537
0.10601149 0.17756192 -0.03833078 -0.049169272 1.4690081 0.31236485 -0.19935343 -1.1503899
-0.09100565 0.12478436 0.48740035 -0.16906878 0.090146676 -0.06704046 0.17122824 0.18425655
-3.5975814 -0.07126513 0.22582227 -0.42272094 -0.020481672 0.054012373 -0.34548193 0.09271369
-0.14396018 -0.19408184 0.09902153 -0.296974 1.3634028 -0.39558598 0.013790158 0.30689868
-0.21649529 0.07747089 0.10544433 0.10738124 0.018639296 -0.18767753 -0.21998115 -0.27106515
1.519028 0.38075387 -0.3619775 -0.8862092 -0.11199034 0.11282994 0.20576392 0.27611646
-0.026979325 0.13461812 -0.14817718 -0.14899668 0.07705408 0.11988717 0.21987528 0.030691266
0.01953733 0.009229869 -0.20492098 -0.25298572 -0.16971374 -0.24444197 0.17369622 -0.07802749
6.9068084 -0.27191383 0.13974725 0.4877735 -0.19935106 0.21599394 0.06928706 0.021131678
-0.15535682 -0.09322707 -0.056667306 -0.08248558 2.2563145 0.02839464 0.35506395 0.19276884
-0.007549685 -0.048455004 -0.17450242 -0.022150282 0.05666576 0.04405771 -0.15594937 -0.2484479
0.61660737 -0.28103104 -0.25492135 -0.31617403 -0.2343061 0.21313548 0.15816559 0.17745079
0.084233314 0.105375856 -0.20459546 -0.094295725 -1.5827174 -0.48039407 0.5776646 0.9690835
0.05751275 0.0042698896 0.1556589 0.18174198 0.26303056 -0.15417272 0.19270565 0.19485676
1.0907215 -0.2679002 -0.14654107 0.13879797 -0.2316921 0.07025904 -0.24105775 -0.070510514
-0.284318 0.07059967 0.08899547 -0.33900157 0.67719907 -0.117123246 -0.15468124 0.16661575
-0.22122717 -0.032122668 0.07744974 0.0015532878 -0.21704587 -0.19069207 -0.104071654 0.066458546
-2.1196375 -0.12445164 -0.033456076 -1.0151939 0.09982565 -0.072500505 -0.02226492 0.19226624
-0.05240969 -0.037360962 -0.18278658 -0.21344472 2.028676 0.22231637 0.060718 -0.30632037
0.06948792 -0.08156661 -0.1400123 -0.046401452 -0.21233487 -0.28042912 -0.22618951 0.15983126
0.73795336 -0.28820106 0.03053192 -0.2023504 -0.13999872 -0.019537853 0.052002054 -0.24240404
-0.203078 -0.17983718 -0.15691805 0.15132472 -0.89646363 -0.2991577 0.11054144 0.017847735
00000000: 302e 05bd 9aca 9bbd c4ea ac3d 0c37 8c3e
00000010: a88e 04bd 5862 7b3d 1903 42be 21e0 0dbe
00000020: 36c6 34be 4632 49be 508d d13c 74c6 bebd
00000030: 06c3 f8bf c564 a2be 9e79 ab3e 0966 4f3d
00000040: bab6 c3be 7e96 ce3d 7694 45bd 5264 8abe
00000050: b714 d5bd 27dd 18be 1b26 79bc ba63 8f3c
00000060: 69d6 9040 b82c 90be cab2 463e 8a0e eb3d
00000070: d9d9 c53d 3eac 07be c4d4 50be 0642 8fbc
00000080: ec5a 1dbe da8e 18be 0071 9c3d 198c e33d
00000090: ee89 403f dc85 d1be 7ae5 18be d1d5 083e
000000a0: dbdf bd3d aa0b d2bc cce3 89bd 421a 8d3d
000000b0: 957f 8fbd 31b1 c13d 5353 66bd 6f0d 9abe
000000c0: 7658 fec0 67c2 303e 047e 953e 9b5e 323e
000000d0: 73ab aabd 3f9a 043d f405 50bd aacc 21be
000000e0: 4582 63be 12a5 44be 5d77 b0bd 4607 dcbc
000000f0: a7d0 6abf a354 85bd 54e2 a93e 0a74 c1be
00000100: 7831 be3d 3609 10be 1cc8 99bd f335 3abe
00000110: 7f42 2f3e a006 a2bd c046 403c d2de 70be
00000120: 2088 333f 857c 98bd 680d 89be 68f2 17bf
00000130: 67e7 15be 8f50 e03d afe9 b5bd 3bfd 463e
00000140: 8d1c d93d cbd2 353e bc00 1dbd b865 49bd
00000150: 7508 bc3f 49ee 9f3e 4e23 4cbe fa3f 93bf
00000160: 2c61 babd f18e ff3d 8a8c f93e 5e20 2dbe
00000170: d29e b83d 824c 89bd 7556 2f3e c0ad 3c3e
00000180: c63e 66c0 74f3 91bd f43d 673e e16e d8be
00000190: 2ec9 a7bc 143c 5d3d 02e3 b0be ade0 bd3d
000001a0: 4c6a 13be 64bd 46be cdcb ca3d fa0c 98be
000001b0: fc83 ae3f 3f8a cabe 1df0 613c d321 9d3e
000001c0: f1b0 5dbe 0fa9 9e3d 32f3 d73d b2ea db3d
000001d0: 70b1 983c 8a2e 40be bd42 61be 0dc9 8abe
000001e0: 826f c23f 2cf2 c23e 1d55 b9be 9bde 62bf
000001f0: 315b e5bd 6213 e73d c7b3 523e 235f 8d3e
00000200: bf03 ddbc 55d9 093e c2bb 17be 9692 18be
00000210: 88ce 9d3d 6887 f53d fc26 613e 406c fb3c
00000220: c00c a03c e038 173c ced6 51be 5887 81be
00000230: 70c9 2dbe ff4e 7abe 6cdd 313e e0cc 9fbd
00000240: 9304 dd40 4a38 8bbe e719 0f3e 73bd f93e
00000250: af22 4cbe 842d 5d3e 60e6 8d3d 571c ad3c
00000260: dc15 1fbe d6ed bebd fa1b 68bd 33ee a8bd
00000270: 7567 1040 e09b e83c f1ca b53e 3265 453e
00000280: 5963 f7bb c178 46bd c3b0 32be 8274 b5bc
00000290: 5b1a 683d db75 343d 31b1 1fbe 2069 7ebe
000002a0: fbd9 1d3f 4de3 8fbe 0d85 82be 90e1 a1be
000002b0: f0ed 6fbe 3040 5a3e 29f6 213e a9b5 353e
000002c0: 8482 ac3d 4ccf d73d 7981 51be 1e1e c1bd
000002d0: 7c96 cabf 36f6 f5be d4e1 133f db15 783f
000002e0: 7d92 6b3d 6eea 8b3b 0c65 1f3e 921a 3a3e
000002f0: f1ab 863e 74df 1dbe a154 453e 8888 473e
00000300: c39c 8b3f 372a 89be dd0e 16be 0e21 0e3e
00000310: b240 6dbe f9e3 8f3d d8d7 76be d167 90bd
00000320: 2192 91be 8f96 903d 4243 b63d 9d91 adbe
00000330: eb5c 2d3f 50de efbd c264 1ebe 529d 2a3e
00000340: 6089 62be 0f93 03bd f89d 9e3d b197 cb3a
00000350: 4641 5ebe c844 43be 8523 d5bd 6b1b 883d
00000360: 24a8 07c0 80e0 febd 3d09 09bd e0f1 81bf
00000370: 6471 cc3d 257b 94bd ec64 b6bc 71e1 443e
00000380: 8bab 56bd cf07 19bd 682c 3bbe 4191 5abe
00000390: d4d5 0140 e7a6 633e 70b3 783d 06d6 9cbe
000003a0: af4f 8e3d 650c a7bd 625f 0fbe 730f 3ebd
000003b0: 506e 59be 6894 8fbe 399e 67be ceaa 233e
000003c0: 83ea 3c3f 178f 93be 141e fa3c f134 4fbe
000003d0: d35b 0fbe d90d a0bc 1b00 553d c438 78be
000003e0: aef3 4fbe 3d27 38be 20af 20be def4 1a3e
000003f0: a47e 65bf 332b 99be 8d63 e23d 6a35 923c

linear_relu_stack.0.bias f4 [50]
-0.16376126 0.03807655 0.049470708 -0.10307962 0.083960645 -0.11468744 0.11125994 0.02271215
-0.069038875 -0.11022396 -0.10560325 -0.19014916 0.12057748 -0.10316296 0.06258641 0.011382767
-0.13053617 -0.41800588 0.2831365 -0.17846324 -0.031537443 -0.23075934 -0.12205947 -0.24577434
0.14837055 -0.16927059 -0.10817397 0.078361526 -0.20774291 0.14348985 0.08789448 0.15387739
-0.14924857 -0.17239094 0.032970455 -0.22999193 0.056230873 -0.019116262 0.034623787 0.067644514
0.06555314 -0.16797645 -0.032972056 -0.12759191 -0.0634802 0.13962013 -0.16330867 -0.21052979
-0.120530084 -0.188968
00000000: 08b1 27be 28f6 1b3d cca1 4a3d 681b d3bd
00000010: 8ff3 ab3d 40e1 eabd 40dc e33d d50e ba3c
00000020: 4164 8dbd 19bd e1bd 8446 d8bd 76b6 42be
00000030: 53f1 f63d 1a47 d3bd 4e2d 803d c97e 3a3c
00000040: 46ab 05be de04 d6be 44f7 903e 11bf 36be
00000050: 682d 01bd 2d4c 6cbe 51fa f9bd 45ac 7bbe
00000060: 73ee 173e 4555 2dbe 508a ddbd 027c a03d
00000070: 8fba 54be 01ef 123e 0502 b43d 0992 1d3e
00000080: 9ed4 18be 4087 30be 070c 073d 0183 6bbe
00000090: 5852 663d b599 9cbc acd1 0d3d 3589 8a3d
000000a0: ba40 863d 0502 2cbe b50d 07bd 74a7 02be
000000b0: e801 82bd 94f8 0e3e 633a 27be 1f95 57be
000000c0: 7ad8 f6bd d480 41be

linear_relu_stack.2.weight f4 [60, 50]
-0.04342574 -0.6186242 -0.1863356 -0.033588856 -0.44441122 0.001583859 -0.56561524 -0.79797316
0.122805364 0.01381915 -0.7207457 -0.055070005 0.19008392 -0.041652385 -0.023629442 -0.07541934
-0.10825729 0.18127559 -0.64747244 -0.11288813 0.14837772 -0.16045985 -0.05359376 0.23631693
-0.2640674 -0.50816816 0.10770279 0.0046230885 0.022911863 0.08521068 -0.696934 0.038285412
0.06382652 0.022118673 -0.58229405 -0.13215579 -0.028613182 -0.36602262 -0.6026025 -0.0076660556
0.2616306 -0.1521281 -0.09543956 0.027255192 0.39297357 0.19923617 -0.014317051 0.06959769
-0.05922039 0.069133446 -0.025823258 0.40985247 -0.009384955 -0.0062978645 -0.30548105 0.06615822
-0.24315956 -0.20033981 0.08453334 -0.25281644 -0.38923547 0.08442335 -0.01075994 5.031913e-05
0.1339439 0.32495892 -0.34248343 -0.09788028 -0.4254937 -0.26940882 0.03570558 0.078219496
0.04417624 0.05343765 -0.14872216 -0.021209475 -0.0663273 -0.090420604 -0.17450204 -0.14842708
-0.30779836 -0.10733713 -0.02284061 -0.08411232 0.019349506 -0.0507909 0.07616094 -0.096945934
-0.18975526 0.017592946 -0.22211564 -0.19319433 0.061093014 -0.0801954 -0.03092298 0.15426977
-0.113142125 0.01891386 0.00892095 0.07203571 0.06319505 -0.0072661587 0.10523873 -0.021074321
-0.027669135 -0.029735982 0.07590814 -0.100842394 -0.048467793 0.05884518 -0.12712523 0.048167095
-0.11804958 -0.097963504 0.12334527 0.07804467 -0.048595604 -0.10059875 0.033378616 0.07373396
-0.026345646 0.11660777 -0.057097334 0.036734417 -0.060963828 -0.01735289 0.06803966 0.105204806
-0.12914902 0.0022085665 0.008311767 0.08926475 -0.055655714 -0.014540389 -0.03667479 -0.04310566
-0.0077500683 -0.08924599 -0.09006998 -0.07681082 0.08052225 -0.06852301 0.043649416 0.08271748
-0.056237426 -0.018650187 0.105184466 -0.12434002 0.09501933 0.08697958 -0.07848863 -0.043119617
-0.075492956 -0.06207625 -0.15207155 -0.072063215 -0.06581337 -0.31678852 0.010461825 -0.16028292
-0.48005176 0.13809593 0.304614 -0.19137867 0.014846536 -0.4425924 -0.30093175 0.049686473
-0.13628598 -0.27511194 0.04886299 -0.12771326 -0.018059736 -0.02647493 -0.07593462 0.33800238
0.06017922 -0.1720983 0.0710262 0.16857618 -0.62915504 0.19619933 -0.19413373 0.13873257
0.057496946 0.16357115 0.32632297 -0.11063894 -0.4407409 -0.1782184 0.20091996 -0.12891841
-0.023669945 -0.12694341 0.14883286 0.107699774 -0.11618537 0.078826025 -0.25064132 0.107378736
0.042819887 0.11763165 -0.04242184 -0.11828052 -1.005674 -0.09984807 -0.03953857 -0.1942364
0.18316677 -0.089372635 -0.4859014 0.04575497 0.04641038 0.0548944 -0.21512267 0.059977118
-0.016443364 0.08494093 0.09976149 -0.04061408 0.036842532 -0.00087388465 0.04669095 0.13379478
0.15999313 0.18263061 0.12769207 -0.015324792 0.011429716 0.09810442 -0.075198606 0.13402088
-0.22680078 0.10386114 -0.07168799 0.053826783 -0.25241533 0.19812366 0.06864065 -0.20727876
-0.17461516 -0.29771045 -0.13266413 0.11166145 -0.0487906 0.047879484 -0.12786353 0.12027843
-0.14377467 0.017661901 0.022533089 0.4773175 -0.3980457 0.07951986 0.38635904 -0.046449654
00000000: 30df 31bd 285e 1ebf c2ce 3ebe 7894 09bd
00000010: de89 e3be 7d99 cf3a 29cc 10bf f847 4cbf
00000020: 6181 fb3d b769 623c ca82 38bf 1691 61bd
00000030: 5ca5 423e b19b 2abd 8892 c1bc 7475 9abd
00000040: 00b6 ddbd 4fa0 393e c1c0 25bf e431 e7bd
00000050: 54f0 173e 964f 24be 2185 5bbd 11fd 713e
00000060: d833 87be 4f17 02bf 4893 dc3d 477d 973b
00000070: a9b1 bb3c f082 ae3d 446a 32bf 2ad1 1c3d
00000080: 7bb7 823d 3832 b53c 3911 15bf d953 07be
00000090: 3166 eabc 5167 bbbe 2844 1abf 8933 fbbb
000000a0: 72f4 853e 78c7 1bbe d175 c3bd 4846 df3c
000000b0: d533 c93e 9104 4c3e 1092 6abc 3c89 8e3d
000000c0: 1491 72bd d695 8d3d 4c8b d3bc 2fd8 d13e
000000d0: 5bc3 19bc 515e cebb 0368 9cbe f67d 873d
000000e0: d2fe 78be e125 4dbe d11f ad3d 2871 81be
000000f0: df49 c7be 26e6 ac3d 764a 30bc c10d 5338
00000100: 9728 093e 0461 a63e fd59 afbe 7575 c8bd
00000110: 4fda d9be f4ef 89be 0440 123d 8b31 a03d
00000120: 25f2 343d 70e1 5a3d 9f4a 18be 7ebf adbc
00000130: 9cd6 87bd 702e b9bd aab0 32be 45fd 17be
00000140: bf97 9dbe 92d3 dbbd 3b1c bbbc 1443 acbd
00000150: db82 9e3c 1e0a 50bd 44fa 9b3d 978b c6bd
00000160: 344f 42be 151f 903c 4872 63be bcd4 45be
00000170: ab3c 7a3d 7c3d a4bd 3052 fdbc e5f8 1d3e
00000180: 0fb7 e7bd 3df1 9a3c 2d29 123c 7587 933d
00000190: 686c 813d f518 eebb 6787 d73d 0ea4 acbc
000001a0: 62aa e2bc e098 f3bc ba75 9b3d 7586 cebd
000001b0: 2a86 46bd a507 713d 1e2d 02be dc4a 453d
000001c0: fac3 f1bd 17a1 c8bd 729c fc3d e2d5 9f3d
000001d0: 2f0c 47bd b806 cebd 04b8 083d d501 973d
000001e0: d3d2 d7bc 0ed0 ee3d e5de 69bd d476 163d
000001f0: 35b5 79bd a627 8ebc 6158 8b3d 9e75 d73d
00000200: a43f 04be 99bd 103b 142e 083c 70d0 b63d
00000210: 3ff7 63bd d03a 6ebc 4e38 16bd 8f8f 30bd
00000220: 49f4 fdbb 9ac6 b6bd 9c76 b8bd fe4e 9dbd
00000230: d9e8 a43d cb55 8cbd bbc9 323d c867 a93d
00000240: 3759 66bd 47c8 98bc f46a d73d fba5 febd
00000250: 7f99 c23d 5a22 b23d a6be a0bd 329e 30bd
00000260: 0d9c 9abd aa43 7ebd a5b8 1bbe e195 93bd
00000270: 29c9 86bd 1b32 a2be 1368 2b3c 3521 24be
00000280: 58c9 f5be 0569 0d3e 5ef6 9b3e c5f8 43be
00000290: e33e 733c 799b e2be ba13 9abe 0b84 4b3d
000002a0: 8d8e 0bbe 79db 8cbe 8f24 483d 44c7 02be
000002b0: 03f2 93bc f4e1 d8bc 9c83 9bbd a60e ad3e
000002c0: 7c7e 763d 893a 30be 2f76 913d 3c9f 2c3e
000002d0: 4e10 21bf 7ae8 483e feca 46be e90f 0e3e
000002e0: eb81 6b3d 327f 273e ce13 a73e ab96 e2bd
000002f0: cba8 e1be e27e 36be f6bd 4d3e 3003 04be
00000300: 79e7 c1bc 74fd 01be a467 183e b391 dc3d
00000310: 98f2 edbd 8a6f a13d 0f54 80be 62e9 db3d
00000320: e863 2f3d dde8 f03d 86c2 2dbd 0f3d f2bd
00000330: edb9 80bf 257d ccbd 32f3 21bd e8e5 46be
00000340: 1290 3b3e 0009 b7bd 11c8 f8be 9069 3b3d
00000350: d018 3e3d f3d8 603d 1e49 5cbe 91aa 753d
00000360: 3cb4 86bc 83f5 ad3d c14f cc3d f35a 26bd
00000370: 32e8 163d 6815 65ba 023f 3f3d 8001 093e
00000380: 3dd5 233e 8503 3b3e b6c1 023e d614 7bbc
00000390: b443 3b3c f8ea c83d ba01 9abd c53c 093e
000003a0: 773e 68be 26b5 d43d 27d1 92bd 7979 5c3d
000003b0: 953c 81be eee0 4a3e 7893 8c3d e240 54be
000003c0: 51ce 32be 816d 98be 1bd9 07be c2ae e43d
000003d0: a7d8 47bd 471d 443d a8ee 02be 8a54 f63d
000003e0: ab39 13be b1af 903c 5097 b83c f662 f43e
000003f0: a5cc cbbe 4fdb a23d dad0 c53e fe41 3ebd

linear_relu_stack.2.bias f4 [60]
-0.094428085 -0.09567941 -0.14399122 -0.11196408 -0.07221811 0.043096613 -0.14569187 -0.0524295
-0.03696363 0.095146954 -0.012019047 -0.009312819 -0.04186778 -0.09945033 0.096323796 0.012062575
-0.103482775 -0.004128466 0.18578486 0.039985847 -0.05434384 0.04680129 -0.05175903 -0.12074281
0.0055447975 -0.12835066 -0.0683182 0.066940576 -0.0035059885 -0.097346626 -0.14094208 -0.06725168
-0.16673434 -0.061665654 -0.0051342137 -0.047213897 -0.061182015 0.19176096 -0.112998515 -0.094492
-0.0655795 -0.15069148 -0.0046223663 0.01512066 -0.103805244 0.027015107 -0.22673438 -0.114577875
0.009334573 -0.08857203 -0.051279098 0.08530882 0.02126656 0.033848953 -0.03334348 0.049744554
-0.05875403 -0.08062754 -0.03962944 -0.14809227
00000000: 8363 c1bd 91f3 c3bd 6f72 13be 6c4d e5bd
00000010: 17e7 93bd 1386 303d 4030 15be 51c0 56bd
00000020: 2d67 17bd 68dc c23d 89eb 44bc cb94 18bc
00000030: 8d7d 2bbd 9dac cbbd 6945 c53d 1ba2 453c
00000040: c7ee d3bd 1548 87bb 633e 3e3e 33c8 233d
00000050: a597 5ebd b6b2 3f3d 4701 54bd 0248 f7bd
00000060: 22b1 b53b 5b6e 03be 6aea 8bbd 2418 893d
00000070: bac4 65bb ab5d c7bd 1f53 10be 40bb 89bd
00000080: 68bc 2abe 2095 7cbd e83c a8bb 5c63 41bd
00000090: fe99 7abd fc5c 443e c46b e7bd 0685 c1bd
000000a0: 8b4e 86bd de4e 1abe 3877 97bb a5bc 773c
000000b0: d897 d4bd c94e dd3c 0f2d 68be cea7 eabd
000000c0: 09f0 183c 4165 b5bd 080a 52bd 64b6 ae3d
000000d0: 3537 ae3c 33a5 0a3d 2c93 08bd f2c0 4b3d
000000e0: 11a8 70bd 0d20 a5bd 7b52 22bd 80a5 17be

linear_relu_stack.4.weight f4 [40, 60]
0.0477108 -0.053566396 -0.009166817 0.069133855 -0.079591244 0.12638238 0.9168067 -0.08461243
-0.03891674 -0.0088969795 -0.08610711 -0.121429995 -0.19644065 -0.18873484 -0.48834825 0.076307766
-0.08334858 -0.0018681431 0.117692456 0.29745036 -0.3191578 0.1607709 0.036838192 -0.2398376
-0.31260774 -0.047638584 0.49857113 0.56738836 0.15279166 -0.021846773 -0.0062080184 -0.2961647
-0.12027967 -0.2762309 -0.10236335 0.11223878 0.041286677 0.22905135 -0.05316568 0.09568976
-0.28485692 0.41141537 0.1425525 0.06399771 -0.065635875 -0.17802593 0.52866304 0.09391227
-0.09750145 -0.042513084 -0.17169629 0.7807697 0.14281999 -0.041674085 0.038377523 -0.18282537
0.0006368399 -0.26116616 0.05409127 -0.008165539 -0.4166792 -0.057445314 -0.07137554 -0.07879631
-0.27091894 0.080830105 0.3815534 0.10492452 -0.17591894 0.19185594 0.081389464 -0.03983673
-0.11068762 -0.13712151 -0.29870522 -0.05996761 -0.15543209 -0.14411555 -0.61241484 -0.063914016
-0.06970005 -0.138805 -0.124412976 0.042531822 -0.41382942 -0.047431264 -0.008957214 0.39744994
-0.035088073 0.017741613 0.038801488 -0.1585965 0.05284376 -0.075237386 -0.14594758 -0.04415191
0.09767363 0.20294629 0.14519659 0.036748067 -0.49101374 0.21128401 -0.36882028 -0.32175174
-0.12185316 0.06113519 0.412286 -0.072911285 0.008402206 0.026020892 -0.1644282 -0.25964504
0.3247748 -0.020260613 0.016737575 0.08350436 -0.04458388 -0.09189253 -0.31809837 -0.280023
-0.11066103 0.26387906 -0.01992727 -0.13633011 0.1051243 -1.1221613 -0.039385855 0.08655112
-0.12120637 0.069018155 -0.03322932 0.043734923 0.002859308 0.046852414 -0.028365294 -0.07293393
0.03773366 0.07793671 0.19900647 -1.8636975 0.06788618 0.12036071 -0.28571713 -0.050893202
-0.120483615 -0.1028881 -0.026181538 -1.5973219 -0.079679385 0.03419192 -0.0921392 0.10306948
0.023286544 0.033724785 -0.08528177 0.1169198 -0.1057843 0.21624483 0.091238745 -0.115395136
0.034635276 -0.04120788 -0.03603296 0.059212875 0.0074100196 0.1320008 -0.09377509 -0.053592596
-0.11694341 -0.066797644 -0.112330765 -1.5772705 -0.51233995 -0.07796288 0.092796 -0.2552679
-0.13224787 -0.19924968 -0.05607978 -0.122072875 0.00013810465 -0.0032746643 -0.022708803 0.034158424
-0.09584449 0.09801641 -0.12599745 0.04784765 -0.10607714 0.076072864 -0.02514412 -0.11257608
-0.0908756 -0.08541927 0.072844386 0.10611175 0.045109544 -0.08554967 -0.033049464 -0.11018396
0.11691362 0.11279812 -0.091005825 -0.068902545 -0.012237699 0.07732455 -0.08678627 -0.10602434
-0.12262701 0.06908131 0.06323585 0.04027265 -0.048875943 -0.0134073645 -0.10856396 0.10094583
0.015573458 0.045505837 0.034829956 0.01799725 -0.117893904 -0.11069754 -0.07327623 0.02689822
-0.09591286 0.0053729117 -0.120183304 -0.13289435 -0.01718245 -0.09352737 0.090307645 -0.057797655
0.065775454 -0.06561938 0.07056872 -0.09387432 0.11912429 0.016034245 0.056145493 -0.0027632948
0.02960044 -0.2548049 -0.08488564 -0.05310215 -0.13618858 -0.11929909 -0.18223238 -0.4865402
-0.051710915 -0.0742039 -0.11537582 -0.087275095 -0.11692369 -0.061774325 0.12457455 0.07879877
00000000: 666c 433d 7068 5bbd 6b30 16bc 0d96 8d3d
00000010: bc00 a3bd 626a 013e d8b3 6a3f 4849 adbd
00000020: 2967 1fbd a3c4 11bc ed58 b0bd 4ab0 f8bd
00000030: bd27 49be b543 41be c808 fabe 3f47 9c3d
00000040: a9b2 aabd 7bdc f4ba be08 f13d 6a4b 983e
00000050: a768 a3be 20a1 243e a5e3 163d fd97 75be
00000060: 1f0e a0be ad20 43bd b744 ff3e 5d40 113f
00000070: 6b75 1c3e 01f8 b2bc a26c cbbb e6a2 97be
00000080: 3055 f6bd 236e 8dbe e0a3 d1bd 72dd e53d
00000090: 381c 293d 708c 6a3e 42c4 59bd fef8 c33d
000000a0: c4d8 91be 09a5 d23e 48f9 113e 3b11 833d
000000b0: 1a6c 86bd 6e4c 36be 7656 073f 1455 c03d
000000c0: d7ae c7bd 3322 2ebd 27d1 2fbe 86e0 473f
000000d0: 673f 123e 72b2 2abd c031 1d3d 9336 3bbe
000000e0: 9af1 263a 92b7 85be cf8e 5d3d c1c8 05bc
000000f0: fa56 d5be c74b 6bbd 572d 92bd f65f a1bd
00000100: e3b5 8abe 418a a53d f85a c33e abe2 d63d
00000110: 1824 34be e275 443e 85af a63d d72b 23bd
00000120: 31b0 e2bd 9569 0cbe e4ef 98be 99a0 75bd
00000130: 9729 1fbe 0793 13be 38c7 1cbf 5ae5 82bd
00000140: e6be 8ebd e622 0ebe 3bcc febd d935 2e3d
00000150: 73e1 d3be 4947 42bd 47c1 12bc 8f7e cb3e
00000160: 83b8 0fbd dc56 913c 4fee 1e3d 1f67 22be
00000170: b372 583d 0f16 9abd 4873 15be a2d8 34bd
00000180: 1d09 c83d 27d1 4f3e 6aae 143e 2485 163d
00000190: 2766 fbbe d65a 583e 03d6 bcbe a5bc a4be
000001a0: 268e f9bd e568 7a3d 2717 d33e 8352 95bd
000001b0: 68a9 093c c429 d53c de5f 28be 32f0 84be
000001c0: e248 a63e 96f9 a5bc 3d1d 893c 5504 ab3d
000001d0: 969d 36bd 2732 bcbd cadd a2be 2d5f 8fbe
000001e0: 40a2 e2bd 281b 873e 843e a3bc 1f9a 0bbe
000001f0: 694b d73d fba2 8fbf 1053 21bd b741 b13d
00000200: 0c3b f8bd 6459 8d3d 781b 08bd 6423 333d
00000210: 3a63 3b3b 51e8 3f3d 555e e8bc 625e 95bd
00000220: 9c8e 1a3d 489d 9f3d 5ac8 4b3e a48d eebf
00000230: e907 8b3d ad7f f63d 8449 92be 6475 50bd
00000240: 1dc0 f6bd ffb6 d2bd aa7a d6bc 0b75 ccbf
00000250: f22e a3bd d40c 0c3d 7ab3 bcbd 1716 d33d
00000260: 6cc3 be3c 0023 0a3d 35a8 aebd a673 ef3d
00000270: 70a5 d8bd 496f 5d3e 61db ba3d 4954 ecbd
00000280: b8dd 0d3d 98c9 28bd 4c97 13bd 3389 723d
00000290: c0cf f23b 382b 073e 280d c0bd e983 5bbd
000002a0: 0780 efbd 34cd 88bd ac0d e6bd 00e4 c9bf
000002b0: b628 03bf 01ab 9fbd d40b be3d 79b2 82be
000002c0: fc6b 07be 1c08 4cbe e9b3 65bd 5801 fabd
000002d0: 2fd0 1039 c09b 56bb d007 babc b4e9 0b3d
000002e0: 1e4a c4bd d4bc c83d 7a05 01be e6fb 433d
000002f0: f93e d9bd 17cc 9b3d 0bfb cdbc 4a8e e6bd
00000300: fd1c babd 4cf0 aebd 702f 953d 1e51 d93d
00000310: c9c4 383d aa34 afbd e05e 07bd 21a8 e1bd
00000320: 6870 ef3d b302 e73d 4361 babd c71c 8dbd
00000330: a180 48bc 555c 9e3d 00bd b1bd 4a23 d9bd
00000340: df23 fbbd 807a 8d3d cc81 813d eff4 243d
00000350: 2432 48bd 90aa 5bbc c856 debd b0bc ce3d
00000360: d127 7f3c 5464 3a3d dba9 0e3d f86e 933c
00000370: 5c72 f1bd 64b5 e2bd d911 96bd a859 dc3c
00000380: f66d c4bd 400f b03b aa22 f6bd 7515 08be
00000390: 36c2 8cbc 478b bfbd 37f3 b83d 3cbd 6cbd
000003a0: 48b5 863d 7463 86bd 5586 903d 2e41 c0bd
000003b0: 70f7 f33d 405a 833c d1f8 653d 6518 35bb
000003c0: 9f7c f23c ca75 82be 86d8 adbd a481 59bd
000003d0: 0575 0bbe 1553 f4bd 209b 3abe cc1b f9be
000003e0: d3ce 53bd 37f8 97bd 284a ecbd 49bd b2bd
000003f0: b075 efbd 1307 7dbd f120 ff3d 4061 a13d

linear_relu_stack.4.bias f4 [40]
0.061018586 -0.12186385 -0.014213011 -0.13032316 -0.03563147 -0.03190686 -0.052142125 -0.10222249
-0.06267927 0.2085661 0.020496938 -0.04282612 -0.015165239 -0.114643 0.117143616 -0.10997343
-0.021430438 -0.06554108 -0.023273703 -0.025290627 -0.0640985 -0.1138069 0.021065176 0.02623254
-0.0040394585 -0.117533065 0.05761247 -0.04508152 0.04074085 -0.09829281 -0.00093503046 -0.041222233
-0.09345184 -0.05156727 -0.100327596 -0.13996872 0.13690244 -0.05029568 -0.063326344 -0.08176342
00000000: a0ee 793d c193 f9bd b0dd 68bc 6f73 05be
00000010: 4ef2 11bd c5b0 02bd fb92 55bd 065a d1bd
00000020: fd5d 80bd 5a92 553e 32e9 a73c 716a 2fbd
00000030: 9f77 78bc f3c9 eabd fee8 ef3d c039 e1bd
00000040: e38e afbc 673a 86bd 7ea8 bebc 4a2e cfbc
00000050: 1346 83bd 9813 e9bd e090 ac3c a0e5 d63c
00000060: 6f5d 84bb 2db5 f0bd 0efb 6b3d 66a7 38bd
00000070: e1df 263d be4d c9bd d51c 75ba a5d8 28bd
00000080: ae63 bfbd 3438 53bd 8e78 cdbd f653 0fbe
00000090: 2730 0c3e d802 4ebd 3eb1 81bd 9473 a7bd

linear_relu_stack.6.weight f4 [50, 40]
-0.068837896 0.14795598 0.08549617 -0.12993315 -0.22121222 -0.024711989 0.0021490732 -0.022715
0.13641109 -1.4100833 -0.7213235 0.027894337 0.1154061 0.0921516 -0.07837732 -0.60171914
0.032346845 -0.23603995 -0.23568341 -0.0025942584 0.13323025 -0.053359263 -0.5164046 -0.047070995
-0.15767542 0.14477192 -0.12704399 0.03853977 -0.6738643 0.00033326447 -0.08744625 0.011491238
0.55597776 -0.17526317 0.0020881577 0.034485143 0.008850999 -0.18701501 -0.16821624 -0.1830316
0.004419481 0.011749929 -0.113289505 0.14415346 0.14862251 -0.06785991 -0.15979603 -0.08973
-0.0532035 0.080494784 -0.12813175 -0.09952001 -0.037337463 0.039111745 0.14379837 -0.16535082
0.03592382 -0.070066586 -0.017550217 0.045368243 0.031069875 -0.032741994 0.14908294 0.09623138
-0.11667758 -0.07084228 0.024445333 -0.07600707 0.09466953 0.001310488 -0.14223629 -0.0015691356
0.09315392 0.053347245 -0.117575824 0.14638415 0.105239466 0.111532 0.10807308 0.09940382
-0.109739766 -0.20008269 0.15143412 0.025547057 -0.056391485 -0.044744533 0.16378587 0.09272422
0.123215616 -0.14110905 -0.11503217 0.16068037 -0.0913186 -0.25551108 -0.4895135 -0.11633423
0.12584323 0.21383017 -0.4235029 0.12175335 -0.21298856 0.051092923 0.086530656 -0.09206164
0.036912102 -0.0017022459 -0.14460891 0.082677476 0.19696021 -0.03236582 -0.42120075 -0.16233441
-0.28270286 0.06816468 0.13670695 -0.43245858 -0.52405965 0.11916265 -0.18036564 -0.061660044
0.012853265 -0.0174371 0.012490869 0.06888834 -0.1211143 -0.08995228 0.060415953 0.071038395
-0.02264598 -0.07264092 0.07925519 -0.073557325 -0.08156526 -0.031102538 -0.015345976 -0.0726868
-0.08823254 0.028482303 -0.14754844 0.082891196 -0.15795363 -0.13439338 -0.15799664 -0.08672438
-0.084119596 -0.12512378 -0.016167268 0.08879615 -0.06699805 0.073904514 -0.022353902 -0.028853089
0.05277601 0.1471702 0.053817004 -0.1517693 -0.010408148 0.09693463 0.13680209 -0.118798226
-0.7455472 -0.1761905 -1.6411163 -0.14400859 0.071770884 -0.8916654 0.110900335 0.097422235
0.43951878 0.30652854 0.085532136 0.08782506 -0.7343698 -0.109615564 0.09107753 -0.0358859
-0.060683977 0.32249126 -0.26731896 -0.20516284 -0.06509883 0.09813692 0.5985438 0.29285735
-0.028843798 0.015015503 0.35262305 0.21329261 0.26587334 -0.13160013 -0.16675875 0.002100017
-0.8765627 0.064847074 0.1951851 -0.49767947 -0.41284725 0.20059328 0.051859155 0.23463415
-0.11891739 -0.06364388 0.19227701 -0.021024913 -0.07597038 0.17762597 0.14291233 -0.029178841
0.12913541 -0.0015674346 0.12593426 -0.028631598 0.0358257 -0.047674194 0.09283055 -0.063667156
-0.07603421 -0.13808246 -0.023019109 0.045021918 0.06964527 0.14030935 -0.05911709 -0.16228661
0.07676077 -0.00743871 0.026626492 -0.064520374 0.10837072 -0.026396258 -0.13559034 0.055459008
-0.028158613 0.06943114 0.13517982 0.031026317 0.12838118 -0.09908919 -0.0853151 -0.05497429
-0.028800089 0.14570935 0.05969241 -0.006032765 -0.23701037 0.18489884 -0.030116616 0.034101993
-0.0003710239 -0.33069423 -0.18762065 0.010054397 0.11994317 0.09099631 -0.116344 -0.5368709
00000000: e2fa 8cbd c681 173e 9e18 af3d 320d 05be
00000010: 7585 62be cc70 cabc 77d7 0c3b cf14 babc
00000020: 59af 0b3e 9c7d b4bf a8a8 38bf aa82 e43c
00000030: 095a ec3d fab9 bc3d 4a84 a0bd 440a 1abf
00000040: 207e 043d 75b4 71be fe56 71be 6f04 2abb
00000050: 836d 083e 3e8f 5abd 1833 04bf 84cd 40bd
00000060: aa75 21be 173f 143e d217 02be e1db 1d3d
00000070: 5f82 2cbf 00ba ae39 0517 b3bd bf45 3c3c
00000080: 8f54 0e3f 3078 33be 79d9 083b 4b40 0d3d
00000090: c803 113c dd80 3fbe e140 2cbe a36c 3bbe
000000a0: 4bd1 903b c682 403c 5404 e8bd f79c 133e
000000b0: 8030 183e 23fa 8abd 92a1 23be 5dc4 b7bd
000000c0: eaeb 59bd 73da a43d f834 03be 26d1 cbbd
000000d0: 2bef 18bd a333 203d e13f 133e ba51 29be
000000e0: db24 133d 127f 8fbd 79c5 8fbc 0dd4 393d
000000f0: 4086 fe3c 781c 06bd 33a9 183e f514 c53d
00000100: a8f4 eebd c215 91bd 9441 c83c 98a9 9bbd
00000110: 19e2 c13d aec4 ab3a 64a6 11be 74ab cdba
00000120: 7bc7 be3d a482 5a3d 98cb f0bd bae5 153e
00000130: ca87 d73d e46a e43d 6b55 dd3d 3b94 cb3d
00000140: 3ebf e0bd 7ae2 4cbe 8c11 1b3e 1048 d13c
00000150: c2fa 66bd 0b46 37bd 7cb7 273e 32e6 bd3d
00000160: 7858 fc3d e47e 10be fd95 ebbd 6589 243e
00000170: 3f05 bbbd 59d2 82be 83a1 fabe a440 eebd
00000180: 0cdd 003e 4cf6 5a3e 5fd5 d8be d259 f93d
00000190: ac19 5abe d046 513d fc36 b13d d08a bcbd
000001a0: 2531 173d e51d dfba 5c14 14be cf52 a93d
000001b0: f0af 493e 0692 04bd a0a7 d7be fe3a 26be
000001c0: 6ebe 90be ec99 8b3d e8fc 0b3e 366b ddbe
000001d0: c628 06bf 8c0b f43d c5b1 38be 3e8f 7cbd
000001e0: 8096 523c 40d8 8ebc 80a6 4c3c 5415 8d3d
000001f0: c60a f8bd e738 b8bd b876 773d 947c 913d
00000200: 1084 b9bc c3c4 94bd 8c50 a23d 39a5 96bd
00000210: b00b a7bd c0ca febc b06d 7bbc d1dc 94bd
00000220: 43b3 b4bd b853 e93c f016 17be dcc2 a93d
00000230: 99be 21be 6b9e 09be dfc9 21be 8d9c b1bd
00000240: e546 acbd 7320 00be 3871 84bc c2da b53d
00000250: 4636 89bd 405b 973d 881f b7bc 505d ecbc
00000260: a82b 583d c9b3 163e 386f 5c3d 6969 1bbe
00000270: f086 2abc aa85 c63d d915 0c3e 7c4c f3bd
00000280: 2edc 3ebf 486b 34be 1910 d2bf fd76 13be
00000290: 9dfc 923d 2f44 64bf b71f e33d 4f85 c73d
000002a0: 9b08 e13e 4ff1 9c3e 792b af3d a0dd b33d
000002b0: a9ff 3bbf 207e e0bd db86 ba3d 18fd 12bd
000002c0: c38f 78bd 931d a53e 08de 88be 3516 52be
000002d0: 8952 85bd 02fc c83d 2b3a 193f 66f1 953e
000002e0: d449 ecbc 9603 763c 028b b43e 6169 5a3e
000002f0: 8d20 883e 2fc2 06be cec2 2abe 70a0 093b
00000300: 6a66 60bf 8bce 843d 9ade 473e d8cf febe
00000310: b760 d3be 5368 4d3e 446a 543d ef43 703e
00000320: f68a f3bd b957 82bd 44e4 443e 703c acbc
00000330: 5c96 9bbd 95e3 353e 9c57 123e 7708 efbc
00000340: 133c 043e 6172 cdba e9f4 003e d08c eabc
00000350: f8bd 123d 0446 43bd f21d be3d ed63 82bd
00000360: d3b7 9bbd 7d65 0dbe 9292 bcbc e768 383d
00000370: 2ea2 8e3d 41ad 0f3e c324 72bd 762e 26be
00000380: c034 9d3d 6cc0 f3bb cd1f da3c 4223 84bd
00000390: 78f1 dd3d f73c d8bc 32d8 0abe fc28 633d
000003a0: e4ac e6bc ea31 8e3d 946c 0a3e e72a fe3c
000003b0: 5b76 033e 46ef cabd afb9 aebd b92c 61bd
000003c0: 2aee ebbc d534 153e 0780 743d 80ae c5bb
000003d0: d9b2 72be 1f56 3d3e 1fb7 f6bc 88ae 0b3d
000003e0: fc85 c2b9 c150 a9be a11f 40be 33bb 243c
000003f0: c4a4 f53d 465c ba3d c345 eebd 5f70 09bf

linear_relu_stack.6.bias f4 [50]
-0.012251478 -0.1759962 0.03529733 -0.09796028 0.039415333 -0.13054131 0.03168736 0.063363396
0.006826395 -0.15291794 -0.08787 -0.16149479 -0.093691155 0.13019791 -0.11620208 -0.035255622
-0.09215017 -0.13124369 0.23907211 -0.13765015 0.0023316415 -0.17545155 -0.025128178 0.005817118
0.08083692 -0.12573877 -0.10249784 0.2859848 0.16546212 0.12443912 0.27611503 0.0310251
0.10269966 0.10490106 -0.010554386 -0.031928506 0.17497547 0.01665412 0.010535736 0.122901805
0.1828648 -0.08485877 -0.1823804 -0.003292444 -0.1487303 0.020359226 -0.08261506 -0.23440091
-0.10101321 0.083813176
00000000: 6cba 48bc 5938 34be ef93 103d 669f c8bd
00000010: f971 213d 9fac 05be 9bca 013d abc4 813d
00000020: f4af df3b 8596 1cbe 30f5 b3bd e45e 25be
00000030: 26e1 bfbd 9a52 053e 5bfb edbd 3368 10bd
00000040: 3ab9 bcbd bf64 06be 52cf 743e 29f4 0cbe
00000050: 74ce 183b 92a9 33be 9cd9 cdbc 869d be3b
00000060: d48d a53d aac1 00be 63ea d1bd 9a6c 923e
00000070: e76e 293e f0d9 fe3d f35e 8d3e 5a28 fe3c
00000080: 3354 d23d 5ed6 d63d 4eec 2cbc 77c7 02bd
00000090: c52c 333e 396e 883c 149e 2c3c f1b3 fb3d
000000a0: e940 3b3e 6fca adbd edc1 3abe 0bc6 57bb
000000b0: c14c 18be 64c8 a63c 1632 a9bd cb06 70be
000000c0: 04e0 cebd 3ea6 ab3d

linear_relu_stack.8.weight f4 [1, 50]
-0.3212901 0.01785492 0.10316522 0.066722244 0.35403517 0.002944194 -0.009672157 -0.42621624
0.18819912 -0.087214656 0.10043527 0.076003455 0.061265863 -0.012916985 -0.13923211 0.8595462
0.049230978 -0.25021604 0.33569852 -0.2579508 0.1663425 -0.07040023 -0.20686318 0.14178643
0.18997401 0.0015024913 -0.0011432217 0.2173285 -0.11584465 0.28449994 0.5694616 0.31891012
1.0868895 0.5336398 0.45661104 0.006808996 -0.22711597 0.27298275 -0.18012586 -0.5577767
-0.32772893 -0.11245553 -0.312094 0.46636823 0.018645778 0.30768433 0.004702079 -0.48234662
0.06131261 -0.08657853
00000000: 2380 a4be 7b44 923c 4948 d33d aca5 883d
00000010: 1944 b53e 61f3 403b f777 1ebc 0439 dabe
00000020: 45b7 403e 999d b2bd 02b1 cd3d b3a7 9b3d
00000030: eaf1 7a3d c3a1 53bc dd92 0ebe 380b 5c3f
00000040: 6ca6 493d 511c 80be ade0 ab3e 2112 84be
00000050: b055 2a3e ff2d 90bd f1d3 53be 7630 113e
00000060: 8c88 423e 3eef c43a 28d8 95ba 5d8b 5e3e
00000070: f63f edbd faa9 913e 3cc8 113f 3048 a33e
00000080: 321f 8b3f 9e9c 083f ecc8 e93e 001e df3b
00000090: 1791 68be 65c4 8b3e ea72 38be 74ca 0ebf
000000a0: 16cc a7be 164f e6bd c9ca 9fbe d1c7 ee3e
000000b0: 08bf 983c cd88 9d3e e613 9a3b 23f6 f6be
000000c0: ee22 7b3d 1650 b1bd

exp_avg f4 [50, 12]
0.0 0.0 0.0 0.0 0.0 0.0 0.0 0.0
0.0 0.0 0.0 0.0 6e-45 6e-45 6e-45 6e-45
6e-45 6e-45 6e-45 6e-45 6e-45 6e-45 6e-45 6e-45
2.1096284e-08 -3.0755396e-06 -1.5613408e-06 2.2549463e-07 -6.849859e-07 -6.843937e-07 -2.7381097e-07 -1.6087677e-06
-6e-45 -6e-45 -6e-45 -1.6087677e-06 6e-45 6e-45 6e-45 6e-45
6e-45 6e-45 6e-45 6e-45 6e-45 6e-45 6e-45 6e-45
1.9440776e-08 1.1614627e-05 5.6462063e-06 5.233261e-06 7.293726e-06 7.494629e-06 3.071903e-06 1.7020579e-05
-6e-45 6e-45 6e-45 1.7020579e-05 6e-45 -6e-45 -6e-45 6e-45
-6e-45 -6e-45 -6e-45 -6e-45 -6e-45 0.0 0.0 0.0
-1.0790725e-07 -4.8918837e-06 -5.601487e-06 -3.8227176e-06 -8.222033e-06 -8.587178e-06 -3.564261e-06 -1.938668e-05
6e-45 -6e-45 6e-45 -1.938668e-05 -1.0619382e-07 -4.5605125e-06 -5.822789e-06 -3.97361e-06
-7.982039e-06 -8.343131e-06 -3.514072e-06 -1.8802026e-05 6e-45 -6e-45 6e-45 -1.8802026e-05
-6e-45 -6e-45 -6e-45 -6e-45 -6e-45 -6e-45 -6e-45 -6e-45
6e-45 6e-45 -6e-45 -6e-45 6e-45 6e-45 6e-45 6e-45
6e-45 6e-45 6e-45 6e-45 6e-45 0.0 6e-45 6e-45
9.954383e-08 8.183296e-06 3.8836574e-06 3.1829468e-06 9.790871e-06 1.0154898e-05 4.303207e-06 2.3161112e-05
6e-45 -6e-45 6e-45 2.3161112e-05 0.0 0.0 0.0 0.0
0.0 0.0 0.0 0.0 0.0 0.0 0.0 0.0
-2.9762091e-08 -7.0049655e-06 -5.4756383e-06 -2.8978566e-06 -6.497531e-06 -6.7522096e-06 -2.6742312e-06 -1.52409675e-05
-6e-45 6e-45 -6e-45 -1.52409675e-05 6e-45 6e-45 6e-45 6e-45
6e-45 6e-45 6e-45 6e-45 -6e-45 -6e-45 6e-45 6e-45
1.8410045e-08 7.2830693e-07 5.323724e-07 6.3414143e-07 1.5089001e-06 1.5730916e-06 6.267087e-07 3.561172e-06
6e-45 6e-45 -6e-45 3.561172e-06 2.285715e-07 -6.7048876e-07 8.154048e-06 6.26418e-06
1.2517882e-05 1.3210469e-05 5.354449e-06 2.9519175e-05 -6e-45 -6e-45 -6e-45 2.9519175e-05
6e-45 6e-45 6e-45 6e-45 6e-45 6e-45 6e-45 6e-45
0.0 6e-45 6e-45 6e-45 6e-45 6e-45 6e-45 6e-45
6e-45 6e-45 6e-45 6e-45 0.0 0.0 6e-45 6e-45
-2.6387485e-07 -8.796797e-06 -1.149683e-05 -9.187103e-06 -1.860736e-05 -1.9457233e-05 -8.032528e-06 -4.386517e-05
6e-45 -6e-45 6e-45 -4.386517e-05 4.4885644e-11 -5.647359e-07 -4.4301555e-07 -1.4593422e-07
-4.73184e-07 -4.9204056e-07 -1.9935058e-07 -1.1093056e-06 0.0 0.0 0.0 -1.1093056e-06
-6e-45 -6e-45 -6e-45 -6e-45 -6e-45 -6e-45 -6e-45 -6e-45
0.0 0.0 0.0 -6e-45 -6e-45 -6e-45 -6e-45 -6e-45
00000000: 0000 0000 0000 0000 0000 0000 0000 0000
00000010: 0000 0000 0000 0000 0000 0000 0000 0000
00000020: 0000 0000 0000 0000 0000 0000 0000 0000
00000030: 0400 0000 0400 0000 0400 0000 0400 0000
00000040: 0400 0000 0400 0000 0400 0000 0400 0000
00000050: 0400 0000 0400 0000 0400 0000 0400 0000
00000060: 3837 b532 5e65 4eb6 438f d1b5 7e1f 7234
00000070: dfdf 37b5 2db7 37b5 4b00 93b4 d6ec d7b5
00000080: 0400 0080 0400 0080 0400 0080 d6ec d7b5
00000090: 0400 0000 0400 0000 0400 0000 0400 0000
000000a0: 0400 0000 0400 0000 0400 0000 0400 0000
000000b0: 0400 0000 0400 0000 0400 0000 0400 0000
000000c0: b8fe a632 71dc 4237 8b74 bd36 5f99 af36
000000d0: a1bc f436 5f7a fb36 e426 4e36 6ac7 8e37
000000e0: 0400 0080 0400 0000 0400 0000 6ac7 8e37
000000f0: 0400 0000 0400 0080 0400 0080 0400 0000
00000100: 0400 0080 0400 0080 0400 0080 0400 0080
00000110: 0400 0080 0000 0000 0000 0000 0000 0000
00000120: a3ba e7b3 f624 a4b6 68f4 bbb6 e544 80b6
00000130: 5df1 09b7 a611 10b7 8a31 6fb6 94a0 a2b7
00000140: 0400 0000 0400 0080 0400 0000 94a0 a2b7
00000150: ac0c e4b3 8106 99b6 6061 c3b6 0d55 85b6
00000160: 99ea 05b7 7af9 0bb7 4cd3 6bb6 0bb9 9db7
00000170: 0400 0000 0400 0080 0400 0000 0bb9 9db7
00000180: 0400 0080 0400 0080 0400 0080 0400 0080
00000190: 0400 0080 0400 0080 0400 0080 0400 0080
000001a0: 0400 0000 0400 0000 0400 0080 0400 0080
000001b0: 0400 0000 0400 0000 0400 0000 0400 0000
000001c0: 0400 0000 0400 0000 0400 0000 0400 0000
000001d0: 0400 0000 0000 0000 0400 0000 0400 0000
000001e0: cdc4 d533 fd4a 0937 5d50 8236 9c9a 5536
000001f0: 7943 2437 f45e 2a37 4464 9036 1c4a c237
00000200: 0400 0000 0400 0080 0400 0000 1c4a c237
00000210: 0000 0000 0000 0000 0000 0000 0000 0000
00000220: 0000 0000 0000 0000 0000 0000 0000 0000
00000230: 0000 0000 0000 0000 0000 0000 0000 0000
00000240: 88a7 ffb2 320c ebb6 60bb b7b6 cc78 42b6
00000250: 5e05 dab6 0a91 e2b6 f176 33b6 75b3 7fb7
00000260: 0400 0080 0400 0000 0400 0080 75b3 7fb7
00000270: 0400 0000 0400 0000 0400 0000 0400 0000
00000280: 0400 0000 0400 0000 0400 0000 0400 0000
00000290: 0400 0080 0400 0080 0400 0000 0400 0000
000002a0: 1e24 9e32 df80 4335 5ae8 0e35 de39 2a35
000002b0: 6a85 ca35 0423 d335 183b 2835 78fc 6e36
000002c0: 0400 0000 0400 0000 0400 0080 78fc 6e36
000002d0: 416d 7534 a3fb 33b5 5fcd 0837 e530 d236
000002e0: e503 5237 88a2 5d37 5eaa b336 f29f f737
000002f0: 0400 0080 0400 0080 0400 0080 f29f f737
00000300: 0400 0000 0400 0000 0400 0000 0400 0000
00000310: 0400 0000 0400 0000 0400 0000 0400 0000
00000320: 0000 0000 0400 0000 0400 0000 0400 0000
00000330: 0400 0000 0400 0000 0400 0000 0400 0000
00000340: 0400 0000 0400 0000 0400 0000 0400 0000
00000350: 0000 0000 0000 0000 0400 0000 0400 0000
00000360: afaa 8db4 f595 13b7 82e2 40b7 4f22 1ab7
00000370: 0017 9cb7 1738 a3b7 72c3 06b7 defb 37b8
00000380: 0400 0000 0400 0080 0400 0000 defb 37b8
00000390: be68 452e 5b98 17b5 98d7 edb4 18b2 1cb4
000003a0: ea09 feb4 c514 04b5 120d 56b4 73e3 94b5
000003b0: 0000 0000 0000 0000 0000 0000 73e3 94b5
000003c0: 0400 0080 0400 0080 0400 0080 0400 0080
000003d0: 0400 0080 0400 0080 0400 0080 0400 0080
000003e0: 0000 0000 0000 0000 0000 0000 0400 0080
000003f0: 0400 0080 0400 0080 0400 0080 0400 0080

exp_avg_sq f4 [50, 12]
0.0 0.0 0.0 0.0 0.0 0.0 0.0 0.0
0.0 0.0 0.0 0.0 7e-43 7e-43 7e-43 7e-43
7e-43 7e-43 7e-43 7e-43 7e-43 7e-43 7e-43 7e-43
5.144249e-13 2.1067349e-08 1.00274615e-08 9.938798e-10 1.2488851e-08 1.3514271e-08 3.2428389e-09 9.110545e-08
7e-43 7e-43 2.1007209e-26 9.110545e-08 1.2619473e-19 8.465742e-20 7.765836e-21 4.2191817e-20
1.0863856e-21 1.1796513e-21 4.1644933e-21 1.2644073e-19 7e-43 7e-43 7e-43 1.2644073e-19
3.8782747e-13 4.0101838e-07 4.718593e-08 1.5696932e-09 7.32673e-08 7.6635025e-08 2.4062e-08 7.281571e-07
7e-43 1.6444e-41 4.6543508e-26 7.281571e-07 7e-43 7e-43 7e-43 7e-43
7e-43 7e-43 7e-43 7e-43 7e-43 0.0 0.0 0.0
4.1346765e-12 5.005448e-08 1.2461129e-08 4.817482e-09 2.8988186e-08 3.132689e-08 9.1677785e-09 2.6603047e-07
7e-43 7e-43 1.4435037e-25 2.6603047e-07 1.0560296e-11 8.7434745e-07 1.1581988e-07 1.2788317e-08
2.2019877e-07 2.3328724e-07 7.5316855e-08 2.2564784e-06 7e-43 6.962e-42 2.6712455e-24 2.2564784e-06
2.928253e-31 3.3866865e-26 3.6071578e-27 3.3746696e-28 7.4137895e-27 7.9433555e-27 2.5711613e-27 7.726975e-26
7e-43 7e-43 7.726975e-26 7e-43 1.1164433e-18 1.4796135e-18 1.3572891e-19 7.516805e-19
5.7353917e-21 4.8610008e-21 7.27812e-20 2.2098879e-18 7e-43 0.0 7e-43 2.2098879e-18
3.7418883e-12 1.1464703e-06 8.297981e-08 4.4524135e-09 2.008343e-07 2.0771695e-07 6.543344e-08 1.98538e-06
7e-43 2.926e-42 1.1144984e-24 1.98538e-06 0.0 0.0 0.0 0.0
0.0 0.0 0.0 0.0 0.0 0.0 0.0 0.0
2.717032e-12 3.8094836e-07 1.8849198e-07 1.0966016e-08 2.1540505e-07 2.3289242e-07 5.414895e-08 1.5165033e-06
7e-43 7.7977e-41 4.211339e-25 1.5165033e-06 9.685511e-19 1.293624e-18 1.186686e-19 6.57681e-19
5.3130715e-21 4.6143346e-21 6.3633815e-20 1.9321262e-18 7e-43 2.595e-42 9.0101635e-37 1.9321262e-18
2.4542068e-13 2.0817696e-09 1.170039e-09 2.8435335e-10 2.0367528e-09 2.2465414e-09 1.4929927e-09 2.4512103e-08
7e-43 7e-43 4.0654e-41 2.4512103e-08 6.347668e-11 3.6739882e-05 2.0976954e-06 6.552253e-08
5.7105194e-06 5.849856e-06 1.8697569e-06 5.6851484e-05 7e-43 7e-43 2.1515003e-23 5.6851484e-05
2.600423e-19 1.7446295e-19 1.6003803e-20 8.694827e-20 2.2388271e-21 2.431056e-21 8.5823406e-21 2.6057205e-19
0.0 7e-43 7e-43 2.6057205e-19 8.296304e-22 1.11869e-21 1.02619e-22 5.685148e-22
4.159839e-24 3.465351e-24 5.503167e-23 1.670829e-21 0.0 0.0 7e-43 1.670829e-21
2.6587474e-11 8.8642315e-07 1.327522e-07 3.084198e-08 2.869219e-07 3.0657245e-07 9.511307e-08 2.8520992e-06
7e-43 1.19e-42 2.9085684e-24 2.8520992e-06 1.6806187e-13 3.5686934e-08 5.07925e-09 2.8906227e-10
8.693753e-09 9.171585e-09 2.5935394e-09 7.86535e-08 0.0 0.0 0.0 7.86535e-08
8.023805e-20 5.3822497e-20 4.9372807e-21 2.6824238e-20 6.9069117e-22 7.4999013e-22 2.6476448e-21 8.0387506e-20
0.0 0.0 0.0 8.0387506e-20 2.620529e-31 1.5200833e-27 5.3968457e-28 3.0917399e-28
00000000: 0000 0000 0000 0000 0000 0000 0000 0000
00000010: 0000 0000 0000 0000 0000 0000 0000 0000
00000020: 0000 0000 0000 0000 0000 0000 0000 0000
00000030: f401 0000 f401 0000 f401 0000 f401 0000
00000040: f401 0000 f401 0000 f401 0000 f401 0000
00000050: f401 0000 f401 0000 f401 0000 f401 0000
00000060: 38cc 102b 97f7 b432 3e45 2c32 0999 8830
00000070: 8c8e 5632 642c 6832 a0d8 5e31 c0a5 c333
00000080: f401 0000 f401 0000 9a0b d014 c0a5 c333
00000090: 04fc 1420 45e4 c71f 47b1 121e c73e 471f
000000a0: 822b a41c 8d43 b21c 8254 9d1d 5e46 1520
000000b0: f401 0000 f401 0000 f401 0000 5e46 1520
000000c0: d453 da2a 8c4b d734 7ba9 4a33 abbc d730
000000d0: 2057 9d33 8d92 a433 e6b0 ce32 9376 4335
000000e0: f401 0000 d72d 0000 e878 6615 9376 4335
000000f0: f401 0000 f401 0000 f401 0000 f401 0000
00000100: f401 0000 f401 0000 f401 0000 f401 0000
00000110: f401 0000 0000 0000 0000 0000 0000 0000
00000120: db79 912c 7cfb 5633 a014 5632 0587 a531
00000130: b201 f932 488c 0633 5180 1d32 f3d2 8e34
00000140: f401 0000 f401 0000 75b2 3216 f3d2 8e34
00000150: 58c7 392d b3b4 6a35 a7b8 f833 9db3 5b32
00000160: c76f 6c34 827d 7a34 e1bd a133 016e 1736
00000170: f401 0000 6813 0000 78ad 4e18 016e 1736
00000180: f30d be0c 5ab3 2715 ede4 8e13 25e5 d511
00000190: 61d8 1214 9955 1d14 59b5 4b13 864f bf15
000001a0: f401 0000 f401 0000 864f bf15 f401 0000
000001b0: 09c2 a421 385a da21 8c3d 2020 5fdb 5d21
000001c0: 4ead d81d b7a4 b71d 89d9 ab1f 9a0f 2322
000001d0: f401 0000 0000 0000 f401 0000 9a0f 2322
000001e0: efa7 832c 6be0 9935 a232 b233 d8fb 9831
000001f0: e9a4 5734 cd08 5f34 6a84 8c33 923c 0536
00000200: f401 0000 2808 0000 d575 ac17 923c 0536
00000210: 0000 0000 0000 0000 0000 0000 0000 0000
00000220: 0000 0000 0000 0000 0000 0000 0000 0000
00000230: 0000 0000 0000 0000 0000 0000 0000 0000
00000240: b231 3f2c 2585 cc34 4864 4a34 0c65 3c32
00000250: 174a 6734 fb10 7a34 6691 6833 a88a cb35
00000260: f401 0000 5ed9 0000 aa55 0217 a88a cb35
00000270: d3ee 8e21 bce7 be21 6219 0c20 f91c 4221
00000280: e0b8 c81d 1b53 ae1d 4840 961f d590 0e22
00000290: f401 0000 3c07 0000 cc4c 9903 d590 0e22
000002a0: d928 8a2a e10e 0f31 16cf a030 2d53 9c2f
000002b0: eff6 0b31 9361 1a31 0332 cd30 af8e d232
000002c0: f401 0000 f401 0000 5471 0000 af8e d232
000002d0: 3296 8b2e 2619 1a38 22c6 0c36 64b5 8c33
000002e0: fd9c bf36 e149 c436 5cf4 fa35 d173 6e38
000002f0: f401 0000 f401 0000 9114 d019 d173 6e38
00000300: 7b80 9920 31f8 4d20 d226 971e 014d cd1f
00000310: 3729 291d 76af 371d a71d 221e 89d0 9920
00000320: 0000 0000 f401 0000 f401 0000 89d0 9920
00000330: 8bbd 7a1c 390d a91c 161e f81a b4d2 2b1c
00000340: 0ded a018 2d0f 8618 f40e 851a 117d fc1c
00000350: 0000 0000 0000 0000 f401 0000 117d fc1c
00000360: abdd e92d 89f2 6d35 a68a 0e34 1e77 0433
00000370: 3f0a 9a34 ff96 a434 f740 cc33 b166 3f36
00000380: f401 0000 5103 0000 220a 6118 b166 3f36
00000390: 8938 3d2a 3346 1933 8e85 ae31 e6e9 9e2f
000003a0: 885b 1532 0f91 1d32 073a 3231 38e8 a833
000003b0: 0000 0000 0000 0000 0000 0000 38e8 a833
000003c0: ed74 bd1f 682b 7e1f 7386 ba1d 0759 fd1e
000003d0: a4bf 501c adab 621c e60c 481d 44cf bd1f
000003e0: 0000 0000 0000 0000 0000 0000 44cf bd1f
000003f0: 0215 aa0c e7dd f012 6a08 2b12 59f6 c311

exp_avg f4 [50]
0.0 6e-45 -1.6087683e-06 6e-45 1.702058e-05 -6e-45 -1.9386678e-05 -1.8802037e-05
-6e-45 6e-45 2.3161112e-05 0.0 -1.5240968e-05 6e-45 3.5611727e-06 2.9519162e-05
6e-45 6e-45 -4.386517e-05 -1.1093056e-06 -6e-45 -6e-45 6e-45 6e-45
6e-45 -6e-45 7.485745e-08 6e-45 6e-45 -1.3580694e-05 6.120763e-05 6e-45
6e-45 0.0 -6e-45 -6e-45 4.2872016e-06 7.564495e-07 -2.9667927e-07 6e-45
-1.1682401e-05 -1.6213025e-05 6e-45 0.0 6e-45 6e-45 0.0 6e-45
6e-45 -3.5210082e-06
00000000: 0000 0000 0400 0000 dcec d7b5 0400 0000
00000010: 6bc7 8e37 0400 0080 93a0 a2b7 11b9 9db7
00000020: 0400 0080 0400 0000 1c4a c237 0000 0000
00000030: 76b3 7fb7 0400 0000 7bfc 6e36 eb9f f737
00000040: 0400 0000 0400 0000 defb 37b8 73e3 94b5
00000050: 0400 0080 0400 0080 0400 0000 0400 0000
00000060: 0400 0000 0400 0080 51c1 a033 0400 0000
00000070: 0400 0000 a3d8 63b7 995c 8038 0400 0000
00000080: 0400 0000 0000 0000 0400 0080 0400 0080
00000090: c8da 8f36 d00e 4b35 4a47 9fb4 0400 0000
000000a0: 88ff 43b7 3501 88b7 0400 0000 0000 0000
000000b0: 0400 0000 0400 0000 0000 0000 0400 0000
000000c0: 0400 0000 764a 6cb6

exp_avg_sq f4 [50]
0.0 7e-43 9.1105434e-08 1.2644073e-19 7.281571e-07 7e-43 2.6603044e-07 2.2564789e-06
7.726975e-26 2.2098879e-18 1.9853803e-06 0.0 1.516503e-06 1.9321262e-18 2.4512103e-08 5.6851477e-05
2.6057205e-19 1.670829e-21 2.852099e-06 7.8653514e-08 8.0387506e-20 1.28500396e-26 5.918755e-20 1.057714e-39
4.8132076e-18 8.191568e-18 3.7541324e-07 9.861965e-19 7e-43 5.834302e-06 1.2155104e-05 7e-43
2.4682182e-38 0.0 1.312e-42 2.4519894e-18 3.3721277e-12 6.701893e-06 4.020276e-06 7e-43
8.783935e-06 7.958219e-06 7e-43 0.0 5.387119e-19 4.928e-42 0.0 7e-43
7e-43 1.1466416e-06
00000000: 0000 0000 f401 0000 bea5 c333 5e46 1520
00000010: 9376 4335 f401 0000 f2d2 8e34 036e 1736
00000020: 864f bf15 9a0f 2322 933c 0536 0000 0000
00000030: a58a cb35 d590 0e22 af8e d232 cf73 6e38
00000040: 89d0 9920 117d fc1c b066 3f36 3ae8 a833
00000050: 44cf bd1f 7185 7e14 aec0 8b1f 7a84 0b00
00000060: 7693 b122 961b 1723 678c c934 7389 9121
00000070: f401 0000 46c4 c336 c6ed 4b37 f401 0000
00000080: f161 0601 0000 0000 a803 0000 c5ec 3422
00000090: da4a 6d2c d3e0 e036 e8e5 8636 f401 0000
000000a0: b75e 1337 4a84 0537 f401 0000 0000 0000
000000b0: ecff 1e21 bd0d 0000 0000 0000 f401 0000
000000c0: f401 0000 4ee6 9935

exp_avg f4 [60, 50]
0.0 -6e-45 -6e-45 -6e-45 -5.7611805e-07 6e-45 6e-45 -6e-45
6e-45 6e-45 -6e-45 0.0 -4.981761e-07 -6e-45 6e-45 -2.3328994e-06
-6e-45 -6e-45 6e-45 -2.3359627e-27 -6e-45 -6e-45 -6e-45 6e-45
6e-45 -6e-45 6.103875e-10 -6e-45 6e-45 -1.0149025e-06 -9.055338e-08 -6e-45
-6e-45 0.0 6e-45 6e-45 -3.1375188e-07 6e-45 6e-45 6e-45
-3.0271613e-06 -9.551677e-10 6e-45 0.0 -6e-45 6e-45 0.0 0.0
6e-45 -2.431409e-07 0.0 6e-45 6e-45 6e-45 6e-45 -6e-45
6e-45 -6e-45 6e-45 6e-45 -6e-45 0.0 6e-45 6e-45
-6e-45 6e-45 -6e-45 6e-45 6e-45 6e-45 -6e-45 6e-45
6e-45 6e-45 6e-45 6e-45 6e-45 6e-45 6e-45 6e-45
6e-45 6e-45 -6e-45 0.0 6e-45 6e-45 6e-45 6e-45
6e-45 6e-45 6e-45 6e-45 6e-45 0.0 -6e-45 -6e-45
0.0 6e-45 6e-45 -6e-45 0.0 6e-45 6e-45 6e-45
6e-45 6e-45 6e-45 6e-45 6e-45 6e-45 6e-45 0.0
6e-45 6e-45 6e-45 6e-45 6e-45 6e-45 6e-45 6e-45
6e-45 0.0 6e-45 0.0 6e-45 6e-45 6e-45 6e-45
0.0 6e-45 6e-45 0.0 6e-45 0.0 6e-45 6e-45
6e-45 6e-45 6e-45 6e-45 6e-45 6e-45 6e-45 0.0
6e-45 6e-45 0.0 0.0 6e-45 6e-45 0.0 6e-45
6e-45 -6e-45 -6e-45 6e-45 -6e-45 -6e-45 6e-45 -6e-45
-6e-45 0.0 6e-45 -6e-45 -6e-45 6e-45 -6e-45 -6e-45
6e-45 6e-45 -6e-45 6e-45 -6e-45 6e-45 -6e-45 -6e-45
6e-45 -6e-45 -6e-45 6e-45 6e-45 -6e-45 -6e-45 0.0
-6e-45 -6e-45 6e-45 -6e-45 6e-45 6e-45 6e-45 -6e-45
6e-45 0.0 -6e-45 6e-45 0.0 0.0 6e-45 6e-45
0.0 6e-45 -6e-45 -6e-45 6e-45 6e-45 -6e-45 -6e-45
6e-45 -6e-45 -6e-45 0.0 -6e-45 -6e-45 -6e-45 -6e-45
-6e-45 -6e-45 6e-45 -6e-45 -6e-45 6e-45 -6e-45 6e-45
-6e-45 -6e-45 -6e-45 -6e-45 6e-45 -6e-45 -6e-45 -6e-45
6e-45 0.0 -6e-45 -6e-45 -6e-45 6e-45 -6e-45 -6e-45
6e-45 -6e-45 0.0 0.0 -6e-45 6e-45 0.0 0.0
-6e-45 -6e-45 0.0 6e-45 8.6421466e-08 -6e-45 4.9982583e-07 6e-45
00000000: 0000 0000 0400 0080 0400 0080 0400 0080
00000010: 88a6 1ab5 0400 0000 0400 0000 0400 0080
00000020: 0400 0000 0400 0000 0400 0080 0000 0000
00000030: 67ba 05b5 0400 0080 0400 0000 e88e 1cb6
00000040: 0400 0080 0400 0080 0400 0000 f412 3993
00000050: 0400 0080 0400 0080 0400 0080 0400 0000
00000060: 0400 0000 0400 0080 34c8 2730 0400 0080
00000070: 0400 0000 c937 88b5 3f76 c2b3 0400 0080
00000080: 0400 0080 0000 0000 0400 0000 0400 0000
00000090: bb71 a8b4 0400 0000 0400 0000 0400 0000
000000a0: 3c26 4bb6 fa46 83b0 0400 0000 0000 0000
000000b0: 0400 0080 0400 0000 0000 0000 0000 0000
000000c0: 0400 0000 0889 82b4 0000 0000 0400 0000
000000d0: 0400 0000 0400 0000 0400 0000 0400 0080
000000e0: 0400 0000 0400 0080 0400 0000 0400 0000
000000f0: 0400 0080 0000 0000 0400 0000 0400 0000
00000100: 0400 0080 0400 0000 0400 0080 0400 0000
00000110: 0400 0000 0400 0000 0400 0080 0400 0000
00000120: 0400 0000 0400 0000 0400 0000 0400 0000
00000130: 0400 0000 0400 0000 0400 0000 0400 0000
00000140: 0400 0000 0400 0000 0400 0080 0000 0000
00000150: 0400 0000 0400 0000 0400 0000 0400 0000
00000160: 0400 0000 0400 0000 0400 0000 0400 0000
00000170: 0400 0000 0000 0000 0400 0080 0400 0080
00000180: 0000 0000 0400 0000 0400 0000 0400 0080
00000190: 0000 0000 0400 0000 0400 0000 0400 0000
000001a0: 0400 0000 0400 0000 0400 0000 0400 0000
000001b0: 0400 0000 0400 0000 0400 0000 0000 0000
000001c0: 0400 0000 0400 0000 0400 0000 0400 0000
000001d0: 0400 0000 0400 0000 0400 0000 0400 0000
000001e0: 0400 0000 0000 0000 0400 0000 0000 0000
000001f0: 0400 0000 0400 0000 0400 0000 0400 0000
00000200: 0000 0000 0400 0000 0400 0000 0000 0000
00000210: 0400 0000 0000 0000 0400 0000 0400 0000
00000220: 0400 0000 0400 0000 0400 0000 0400 0000
00000230: 0400 0000 0400 0000 0400 0000 0000 0000
00000240: 0400 0000 0400 0000 0000 0000 0000 0000
00000250: 0400 0000 0400 0000 0000 0000 0400 0000
00000260: 0400 0000 0400 0080 0400 0080 0400 0000
00000270: 0400 0080 0400 0080 0400 0000 0400 0080
00000280: 0400 0080 0000 0000 0400 0000 0400 0080
00000290: 0400 0080 0400 0000 0400 0080 0400 0080
000002a0: 0400 0000 0400 0000 0400 0080 0400 0000
000002b0: 0400 0080 0400 0000 0400 0080 0400 0080
000002c0: 0400 0000 0400 0080 0400 0080 0400 0000
000002d0: 0400 0000 0400 0080 0400 0080 0000 0000
000002e0: 0400 0080 0400 0080 0400 0000 0400 0080
000002f0: 0400 0000 0400 0000 0400 0000 0400 0080
00000300: 0400 0000 0000 0000 0400 0080 0400 0000
00000310: 0000 0000 0000 0000 0400 0000 0400 0000
00000320: 0000 0000 0400 0000 0400 0080 0400 0080
00000330: 0400 0000 0400 0000 0400 0080 0400 0080
00000340: 0400 0000 0400 0080 0400 0080 0000 0000
00000350: 0400 0080 0400 0080 0400 0080 0400 0080
00000360: 0400 0080 0400 0080 0400 0000 0400 0080
00000370: 0400 0080 0400 0000 0400 0080 0400 0000
00000380: 0400 0080 0400 0080 0400 0080 0400 0080
00000390: 0400 0000 0400 0080 0400 0080 0400 0080
000003a0: 0400 0000 0000 0000 0400 0080 0400 0080
000003b0: 0400 0080 0400 0000 0400 0080 0400 0080
000003c0: 0400 0000 0400 0080 0000 0000 0000 0000
000003d0: 0400 0080 0400 0000 0000 0000 0000 0000
000003e0: 0400 0080 0400 0080 0000 0000 0400 0000
000003f0: b496 b933 0400 0080 c52b 0635 0400 0000
