Checkpoints/ANN_Simple_128_v3.pth (torch, 23725 bytes, 15 tensors)

linear.0.weight f4 [30, 11]
0	0x84f0ae45	-5.658377e-36
1	0x834b61b0	-5.976848e-37
2	0x840cdc4e	-1.655808e-36
3	0x850e75ae	-6.698422e-36
4	0x85087bc6	-6.417423e-36
5	0x8502ce2e	-6.15044e-36
6	0x84f685bd	-5.795714e-36
7	0x04f0adec	5.658345e-36
8	0x03ce0ac8	1.2110067e-36
9	0x84f40675	-5.7370054e-36
10	0x84f03d1a	-5.647984e-36
11	0xbda6e682	-0.081494346
12	0xbec73726	-0.38909262
13	0xbef8701e	-0.4852304
14	0xbdb1ef0a	-0.08688171
15	0x3db6a563	0.08918264
16	0x3eb18f10	0.3467946
17	0x3e097ae7	0.1342579
18	0xbb8d9f43	-0.004321964
19	0x3de75b5a	0.11296721
20	0x3e6114a5	0.21980532
21	0x3e761bbe	0.2403402
22	0xbdaaaccc	-0.0833374
23	0xbe9cdaed	-0.30635777
24	0x3f0f2f08	0.5593114
25	0xbe809078	-0.2511022
26	0x3dc22dc8	0.09481388
27	0x3e344976	0.17606148
28	0xbd0147b8	-0.031562537
29	0x3e6f10f8	0.23346317
30	0x3e2cedc0	0.1688757
31	0x3d890e14	0.06692138
32	0x3da638bc	0.0811629
33	0x3dc27be5	0.09496287
34	0xbe9047cb	-0.28179774
35	0xbf1071dc	-0.56423736
36	0xbe378de8	-0.17925227
37	0x3d3cf2ba	0.04612992
38	0xbe2c2856	-0.16812262
39	0x3e72e680	0.23720741
40	0x3def094b	0.11671694
41	0x3e62dd4a	0.22154728
42	0x3e8f466d	0.27983418
43	0x3e5fc847	0.21853743
44	0x3eb7f799	0.3593109
45	0x3e21d402	0.15803531
46	0xbed61384	-0.41811764
47	0x3df5e670	0.12006843
48	0xbddd1e7e	-0.107968315
49	0x3e608407	0.21925364
50	0x3e5d0a86	0.21586046
51	0x3e046573	0.12929325
52	0xbdf0f204	-0.11764911
53	0xbd1e9639	-0.038717482
54	0x3e328095	0.17431863
55	0x3d1924f2	0.03738875
56	0xbd27bee6	-0.04095354
57	0x3f3ba8a1	0.7330418
58	0x3d9b5268	0.07584077
59	0x3dae9a9a	0.08525582
60	0x3ddeed51	0.10885108
61	0xbd9218cb	-0.07133635
62	0x3dcf4903	0.10121348
63	0xbd811010	-0.06301892
64	0x3dd98b83	0.10622313
65	0x3e921113	0.28528652
66	0x3e9bc77b	0.3042563
67	0x3d9de72e	0.0771011
68	0xbe048de5	-0.12944753
69	0x3cc19c9c	0.023634247
70	0x3e454e8a	0.19268242
71	0xbdd813fd	-0.105506875
72	0x3d2a9f08	0.04165557
73	0xbdbd89b2	-0.09254779
74	0xbd8e8159	-0.06958265
75	0x3d3d1c0d	0.04616933
76	0x3d9e6e6a	0.077359036
77	0xbedd0cfb	-0.43173966
78	0xbe8f5dab	-0.2800115
79	0x3e56f307	0.20991145
80	0xbe5f4230	-0.21802592
81	0x3e5a5397	0.2132095
82	0x3ce229f4	0.027607895
83	0x3e792980	0.24332237
84	0xbccf52b9	-0.025308
85	0xbc84fddd	-0.016234333
86	0x3e52f919	0.20602836
87	0x3e25c72a	0.16189256
88	0xbc635185	-0.013874416
89	0xbdf879a0	-0.12132573
90	0x3cb5d0fc	0.022194378
91	0xbcc7ca93	-0.024388587
92	0x3ea894e1	0.32926086
93	0x3e3234a4	0.17402893
94	0x3e04aa92	0.12955692
95	0x3ebddab5	0.37080923
96	0x84f58490	-5.7720963e-36
97	0x3e6a64e7	0.22890054
98	0xbd99710d	-0.07492266
99	0xbdedba30	-0.11607778
100	0xbe808ef9	-0.2510908
101	0xbf123cc2	-0.5712396
102	0x3d9c3376	0.07627003
103	0x3e120571	0.14259888
104	0x3e4c9b52	0.19981125
105	0x3e6df22f	0.23236917
106	0xbd020ba0	-0.031749368
107	0x3de850b8	0.11343521
108	0xbb65a9a1	-0.0035043734
109	0x3db0829c	0.08618662
110	0x3ebf347e	0.37344736
111	0xbba32530	-0.0049787983
112	0x3f2c9b39	0.6742435
113	0xbd846da5	-0.064662255
114	0xbb602e73	-0.0034207373
115	0xbde6fb11	-0.11278356
116	0x3d5edfc1	0.054412607
117	0xbecc8ec7	-0.3995268
118	0xbddd23ff	-0.10797881
119	0x3c6e473d	0.014543352
120	0x3c3f0970	0.011659965
121	0xbe2ffdb4	-0.17186624
122	0x3e095ce3	0.1341434
123	0xbed61a46	-0.4181692
124	0x3c1f4ca2	0.0097228605
125	0xbc9750ac	-0.018471085
126	0x3daa8a50	0.08327162
127	0xb94615d6	-0.00018890886
128	0xb991f086	-0.0002783576
129	0x3e0494a4	0.12947327
130	0x04f4082c	5.737163e-36
131	0x04f3ed5b	5.7347002e-36
132	0xbe8597a7	-0.26092264
133	0xbebf5dd5	-0.37376276
134	0x3db811a1	0.089877374
135	0x3d6afa3a	0.05736754
136	0xbdbbe1e7	-0.09173947
137	0x3d9926db	0.07478114
138	0x3e1e90c4	0.15484911
139	0xbe1ce860	-0.15323019
140	0x3d722e5b	0.05912624
141	0x3e3d39a5	0.18479021
142	0x3e2a172e	0.16610405
143	0xbec45214	-0.3834387
144	0xbefe6d6d	-0.4969286
145	0xbf21b7bc	-0.6317098
146	0x3d6de36c	0.058078215
147	0xbd89f684	-0.06736472
148	0xbc2d7839	-0.010587745
149	0x3ebd4f89	0.36974743
150	0xbcd4c4b4	-0.025972702
151	0x3e87b5b9	0.2650583
152	0x3e7b48e2	0.24539521
153	0x3e756414	0.23963958
154	0x8501d041	-6.103801e-36
155	0x84f25e9d	-5.6980815e-36
156	0x84f31857	-5.7151378e-36
157	0x043e32f2	2.2357786e-36
158	0x850d771d	-6.651666e-36
159	0x04942a7a	3.483364e-36
160	0x83f6a4f2	-1.449645e-36
161	0x83f84524	-1.4592004e-36
162	0x84f3894c	-5.7255113e-36
163	0x04f571b3	5.770364e-36
164	0x04f18f98	5.6790698e-36
165	0x3dce2027	0.10064726
166	0x3d8d4104	0.06897166
167	0x3ec4de43	0.38450822
168	0xbdc1dafe	-0.094655976
169	0x3c9c713c	0.019096963
170	0xbe106c0c	-0.14103717
171	0x3daaa769	0.08332712
172	0x3e9fd96d	0.3122057
173	0xbe890443	-0.26761064
174	0x3d9ec1b1	0.077517875
175	0xbeac907c	-0.33703983
176	0xbeaf60e4	-0.3425361
177	0xbc25c0a9	-0.010116735
178	0x3e6e424a	0.23267475
179	0x3d8fbc78	0.070183694
180	0x3d956850	0.07295287
181	0xbdc41737	-0.095747404
182	0x3bf9ea9d	0.007626845
183	0x3e4ab4c7	0.19795524
184	0xbd933e43	-0.0718961
185	0x3e4b439d	0.19850011
186	0x3dc75171	0.097323306
187	0x3e888c80	0.26669693
188	0x3ee6e749	0.45098332
189	0x3ec9f936	0.39447945
190	0xbb88f129	-0.004179139
191	0xbe8e06db	-0.27739605
192	0x3e2f39b1	0.17111851
193	0x3e32d1bf	0.17462824
194	0xbdd0ad41	-0.101892956
195	0xbc0a2753	-0.008432227
196	0xbe42d845	-0.19027813
197	0xbe5c19ce	-0.21494219
198	0x3d43cd94	0.047803476
199	0x3d54832a	0.0518829
200	0xbdb533d2	-0.088477746
201	0x3e2430d7	0.16034256
202	0x3e0d6197	0.13806759
203	0x3e42dc94	0.19029456
204	0x3eac8b31	0.33699945
205	0x3c9b2c33	0.018941974
206	0x3ea67796	0.32513112
207	0x3defaae2	0.11702515
208	0x3cb440c1	0.022003533
209	0xbee1d5fc	-0.4410857
210	0x3db7a706	0.08967404
211	0x3d99e397	0.075141124
212	0xbd9f9cd5	-0.07793585
213	0x3da43245	0.08017401
214	0x3d08ef68	0.03343144
215	0x3de98c13	0.1140367
216	0x3b8d7eaa	0.004318078
217	0xbd84b2fc	-0.06479451
218	0xbd949d1f	-0.07256531
219	0xbd9957de	-0.074874625
220	0xbe9eb403	-0.30996713
221	0x3e949adc	0.29024398
222	0xbf311e5b	-0.69186944
223	0x3bf5cdfa	0.007501361
224	0xbbe57116	-0.0070020063
225	0xbdc55015	-0.09634415
226	0x3cea4e83	0.02860189
227	0xbe06d474	-0.13166982
228	0x3dc8d11f	0.09805512
229	0x3dcf60c8	0.101258814
230	0x3dc1812c	0.09448466
231	0x84a9222b	-3.9763087e-36
232	0x850817b0	-6.39904e-36
233	0x84f124c9	-5.669261e-36
234	0x8512b5e7	-6.898297e-36
235	0x04199a85	1.8056015e-36
236	0x0432f867	2.103786e-36
237	0x84ea3199	-5.5058684e-36
238	0x84f4abc1	-5.7521855e-36
239	0x84f33237	-5.717514e-36
240	0x84f2f6ef	-5.71207e-36
241	0x850b2102	-6.541811e-36
242	0x3e103b72	0.14085177
243	0x3f2e3003	0.6804201
244	0x3f0375ab	0.5135142
245	0x3e5b3b34	0.21409303
246	0x3cd98dba	0.026556838
247	0x3df7a58c	0.120921224
248	0xbe0d06b4	-0.13772088
249	0xbc56da95	-0.013113637
250	0x3e18603b	0.14880459
251	0x3d927fd0	0.071532845
252	0x3cec0ad3	0.028813755
253	0x3e9895af	0.298017
254	0xbd9423e1	-0.07233406
255	0x3ed18edc	0.40929306

linear.0.bias f4 [30]
0	0x84f0655d	-5.6516816e-36
1	0x3d8d1bb9	0.06890053
2	0x3e5b6b7d	0.21427722
3	0x3e5e8f03	0.21734242
4	0xbdc6d269	-0.09708101
5	0xbc6a5fb3	-0.014305043
6	0xbd2bb335	-0.041918952
7	0x3d9cff24	0.07665852
8	0xbe419b7d	-0.1890697
9	0x3e6e6f02	0.23284534
10	0xbd7ae0ab	-0.061249416
11	0xbd3698bc	-0.044579253
12	0x3e2dd5f9	0.16976155
13	0x3e5c5455	0.21516545
14	0x84f6d482	-5.802948e-36
15	0xbcacc7e9	-0.021091418
16	0x3e89b711	0.2689748
17	0x3e648906	0.22317895
18	0x3d46478c	0.048408076
19	0x3e6fcb7d	0.23417468
20	0x3d9520c6	0.07281642
21	0x84f4b4f9	-5.753032e-36
22	0xbe791c3d	-0.24327178
23	0x3e4f0ba6	0.20219287
24	0x3dc36396	0.09540479
25	0xbde3d20d	-0.111240484
26	0x3e8935aa	0.26798755
27	0x3e844507	0.25833914
28	0x3d48642a	0.04892365
29	0xbc42756b	-0.011868815

linear.2.weight f4 [30, 30]
0	0x0501746d	6.086935e-36
1	0x3e61fcf5	0.22069152
2	0x3db7f629	0.08982498
3	0xbdd09a0a	-0.101856306
4	0x3e0eb704	0.13937002
5	0x3d343623	0.04399694
6	0xbe31b96f	-0.17355894
7	0x3e21d6a1	0.1580453
8	0x3c8f8d1d	0.017523343
9	0x3d9ac30e	0.07556735
10	0x3e0f07f0	0.13967872
11	0xbe2170f9	-0.15765752
12	0x3b9c2df8	0.004766222
13	0x3e34b988	0.176489
14	0x84f4ed8f	-5.7582287e-36
15	0x3d9e0ba5	0.07717065
16	0xbb6f0acd	-0.0036474944
17	0xbdfe38ab	-0.12413152
18	0x3d86d137	0.06582873
19	0x3b8ad591	0.004236885
20	0xbf095139	-0.5363956
21	0x84be31eb	-4.4714628e-36
22	0x3c4c6dae	0.012477322
23	0x3db2f376	0.08737843
24	0x3ce26a51	0.027638586
25	0x3e13a6c3	0.14419083
26	0x3d83d0f4	0.06436339
27	0x3e5466a7	0.20742284
28	0xbd7bc620	-0.061468244
29	0xbf0a10bf	-0.539318
30	0x04f54802	5.7665352e-36
31	0x3e0499d5	0.12949307
32	0x3df47c90	0.11937821
33	0x3e15b38c	0.14619273
34	0x3cb46278	0.02201961
35	0xbd44bb2c	-0.048030064
36	0xbde3f349	-0.11130387
37	0x3e5dff3a	0.21679392
38	0x3e200cbb	0.15629856
39	0x3e956582	0.29179007
40	0x3d034ba9	0.032054577
41	0xbe347ba3	-0.17625289
42	0x3e27057f	0.1631069
43	0x3e9736f6	0.2953412
44	0x04f47501	5.7471575e-36
45	0x3e22c70b	0.15896241
46	0xbd03f727	-0.032218125
47	0xbc6ea9c4	-0.0145668425
48	0xbd3c93db	-0.046039443
49	0x3e65b88d	0.22433682
50	0xbf0f3ecb	-0.5595519
51	0x84be936a	-4.4804164e-36
52	0xbe0d090d	-0.13772984
53	0xbe2312ac	-0.15925092
54	0xbe40ad48	-0.18816102
55	0x3e341239	0.17585076
56	0xbd96bbef	-0.07360064
57	0x3e39a29c	0.18128437
58	0x3ebcff6f	0.3691363
59	0xbeab7446	-0.33487147
60	0x84f5c6d1	-5.7781807e-36
61	0x84f552a1	-5.7675106e-36
62	0x84f3a8a8	-5.728391e-36
63	0x84f2266c	-5.692921e-36
64	0x84f4992c	-5.750479e-36
65	0x84f25d91	-5.6979854e-36
66	0x84f0da6e	-5.6624325e-36
67	0x04f27690	5.700281e-36
68	0x84f396ec	-5.7267625e-36
69	0x84f5af33	-5.776012e-36
70	0x84f0a7ff	-5.657801e-36
71	0x04f3d4c4	5.732442e-36
72	0x84f5e120	-5.7805968e-36
73	0x84f2952b	-5.7030916e-36
74	0x04f07ddc	5.6539312e-36
75	0x84f1519c	-5.6733774e-36
76	0x84f2f847	-5.7121933e-36
77	0x04f29e2f	5.7039195e-36
78	0x84f44534	-5.7427677e-36
79	0x84f10105	-5.6659764e-36
80	0x04f05546	5.650204e-36
81	0x84f34ab3	-5.7197626e-36
82	0x84f4e807	-5.7577208e-36
83	0x84f4b905	-5.7534038e-36
84	0x84f1fdbc	-5.6891846e-36
85	0x04f56587	5.769246e-36
86	0x84f08ab7	-5.655112e-36
87	0x84f00da3	-5.6436252e-36
88	0x84f236df	-5.6944318e-36
89	0x84f3a199	-5.727743e-36
90	0x04af8ef1	4.1273573e-36
91	0xbe8848b7	-0.26617977
92	0x3d13f2bf	0.036120173
93	0xbdc766c0	-0.09736395
94	0xbd82b95e	-0.06383012
95	0x3dcfb920	0.10142732
96	0xbd0bd7fb	-0.034141522
97	0xbebd9eb0	-0.3703513
98	0xbd585e01	-0.052824024
99	0xbe00d3bc	-0.1258077
100	0x3e0545b2	0.13014868
101	0x3ecb787a	0.39740354
102	0xbded491e	-0.115862116
103	0xbf18af6c	-0.5964267
104	0x84f0ab45	-5.6581015e-36
105	0x3b013de8	0.0019720737
106	0x3dc82f54	0.09774652
107	0x3d0f9014	0.035049513
108	0x3c50985b	0.012731637
109	0xbeab33ef	-0.3343806
110	0x3f2a3ec2	0.6650201
111	0x84f2cc10	-5.708133e-36
112	0x3d43afba	0.047775008
113	0xbc99e35b	-0.01878517
114	0x3daf0c6f	0.085472934
115	0xbeafbb32	-0.34322506
116	0x3d90b68f	0.0706607
117	0xbd8efb81	-0.06981564
118	0xbe7c9317	-0.24665485
119	0x3db5e0f5	0.08880798
120	0x84433b60	-2.2949404e-36
121	0x3ec97985	0.39350525
122	0x3df1c820	0.11805749
123	0x3e666f8b	0.22503488
124	0x3da242d7	0.07922905
125	0x3dcf1473	0.10111322
126	0xbe5e7381	-0.21723749
127	0x3dcd4e24	0.1002467
128	0x3e3c5be7	0.18394433
129	0x3dd4aea4	0.103848726
130	0xbe353483	-0.17695813
131	0xbe827209	-0.25477627
132	0x3e6da162	0.23206094
133	0x3eae02b8	0.3398645
134	0x04f4db68	5.7565617e-36
135	0x3cb01b85	0.021497497
136	0x3e045701	0.12923814
137	0xbdc2a8dc	-0.095048636
138	0x3d494762	0.04914034
139	0x3e75fd20	0.24022341
140	0xbf2f41fe	-0.6846007
141	0x04eb2333	5.528056e-36
142	0xbe50089f	-0.20315789
143	0xbe15d6f2	-0.14632776
144	0xbe026b83	-0.12736325
145	0x3e737a51	0.23777129
146	0xbe22b397	-0.1588882
147	0x3edfaa9f	0.4368486
148	0x3f14481e	0.5792254
149	0xbee2c288	-0.4428904
150	0x0492c163	3.4502033e-36
151	0x3cfea738	0.031085595
152	0x3cc029ae	0.023457374
153	0x3d865924	0.06559971
154	0x3de67e4f	0.1125456
155	0x3c5c716d	0.013454777
156	0xbd208c04	-0.03919603
157	0xbdfa1da9	-0.122126885
158	0xbc4f22e4	-0.012642596
159	0x3d155948	0.0364621
160	0xbc9ccd29	-0.019140797
161	0x3e0517a7	0.12997304
162	0xbd28f5cc	-0.041250035
163	0xbe217d4f	-0.15770458
164	0x84f1a9cf	-5.6814772e-36
165	0xbd0c1ec5	-0.03420903
166	0xbcea459c	-0.028597645
167	0x3ba3873b	0.004990486
168	0x3d165cfb	0.036709767
169	0xbd4e93cc	-0.05043392
170	0x3edb40c6	0.42822856
171	0x04f41d5d	5.739109e-36
172	0xbd5a4c7b	-0.053295594
173	0xbd718237	-0.058962073
174	0x3d08904a	0.03334073
175	0x3cbf3488	0.023340479
176	0x3cc1669f	0.023608504
177	0x3b814c75	0.003945882
178	0x3ce310b3	0.027717924
179	0x3eaba5fe	0.3352508
180	0x8495464d	-3.5094293e-36
181	0x3e4bd4b7	0.19905363
182	0xbde49eb8	-0.11163086
183	0xbcdf2bfd	-0.027242655
184	0x3d9a5fd0	0.07537806
185	0xbd1bd3cb	-0.03804378
186	0x3df9a7d7	0.12190216
187	0xbd8ddca7	-0.06926852
188	0x397bc4cd	0.0002401054
189	0xbcc75725	-0.024333546
190	0x3dd89287	0.10574823
191	0x3cf2c409	0.029634492
192	0xbe8049dd	-0.25056353
193	0x3ebcfd6b	0.36912093
194	0x04f3bee0	5.7304316e-36
195	0x3e02f8cf	0.12790225
196	0xbe2ea5d0	-0.1705544
197	0x3d32f78d	0.043693114
198	0x3d176736	0.036963664
199	0xbe30fbc3	-0.1728354
200	0xbf545c25	-0.829531
201	0x04f3e864	5.7342443e-36
202	0x3de071e9	0.10959227
203	0x3d48ea9f	0.049051877
204	0x3dabf70e	0.08396731
205	0x3de0eb3d	0.10982368
206	0xbc902aba	-0.017598499
207	0xbd8b96bf	-0.06815862
208	0xbf1edbec	-0.62054324
209	0xbe83e537	-0.25760815
210	0x84f44d11	-5.74349e-36
211	0xbdf26404	-0.11835483
212	0xbe3f3a3d	-0.1867456
213	0x3d9567ce	0.0729519
214	0xbe000a16	-0.12503847
215	0x3d952ba8	0.072837174
216	0x3cb80d68	0.02246733
217	0xbeca9768	-0.3956864
218	0xbdfca554	-0.12336221
219	0x3de1a737	0.11018222
220	0x3df0f6b2	0.117658034
221	0x3e657b86	0.22410402
222	0xbe78236a	-0.2423226
223	0xbf073060	-0.5280819
224	0x04f0b72b	5.6591942e-36
225	0x3b11f2a2	0.0022269865
226	0xbe16a7fd	-0.1471252
227	0x3dceec10	0.10103619
228	0x3e272fb2	0.16326788
229	0xbe8c3ea6	-0.27391547
230	0x3efb7f9e	0.49120802
231	0x04def66f	5.2418263e-36
232	0xbd30ffd9	-0.043212745
233	0xbe3989c7	-0.18118964
234	0xbb8c1fd1	-0.0042762537
235	0xbe6712ac	-0.22565717
236	0x3ccfd98d	0.025372291
237	0xbe926f6a	-0.28600627
238	0xbe0a7bc6	-0.13523778
239	0x3f1e12f9	0.617477
240	0x84a3dd4b	-3.852434e-36
241	0xbe4d0bd4	-0.20024043
242	0x3d0cb93f	0.034356352
243	0xbdb95e62	-0.09051205
244	0xbdb30e95	-0.08743016
245	0x3c4309a1	0.011904151
246	0xbe10a6ab	-0.14126079
247	0xbf1e8e77	-0.61936134
248	0xbe1a89dc	-0.15091652
249	0x3dc132d6	0.09433524
250	0xbe898360	-0.26858044
251	0x3e995231	0.2994552
252	0xbd4608a3	-0.04834808
253	0xbe89ddc3	-0.26927003
254	0x84f3bcac	-5.7302293e-36
255	0xbe02986b	-0.12753455

linear.2.bias f4 [30]
0	0x3e53070d	0.20608158
1	0x3d94ef79	0.07272238
2	0x84f24068	-5.6953074e-36
3	0x3cce7dbd	0.025206441
4	0x3d899ee2	0.067197576
5	0x3ca2123b	0.019784084
6	0xbd2edb6d	-0.04268973
7	0x3de5f51a	0.1122839
8	0x3da7736d	0.081763126
9	0x3e18d773	0.14925937
10	0xbe09559c	-0.13411564
11	0xbd7ec291	-0.06219727
12	0x3e10a0a5	0.14123781
13	0x3d817169	0.063204594
14	0x3e3d35db	0.18477575
15	0x3d6aaf15	0.057295877
16	0x3cc33d95	0.023833076
17	0x3cbf95b4	0.023386814
18	0x3d915a89	0.07097346
19	0x3e4307e6	0.19045982
20	0x3e17c832	0.14822462
21	0x3dff3fc0	0.12463331
22	0x3c53aa83	0.012919071
23	0x3d99e835	0.07514993
24	0x3d090e26	0.03346076
25	0x3e06b4a2	0.13154843
26	0x3dad6b14	0.08467689
27	0x3e24d608	0.16097271
28	0x3dffe7a6	0.12495355
29	0x3d15dc81	0.036587242

linear.4.weight f4 [1, 30]
0	0x3e9ffd2d	0.31247845
1	0x3ed77f6b	0.420894
2	0x04f5a525	5.7750884e-36
3	0xbf33228c	-0.6997459
4	0x3f15cb3d	0.5851324
5	0xbea98e97	-0.331166
6	0x3f7a2098	0.97705984
7	0xbf016da3	-0.5055792
8	0xbf292e67	-0.6608643
9	0xbf357847	-0.70886654
10	0xbf2fcea8	-0.6867471
11	0xbf4b518f	-0.79421324
12	0xbf8a29df	-1.0794028
13	0xbf3fd1b7	-0.74929374
14	0x3ef6ffb8	0.48241973
15	0x3e969d55	0.2941691
16	0xbf2ec795	-0.6827329
17	0x3f0e6080	0.55616
18	0x3e900d18	0.2813499
19	0xbe9a0fe0	-0.30090237
20	0x3e2b3a2a	0.16721407
21	0xbea0eb5a	-0.3142956
22	0x3e4f97e6	0.20272788
23	0x3e5c6180	0.21521568
24	0xbf7f5910	-0.99745274
25	0x3e1c0c27	0.15239011
26	0xbf056b4f	-0.52116865
27	0xbf113bc1	-0.567318
28	0xbe47fcd7	-0.19530044
29	0x3eb9388e	0.3617596

exp_avg f4 [30, 11]
0	0x80009dc0	-5.659e-41
1	0x800010a5	-5.971e-42
2	0x80002e24	-1.6552e-41
3	0x8000bab6	-6.6979e-41
4	0x8000b2e0	-6.4168e-41
5	0x8000ab77	-6.151e-41
6	0x8000a18c	-5.7952e-41
7	0x00009dbf	5.6589e-41
8	0x000021c6	1.2116e-41
9	0x80009ff1	-5.7376e-41
10	0x80009d75	-5.6485e-41
11	0xb9b53010	-0.0003455882
12	0xb9ba36cd	-0.00035517514
13	0xb90cfbf9	-0.00013445308
14	0xb9f450d7	-0.00046599537
15	0xb9fdea3c	-0.0004843044
16	0xb95c0a0b	-0.00020984576
17	0xb929b1a9	-0.0001618328
18	0x3835771a	4.3264685e-05
19	0x3a9faac0	0.0012181625
20	0xb8ef74d0	-0.00011418166
21	0xbb0d117c	-0.0021525314
22	0xb8a872a6	-8.032219e-05
23	0xb8c00b43	-9.157371e-05
24	0xb857fff8	-5.1498384e-05
25	0xb93303b8	-0.00017072156
26	0xb9342006	-0.00017178067
27	0xb8606608	-5.3500786e-05
28	0xb7bde7c8	-2.2638487e-05
29	0x379f7318	1.9007872e-05
30	0x3922e6b6	0.0001553547
31	0xb8cfc29a	-9.9067765e-05
32	0xb9ac2e3a	-0.00032840838
33	0xb996cd84	-0.0002876335
34	0xb90c9967	-0.00013408587
35	0xb81dae77	-3.75942e-05
36	0xb953bd51	-0.00020193054
37	0xb9513e05	-0.00019954897
38	0xb8c19672	-9.23098e-05
39	0xb8977cb4	-7.223469e-05
40	0xb73d2eb8	-1.1276155e-05
41	0x3956913e	0.00020462737
42	0xb89b6742	-7.410209e-05
43	0xba1e8570	-0.00060471054
44	0xb9158f32	-0.00014263092
45	0xb917244e	-0.00014414007
46	0xb54c4880	-7.6101423e-07
47	0xb97736b1	-0.0002357613
48	0xb97e8c72	-0.00024275648
49	0xb8b472f2	-8.604479e-05
50	0x38b9743a	8.843136e-05
51	0x39173142	0.00014418832
52	0x37d218aa	2.5045436e-05
53	0xb8d6354e	-0.00010214244
54	0xba0824e7	-0.0005193487
55	0x389f5f76	7.599492e-05
56	0x383c5fc2	4.4911874e-05
57	0xb7cb8536	-2.4261517e-05
58	0xb7e634d4	-2.7442737e-05
59	0xb7e23198	-2.6964393e-05
60	0x37b26b34	2.1269174e-05
61	0x373c3790	1.121861e-05
62	0xb5ff3280	-1.9013678e-06
63	0xb829bde0	-4.0469575e-05
64	0xb8b03952	-8.403011e-05
65	0x3983b980	0.00025124475
66	0x38d5de76	0.00010198068
67	0x38724cb9	5.776875e-05
68	0x386653f0	5.4914446e-05
69	0x3913bab8	0.0001408857
70	0x3919787a	0.00014636098
71	0x382ff872	4.1954634e-05
72	0x3892c9de	6.999423e-05
73	0x384c3d16	4.869428e-05
74	0xb83d33b7	-4.5109275e-05
75	0x37cca398	2.4394874e-05
76	0x394deab2	0.00019637754
77	0xb9e75fda	-0.00044131168
78	0xb95517d7	-0.00020322144
79	0xb97170fa	-0.00023025638
80	0xb9796a1f	-0.00023786024
81	0xb97d6240	-0.00024164561
82	0xb9089eb5	-0.00013029094
83	0xb91a4108	-0.0001471081
84	0xb8ca1d76	-9.637598e-05
85	0xb42f57f5	-1.6330144e-07
86	0xba80f294	-0.0009837919
87	0x39d1a554	0.00039986765
88	0xb8c2ba96	-9.285395e-05
89	0xb894df46	-7.098778e-05
90	0xb771daf8	-1.4415702e-05
91	0xb91e6ff1	-0.00015109756
92	0xb91c80bd	-0.00014925278
93	0xb830f29a	-4.218761e-05
94	0xb73baece	-1.11867685e-05
95	0x37464a28	1.18189855e-05
96	0x8000a0eb	-5.7726e-41
97	0xb80bdcf6	-3.334597e-05
98	0xb948f2c1	-0.00019163919
99	0xb932a01b	-0.00017035047
100	0xb8943012	-7.066144e-05
101	0xb7945452	-1.768224e-05
102	0xb8ca02d2	-9.632636e-05
103	0xb8c03775	-9.165603e-05
104	0xb869214a	-5.558253e-05
105	0xb859312a	-5.178262e-05
106	0xb61b5e78	-2.3151788e-06
107	0x398df7e1	0.000270783
108	0xb91294e8	-0.00013979117
109	0xb9e2cb3f	-0.0004325751
110	0x391b2d49	0.00014798822
111	0x38bf75a8	9.129505e-05
112	0x366ad182	3.4990667e-06
113	0x37481028	1.1924691e-05
114	0x379082c4	1.722703e-05
115	0x3837d47f	4.3828502e-05
116	0x384090b6	4.591114e-05
117	0x37b5727a	2.1630189e-05
118	0x379f575b	1.8994955e-05
119	0xb8815ac8	-6.168109e-05
120	0x39925435	0.0002791003
121	0xb9a200d6	-0.0003089967
122	0xb962da49	-0.00021634357
123	0xb8cd5a1b	-9.791945e-05
124	0xb9a858a3	-0.00032109497
125	0xb9ade2d6	-0.00033166137
126	0xb8da51b0	-0.000104102655
127	0xb101d378	-1.8892177e-09
128	0xb13f4c8a	-2.7837666e-09
129	0xba2e98f8	-0.00066603674
130	0x00009ff2	5.7378e-41
131	0x00009fe0	5.7352e-41
132	0xba328e34	-0.0006811351
133	0xb9f1997f	-0.00046081466
134	0xb9624556	-0.00021578869
135	0xba0979d1	-0.00052442873
136	0xba0e6c3e	-0.00054329995
137	0xb995dd34	-0.00028584304
138	0xb8fe0876	-0.0001211324
139	0x37f74997	2.9478962e-05
140	0x39355dc8	0.00017296441
141	0xb992c27d	-0.00027992195
142	0xbab8712b	-0.0014071813
143	0xbabdcf41	-0.0014481322
144	0xba80495c	-0.0009787488
145	0xb9ff8264	-0.0004873454
146	0xbab5e4b4	-0.0013877363
147	0xbaba9a64	-0.0014236686
148	0xba27e9df	-0.0006405394
149	0xba007b38	-0.00049011735
150	0x38c46e9c	9.366611e-05
151	0x3b540e38	0.0032357108
152	0xba463339	-0.00075607334
153	0xbbbaea7a	-0.0057042213
154	0x8000aa2a	-6.1043e-41
155	0x80009edb	-5.6987e-41
156	0x80009f55	-5.7158e-41
157	0x00003e57	2.2363e-41
158	0x8000b968	-6.6511e-41
159	0x0000611e	3.4839e-41
160	0x80002865	-1.4491e-41
161	0x800028a9	-1.4586e-41
162	0x80009f9f	-5.7261e-41
163	0x0000a0df	5.771e-41
164	0x00009e53	5.6796e-41
165	0x390304fc	0.0001249499
166	0xb7711cc0	-1.4371413e-05
167	0x37dcf18a	2.633852e-05
168	0xb77a3c78	-1.491524e-05
169	0xb78a0334	-1.6452374e-05
170	0x35f93720	1.8567989e-06
171	0x3902ee1e	0.00012486472
172	0x390b965a	0.00013312083
173	0xb7c1e6d9	-2.311489e-05
174	0xb8945251	-7.0725226e-05
175	0x36271450	2.4896763e-06
176	0x37cb6d88	2.425049e-05
177	0x38c8dbe0	9.577698e-05
178	0xb7e95e44	-2.781966e-05
179	0x38fbd1dc	0.00012007702
180	0x39026013	0.00012433557
181	0x38324b63	4.2508716e-05
182	0xb8cc1966	-9.732209e-05
183	0xb9210c57	-0.00015358753
184	0xb9958f12	-0.0002852609
185	0x38efc8ef	0.00011433835
186	0x3a0a8957	0.00052847475
187	0x38e96092	0.000111282934
188	0x38eaaf26	0.000111906134
189	0x3759fae0	1.2992619e-05
190	0x391b8375	0.00014830923
191	0x391f372e	0.00015183978
192	0x38831e68	6.2522304e-05
193	0x37f5d03e	2.9303246e-05
194	0xb827710e	-3.9921193e-05
195	0xb9d68ae3	-0.0004092074
196	0x37d70840	2.5633839e-05
197	0x3a37dbba	0.0007013638
198	0xb8a25427	-7.7404366e-05
199	0x3797d134	1.809802e-05
200	0xb80886e5	-3.2550557e-05
201	0xb82072b2	-3.825379e-05
202	0xb81aa8ce	-3.6873673e-05
203	0xb56cd3a0	-8.8224806e-07
204	0xb82ecedb	-4.1677482e-05
205	0xb88e2095	-6.7771565e-05
206	0xb9724632	-0.00023105068
207	0x37c9afe0	2.4042965e-05
208	0x397089c7	0.0002293951
209	0x398acc4f	0.00026473633
210	0x388098f6	6.132007e-05
211	0x39577000	0.00020545721
212	0x38f88325	0.00011849989
213	0x38ef02e7	0.00011396949
214	0x383eaac5	4.545857e-05
215	0x393e8a6a	0.00018171375
216	0x395b2730	0.00020900066
217	0x39c0ddeb	0.00036786436
218	0xb8b72708	-8.73339e-05
219	0xb96d5c5b	-0.00022636486
220	0x3a8c8805	0.0010721689
221	0x3a508733	0.00079547166
222	0x39a45562	0.00031344133
223	0x3a9dc8b0	0.0012037959
224	0x3a9a3af4	0.0011766837
225	0x3999b8e5	0.0002932019
226	0x39a5070e	0.0003147651
227	0xb5b0b9d0	-1.31671e-06
228	0xbb008065	-0.001960778
229	0xb8dee043	-0.00010627557
230	0x3b69ccbd	0.0035675012
231	0x80006ed4	-3.9758e-41
232	0x8000b265	-6.3996e-41
233	0x80009e05	-5.6687e-41
234	0x8000c048	-6.8978e-41
235	0x00003259	1.8061e-41
236	0x00003aa9	2.1043e-41
237	0x80009977	-5.5053e-41
238	0x8000a05d	-5.7528e-41
239	0x80009f66	-5.7181e-41
240	0x80009f3f	-5.7127e-41
241	0x8000b660	-6.5424e-41
242	0x395d4ec8	0.0002110555
243	0x3813d8e4	3.5249526e-05
244	0x3896226e	7.1589704e-05
245	0x38be2094	9.065974e-05
246	0x38b0f086	8.437135e-05
247	0x382627f3	3.961469e-05
248	0x38f1bc5f	0.00011526862
249	0x38c18cb9	9.229169e-05
250	0xb91c90af	-0.00014931218
251	0x386186de	5.3769785e-05
252	0x39601118	0.00021368673
253	0x38d002ec	9.918757e-05
254	0xb892e60e	-7.0046735e-05
255	0xb7425e00	-1.1585187e-05

exp_avg_sq f4 [30, 11]
0	0x000001f4	7e-43
1	0x000001f4	7e-43
2	0x000001f4	7e-43
3	0x000001f4	7e-43
4	0x000001f4	7e-43
5	0x000001f4	7e-43
6	0x000001f4	7e-43
7	0x000001f4	7e-43
8	0x000001f4	7e-43
9	0x000001f4	7e-43
10	0x000001f4	7e-43
11	0x378c210c	1.670469e-05
12	0x36d2d5d6	6.2833815e-06
13	0x35805d5f	9.563918e-07
14	0x372868af	1.0037954e-05
15	0x372c7198	1.0278447e-05
16	0x360caa97	2.0960922e-06
17	0x351b393e	5.78253e-07
18	0x348b26a7	2.591889e-07
19	0x37ce2778	2.4575493e-05
20	0x36c3be10	5.833579e-06
21	0x3809aee1	3.2826214e-05
22	0x3609b5fe	2.0520524e-06
23	0x3552d16e	7.8535857e-07
24	0x33b403a2	8.382564e-08
25	0x35e22463	1.6848902e-06
26	0x35e5c1ec	1.7118268e-06
27	0x34968352	2.8035225e-07
28	0x34a6a3bf	3.103905e-07
29	0x3482fbc0	2.439756e-07
30	0x35a93960	1.260818e-06
31	0x35897f22	1.0244296e-06
32	0x36b9dd21	5.5391724e-06
33	0x35539eac	7.8834523e-07
34	0x3494ca7e	2.771448e-07
35	0x3343549d	4.547893e-08
36	0x3505fd25	4.9914735e-07
37	0x3508a784	5.0907715e-07
38	0x33d1bea4	9.766998e-08
39	0x33b36293	8.3532676e-08
40	0x3387e26f	6.3276154e-08
41	0x3571d7a4	9.0093295e-07
42	0x348c9cb2	2.6191043e-07
43	0x35e95678	1.7385019e-06
44	0x35a70d32	1.244631e-06
45	0x34ef75c3	4.4602902e-07
46	0x33dbac11	1.0229281e-07
47	0x353bda83	6.9980905e-07
48	0x354052f8	7.164631e-07
49	0x34193142	1.4267155e-07
50	0x33929836	6.826342e-08
51	0x334035f7	4.4752564e-08
52	0x35ecf1e3	1.7653769e-06
53	0x3532d3a0	6.661812e-07
54	0x35e8b702	1.7338609e-06
55	0x35974206	1.1269592e-06
56	0x34d8ebad	4.0404612e-07
57	0x33357830	4.2251656e-08
58	0x357eb3b3	9.488387e-07
59	0x3580c809	9.594961e-07
60	0x342593d4	1.5420602e-07
61	0x347abd53	2.335194e-07
62	0x344f7230	1.9319918e-07
63	0x34c72588	3.7093946e-07
64	0x354abf55	7.552929e-07
65	0x364f6683	3.0905073e-06
66	0x350271aa	4.8594177e-07
67	0x3441e2c0	1.8057017e-07
68	0x3337c799	4.278954e-08
69	0x34d5a54a	3.9794605e-07
70	0x34d8ed65	4.0405862e-07
71	0x338f6a5a	6.678302e-08
72	0x34015c15	1.204756e-07
73	0x33e083ed	1.045481e-07
74	0x33abfd1d	8.008849e-08
75	0x34902cfe	2.6854826e-07
76	0x35c80340	1.4902107e-06
77	0x368546eb	3.971965e-06
78	0x36097a7c	2.0485886e-06
79	0x3498ca86	2.8459561e-07
80	0x368eb7e0	4.2533356e-06
81	0x36903c3f	4.298548e-06
82	0x3523acdf	6.097379e-07
83	0x3486defb	2.5121685e-07
84	0x33da7c0a	1.01739786e-07
85	0x2fcf9631	3.7759798e-10
86	0x36eb508a	7.0129217e-06
87	0x3736bba5	1.0891735e-05
88	0x344ea511	1.9245296e-07
89	0x338d884f	6.5906185e-08
90	0x32226b9a	9.454107e-09
91	0x34add43e	3.2378188e-07
92	0x34af5fc7	3.2665977e-07
93	0x32b77cc9	2.136075e-08
94	0x3318c707	3.5571272e-08
95	0x33025e0a	3.035351e-08
96	0x000001f4	7e-43
97	0x349abcf4	2.8822217e-07
98	0x34ac6822	3.2113263e-07
99	0x3522a3fb	6.0588326e-07
100	0x348118c4	2.4046142e-07
101	0x332e0f73	4.0526583e-08
102	0x34a39466	3.046909e-07
103	0x34a932ad	3.1515575e-07
104	0x33aeb05f	8.134588e-08
105	0x32b30cb7	2.0844125e-08
106	0x324330f2	1.1361623e-08
107	0x35bc99d0	1.4051857e-06
108	0x3466460e	2.1445905e-07
109	0x355ecea6	8.300216e-07
110	0x360836af	2.029741e-06
111	0x355d9af0	8.255438e-07
112	0x33b862eb	8.586161e-08
113	0x35eab320	1.7486491e-06
114	0x35ee8262	1.7770328e-06
115	0x349c18b3	2.9075235e-07
116	0x338debe2	6.608731e-08
117	0x32057b8f	7.769713e-09
118	0x35eb0bbd	1.7512281e-06
119	0x3593ae57	1.1003093e-06
120	0x36bfb953	5.713818e-06
121	0x3780ff33	1.5377625e-05
122	0x36d73d10	6.414608e-06
123	0x35679e17	8.6284257e-07
124	0x3687071c	4.024141e-06
125	0x36938e35	4.3974965e-06
126	0x36182fb1	2.2677525e-06
127	0x2f6841f2	2.1123706e-10
128	0x2f684204	2.112373e-10
129	0x388c56c0	6.691879e-05
130	0x1ad215f4	8.688943e-23
131	0x000001f4	7e-43
132	0x37184a32	9.077181e-06
133	0x3675c586	3.6622819e-06
134	0x351e102b	5.8883114e-07
135	0x36c53e43	5.8783057e-06
136	0x36c8e4c3	5.987096e-06
137	0x35a24db7	1.2092559e-06
138	0x34976b4c	2.820401e-07
139	0x338260b6	6.071188e-08
140	0x373178a3	1.057811e-05
141	0x369d56a9	4.689053e-06
142	0x37ac92e9	2.0572408e-05
143	0x38dd911a	0.000105651285
144	0x382ab4a0	4.069938e-05
145	0x36cc9a9c	6.0976727e-06
146	0x3885a731	6.373076e-05
147	0x38890446	6.533465e-05
148	0x37662d26	1.371958e-05
149	0x36940a00	4.411908e-06
150	0x36246102	2.449437e-06
151	0x39374fe0	0.00017481996
152	0x381bee96	3.717708e-05
153	0x3950b0c3	0.00019902275
154	0x000001f4	7e-43
155	0x000001f4	7e-43
156	0x000001f4	7e-43
157	0x000001f4	7e-43
158	0x000001f4	7e-43
159	0x000001f4	7e-43
160	0x000001f4	7e-43
161	0x000001f4	7e-43
162	0x000001f4	7e-43
163	0x000001f4	7e-43
164	0x000001f4	7e-43
165	0x3543b591	7.2907375e-07
166	0x34102a5f	1.342646e-07
167	0x330f9ec8	3.3439193e-08
168	0x349fcf64	2.9766954e-07
169	0x349a1a80	2.8704017e-07
170	0x336e1c65	5.5439518e-08
171	0x347d81ab	2.3609634e-07
172	0x3467fe55	2.1606077e-07
173	0x324c5193	1.1892911e-08
174	0x35aa886d	1.2705692e-06
175	0x311d8963	2.2924602e-09
176	0x35fb6788	1.8731089e-06
177	0x352daf1d	6.4702346e-07
178	0x3466220b	2.1432804e-07
179	0x356a8fb5	8.7380914e-07
180	0x357039c3	8.949102e-07
181	0x345e31dd	2.0693501e-07
182	0x33fcf2c1	1.1778821e-07
183	0x33acdae2	8.049189e-08
184	0x3629ef1b	2.532214e-06
185	0x355821e8	8.051561e-07
186	0x3637d32c	2.7392043e-06
187	0x35fec04d	1.8980442e-06
188	0x354cbc16	7.6269623e-07
189	0x340de1b1	1.3213754e-07
190	0x35a54d0a	1.2315879e-06
191	0x35a9df04	1.2656387e-06
192	0x348670af	2.5041433e-07
193	0x33ab22a2	7.969108e-08
194	0x333a4253	4.336682e-08
195	0x365415b2	3.160309e-06
196	0x351cc2c5	5.8397956e-07
197	0x367974a1	3.7171778e-06
198	0x3573b24a	9.0784e-07
199	0x34b7043e	3.4089493e-07
200	0x33d1b6fa	9.765604e-08
201	0x34cb8f3f	3.7915922e-07
202	0x34d2b66e	3.9248283e-07
203	0x33e91835	1.0854311e-07
204	0x3365515f	5.3392224e-08
205	0x3325f0e0	3.863613e-08
206	0x35f53edf	1.827222e-06
207	0x34bde4ff	3.537061e-07
208	0x35811073	9.616036e-07
209	0x3690e43c	4.3181044e-06
210	0x3613ba8c	2.2013292e-06
211	0x34c0fcd4	3.5946744e-07
212	0x363fc4da	2.85758e-06
213	0x364845b4	2.9842895e-06
214	0x353f34f0	7.123008e-07
215	0x34a338ca	3.0402435e-07
216	0x34836d8e	2.4480363e-07
217	0x376995b8	1.3922741e-05
218	0x3592a222	1.0925035e-06
219	0x36c45188	5.8507467e-06
220	0x396a7c8b	0.00022362375
221	0x38d7ed87	0.00010296242
222	0x3734e70f	1.0782634e-05
223	0x39286b7f	0.00016061774
224	0x392cd80c	0.00016483682
225	0x3808c89e	3.2611766e-05
226	0x36b04c48	5.254089e-06
227	0x325db754	1.2905577e-08
228	0x39b3edee	0.00034318812
229	0x38ccb8a4	9.76187e-05
230	0x3a0709f0	0.0005151322
231	0x000001f4	7e-43
232	0x000001f4	7e-43
233	0x000001f4	7e-43
234	0x000001f4	7e-43
235	0x000001f4	7e-43
236	0x000001f4	7e-43
237	0x000001f4	7e-43
238	0x000001f4	7e-43
239	0x000001f4	7e-43
240	0x000001f4	7e-43
241	0x000001f4	7e-43
242	0x34fbbf7a	4.689171e-07
243	0x3418bda4	1.4225094e-07
244	0x336511ad	5.3334293e-08
245	0x3434b99c	1.683133e-07
246	0x3437ff76	1.7136139e-07
247	0x333eee33	4.4454463e-08
248	0x32f9352a	2.9011591e-08
249	0x32a3545b	1.9014058e-08
250	0x3500c6fd	4.797328e-07
251	0x346ee456	2.2248545e-07
252	0x350bee81	5.2128604e-07
253	0x36a614b9	4.949598e-06
254	0x35f6f6d8	1.8400269e-06
255	0x34730afb	2.2635133e-07

exp_avg f4 [30]
0	0x80009d90	-5.6523e-41
1	0xba846b88	-0.0010102848
2	0xb9867782	-0.00025647512
3	0xba00e25c	-0.00049165427
4	0xb9ee64e6	-0.00045470073
5	0x38fc813c	0.00012040368
6	0x396b389d	0.00022432437
7	0xba3308b9	-0.0006829608
8	0xb9670196	-0.00022030468
9	0xb99ef8a4	-0.0003032136
10	0x39897de5	0.00026224475
11	0xba2f0dc8	-0.0006677774
12	0xbac2b61e	-0.00148553
13	0xbb4d8575	-0.0031360064
14	0x8000a1c7	-5.8035e-41
15	0x38375368	4.3708278e-05
16	0x395444f8	0.00020243588
17	0x39958e72	0.00028525625
18	0xb8509638	-4.9730967e-05
19	0x398c4ae8	0.0002675869
20	0x3ac46083	0.0014982376
21	0x8000a063	-5.7536e-41
22	0x3957a1c4	0.0002056426
23	0xb87e1950	-6.0581893e-05
24	0x398347b2	0.00025039684
25	0xbb2f6275	-0.0026761566
26	0x39576b96	0.00020544077
27	0xbab20a04	-0.0013583307
28	0xba8b1692	-0.0010611585
29	0xb9f82f68	-0.00047337567

exp_avg_sq f4 [30]
0	0x000001f4	7e-43
1	0x3883a3f5	6.277106e-05
2	0x370c8426	8.3754185e-06
3	0x3644ae7e	2.9307844e-06
4	0x368f35b8	4.267986e-06
5	0x369afc12	4.6189025e-06
6	0x36062a1c	1.9992067e-06
7	0x379864dc	1.8166778e-05
8	0x352b0212	6.3705477e-07
9	0x36233f20	2.4325636e-06
10	0x3711aaa5	8.682405e-06
11	0x388c5694	6.691847e-05
12	0x3817b799	3.6172194e-05
13	0x39d73d39	0.0004105361
14	0x000001f4	7e-43
15	0x35db19fc	1.6324334e-06
16	0x36d023c2	6.203046e-06
17	0x36fb9d39	7.498686e-06
18	0x36595678	3.2385851e-06
19	0x37b10131	2.1100599e-05
20	0x3a7f8272	0.0009746916
21	0x000001f4	7e-43
22	0x35b1e021	1.3252758e-06
23	0x379b87d0	1.8540683e-05
24	0x364d30a8	3.0575702e-06
25	0x38123b11	3.4864122e-05
26	0x3561a222	8.4054966e-07
27	0x38d0ded0	9.959715e-05
28	0x384949df	4.7990932e-05
29	0x38fbd5c8	0.000120084325

exp_avg f4 [30, 30]
0	0x0000a9aa	6.0864e-41
1	0xb85f2082	-5.319762e-05
2	0x37d8f3b8	2.5862697e-05
3	0xb7a4f2c8	-1.9663377e-05
4	0xb843625f	-4.6583238e-05
5	0xb9067d08	-0.00012825814
6	0xb89d5c18	-7.503497e-05
7	0xb57bb580	-9.3768904e-07
8	0x3714cdbc	8.869389e-06
9	0xb8378f2c	-4.376394e-05
10	0xb80a6fd9	-3.300593e-05
11	0xb5edb7e2	-1.7711393e-06
12	0xb87b3c47	-5.98992e-05
13	0xb7165a4c	-8.961721e-06
14	0x8000a080	-5.7577e-41
15	0x38513505	4.987886e-05
16	0xb8c58c78	-9.419856e-05
17	0x388cd034	6.714501e-05
18	0x36e54850	6.83315e-06
19	0x36ceed92	6.1669352e-06
20	0x34e58064	4.274799e-07
21	0x80007ca9	-4.472e-41
22	0xb7d38a10	-2.521745e-05
23	0xb77a71c8	-1.4927653e-05
24	0xb737868c	-1.0938977e-05
25	0xb78c55e3	-1.6729295e-05
26	0xb8aba683	-8.1849306e-05
27	0x3831d6f7	4.240029e-05
28	0xb72ff32d	-1.0487432e-05
29	0xb7249cb6	-9.811649e-06
30	0x0000a0bb	5.7659e-41
31	0xb8b83c78	-8.785067e-05
32	0x37fab5f0	2.9887044e-05
33	0xb87be81c	-6.0059232e-05
34	0xb8dda76e	-0.000105692874
35	0xb949b70a	-0.00019237041
36	0xb8fc040a	-0.00012017049
37	0xb5b75cc8	-1.3661565e-06
38	0x37a77c9e	1.996598e-05
39	0xb89ccd9e	-7.476959e-05
40	0xb870ab84	-5.7380195e-05
41	0xb607de74	-2.0246052e-06
42	0xb8b21321	-8.4912645e-05
43	0xb7432d44	-1.1633445e-05
44	0x0000a039	5.7477e-41
45	0x3895ff3a	7.152413e-05
46	0xb90928ca	-0.00013080533
47	0x38c05a60	9.172107e-05
48	0x3749d288	1.2029552e-05
49	0x37300538	1.0491633e-05
50	0x36759f70	3.660065e-06
51	0x80007ce9	-4.481e-41
52	0xb748aa94	-1.1960645e-05
53	0xb808f929	-3.2656975e-05
54	0xb8226a2f	-3.87227e-05
55	0xb7c238c0	-2.3153028e-05
56	0xb8d10460	-9.9667115e-05
57	0x3864096d	5.4368214e-05
58	0xb721703e	-9.622481e-06
59	0xb7260e52	-9.897705e-06
60	0x8000a116	-5.7787e-41
61	0x8000a0ca	-5.768e-41
62	0x80009fb3	-5.7289e-41
63	0x80009eb6	-5.6935e-41
64	0x8000a051	-5.751e-41
65	0x80009eda	-5.6985e-41
66	0x80009ddc	-5.6629e-41
67	0x00009eeb	5.7009e-41
68	0x80009fa8	-5.7274e-41
69	0x8000a107	-5.7766e-41
70	0x80009dbb	-5.6583e-41
71	0x00009fd0	5.733e-41
72	0x8000a128	-5.7812e-41
73	0x80009eff	-5.7037e-41
74	0x00009da0	5.6545e-41
75	0x80009e2b	-5.674e-41
76	0x80009f40	-5.7128e-41
77	0x00009f05	5.7045e-41
78	0x8000a01a	-5.7434e-41
79	0x80009df6	-5.6666e-41
80	0x00009d85	5.6507e-41
81	0x80009f76	-5.7204e-41
82	0x8000a084	-5.7582e-41
83	0x8000a066	-5.754e-41
84	0x80009e9b	-5.6897e-41
85	0x0000a0d7	5.7698e-41
86	0x80009da8	-5.6556e-41
87	0x80009d56	-5.6441e-41
88	0x80009ec1	-5.695e-41
89	0x80009faf	-5.7284e-41
90	0x00007312	4.128e-41
91	0x39455e77	0.00018822575
92	0xb7a90fe0	-2.0153762e-05
93	0x39349380	0.00017221086
94	0x398c3f6f	0.00026750143
95	0x39b8f6f5	0.00035279212
96	0x3975e392	0.00023449797
97	0x36808cba	3.83108e-06
98	0xb855000e	-5.078321e-05
99	0x3935a9ed	0.00017324807
100	0x38fd2740	0.00012071291
101	0x367566c6	3.6567667e-06
102	0x3916124b	0.0001431193
103	0x3857ff65	5.149785e-05
104	0x80009dbe	-5.6587e-41
105	0xb8d60ebd	-0.000102070604
106	0x396f937d	0.0002284776
107	0xb8493e4e	-4.798016e-05
108	0x37c961b2	2.400656e-05
109	0xb4a47e5b	-3.0639316e-07
110	0x36f00cb6	7.154037e-06
111	0x80009f1b	-5.7076e-41
112	0x38a8ab86	8.042813e-05
113	0x38a4f433	7.865615e-05
114	0x38e5c598	0.000109563756
115	0x385a995f	5.211809e-05
116	0x398e21ed	0.00027109627
117	0xb8c34896	-9.311845e-05
118	0x370948d0	8.182789e-06
119	0x36915c6b	4.3320956e-06
120	0x80003ffd	-2.2955e-41
121	0xb8f5cc4c	-0.000117205636
122	0xb866dd0a	-5.5042132e-05
123	0xb8d0306c	-9.927232e-05
124	0xb9515e44	-0.0001996691
125	0xb9b7b8be	-0.00035042124
126	0xb94445ea	-0.00018718062
127	0xb683a62a	-3.9234483e-06
128	0xb7f69d90	-2.9398856e-05
129	0xb8dc5cdd	-0.000105077146
130	0xb9118555	-0.00013877948
131	0xb6436da0	-2.9121074e-06
132	0xb8f43934	-0.000116454816
133	0xb78cca24	-1.678343e-05
134	0x0000a07c	5.7571e-41
135	0xb75473c8	-1.2663142e-05
136	0xb96ad9d7	-0.0002239713
137	0xb77ba320	-1.4998746e-05
138	0xb8711028	-5.7473924e-05
139	0x374e8f64	1.2311943e-05
140	0x36cd156e	6.111971e-06
141	0x00009a16	5.5276e-41
142	0xb8973e2a	-7.21182e-05
143	0xb8f2ec1f	-0.0001158344
144	0xb85fa940	-5.332497e-05
145	0xb805da94	-3.1913238e-05
146	0xb9af4a8c	-0.00033434143
147	0x389d54fd	7.502174e-05
148	0xb75606e9	-1.2757003e-05
149	0xb7630f24	-1.353378e-05
150	0x00006031	3.4507e-41
151	0x387fe2f3	6.10081e-05
152	0xb84e2fda	-4.9158793e-05
153	0x379fe438	1.906055e-05
154	0x3857fe1a	5.1496645e-05
155	0x38d57676	0.000101786965
156	0x387e42f5	6.0620678e-05
157	0x3698dd78	4.5557354e-06
158	0xb79dd728	-1.8816048e-05
159	0x38491f78	4.7951442e-05
160	0x366741b0	3.4459918e-06
161	0x35ca1e5f	1.5059012e-06
162	0x387df936	6.0551996e-05
163	0x3762e88a	1.3524792e-05
164	0x80009e64	-5.682e-41
165	0xb8890644	-6.533836e-05
166	0x38ab5da3	8.1713566e-05
167	0xb8e0f354	-0.00010726476
168	0xb80cfd8c	-3.3614735e-05
169	0xb6c48da8	-5.857746e-06
170	0xb6105787	-2.150862e-06
171	0x0000a000	5.7397e-41
172	0xb75eb370	-1.327401e-05
173	0xb7b61978	-2.170795e-05
174	0xb51a32c0	-5.744332e-07
175	0x37b12eb8	2.11218e-05
176	0x37ca1e08	2.409426e-05
177	0xb829d1b7	-4.0488052e-05
178	0x370f59ed	8.544402e-06
179	0x37304698	1.0506854e-05
180	0x800061d8	-3.51e-41
181	0xb942174f	-0.00018509965
182	0x38ca4b50	9.646139e-05
183	0xb8161768	-3.5784586e-05
184	0xb8f06903	-0.00011463652
185	0xb9d396ca	-0.00040357403
186	0xb968ef49	-0.00022214385
187	0xb6c03f0a	-5.7293846e-06
188	0x3925fd33	0.0001582995
189	0xb9209c41	-0.00015316998
190	0xb8a3218e	-7.778696e-05
191	0xb3bbcdf8	-8.7453316e-08
192	0xb94b1b6c	-0.00019369804
193	0xb7e35dee	-2.7104248e-05
194	0x00009fc2	5.731e-41
195	0x3981b3e1	0.00024738818
196	0xb98479ab	-0.00025267652
197	0x397664e5	0.00023497974
198	0x385689a0	5.114975e-05
199	0x37ee01de	2.837268e-05
200	0xb7183504	-9.07225e-06
201	0x00009fdd	5.7348e-41
202	0xb90583a1	-0.00012732904
203	0xb802a1d0	-3.1145115e-05
204	0xb8ac2ac8	-8.209568e-05
205	0xb87df220	-6.0545397e-05
206	0xb9839d52	-0.0002510348
207	0x38d41e10	0.00010114547
208	0xb78a3a17	-1.6477932e-05
209	0x382f4b54	4.1793406e-05
210	0x8000a017	-5.743e-41
211	0x387efedf	6.0795686e-05
212	0xb88df112	-6.768307e-05
213	0xb7e17ed4	-2.688115e-05
214	0x387c799e	6.0194747e-05
215	0x392d263e	0.00016512812
216	0x3877bc28	5.9064623e-05
217	0xb59428ae	-1.1038699e-06
218	0xb8a6e964	-7.958969e-05
219	0x37845e67	1.5779586e-05
220	0x38187af9	3.635415e-05
221	0x360a1155	2.057369e-06
222	0x38995c36	7.312784e-05
223	0xb710a2d6	-8.620982e-06
224	0x00009dbd	5.6586e-41
225	0xb8e437b2	-0.00010882261
226	0x38b06f4d	8.4130654e-05
227	0xb90721a2	-0.00012887132
228	0xb8f87fad	-0.00011849343
229	0xb70cdadf	-8.39561e-06
230	0x348d4aa6	2.631761e-07
231	0x00009223	5.2424e-41
232	0x362394f0	2.4375586e-06
233	0xb84fb92e	-4.9525108e-05
234	0x3746c910	1.1848533e-05
235	0x373e52e7	1.1344185e-05
236	0x37c4f494	2.3478911e-05
237	0xb8c4a1b5	-9.3761286e-05
238	0x36fea60f	7.5891217e-06
239	0xb7addd5e	-2.072629e-05
240	0x80006b68	-3.853e-41
241	0x38b0bcbb	8.427488e-05
242	0x37cf085a	2.4680212e-05
243	0x388cb86a	6.71007e-05
244	0x3981054c	0.00024608744
245	0x399845d4	0.00029043725
246	0x39221b31	0.00015459654
247	0xb646e9a3	-2.9640294e-06
248	0x374b005e	1.2099828e-05
249	0x3881f1a9	6.196212e-05
250	0x390cbd21	0.00013421896
251	0x3664948c	3.4061113e-06
252	0x3880bcea	6.1387036e-05
253	0xb2834740	-1.5282808e-08
254	0x80009fc0	-5.7308e-41
255	0x374a2978	1.2049793e-05

exp_avg_sq f4 [30, 30]
0	0x000001f4	7e-43
1	0x33b11f89	8.247941e-08
2	0x347ec4cd	2.3727189e-07
3	0x34b119b3	3.2987518e-07
4	0x348b6cc8	2.5969916e-07
5	0x3502c2af	4.8712076e-07
6	0x345d4195	2.0606088e-07
7	0x3115cdbe	2.1799305e-09
8	0x33041a31	3.0757466e-08
9	0x3480eed4	2.4015628e-07
10	0x3403eb48	1.228592e-07
11	0x2f582fca	1.9662064e-10
12	0x3327719d	3.8986048e-08
13	0x32f081c6	2.7998691e-08
14	0x000001f4	7e-43
15	0x3322e9f9	3.793136e-08
16	0x34790d5f	2.3194796e-07
17	0x35122f92	5.445846e-07
18	0x3513735f	5.4929654e-07
19	0x31658fd2	3.3405638e-09
20	0x31cec47b	6.0177263e-09
21	0x000001f4	7e-43
22	0x3494dcea	2.7727884e-07
23	0x34ba6dd6	3.4725116e-07
24	0x3443c2c7	1.823165e-07
25	0x321550e9	8.691338e-09
26	0x35f1ff51	1.8030206e-06
27	0x33e3dd80	1.0610802e-07
28	0x31173f46	2.2009359e-09
29	0x316403ef	3.3180603e-09
30	0x000001f4	7e-43
31	0x341c431d	1.4553048e-07
32	0x34c09d8e	3.5877423e-07
33	0x3515f251	5.585944e-07
34	0x34e80ae8	4.3221303e-07
35	0x3548d4ba	7.4815364e-07
36	0x34b41917	3.3545868e-07
37	0x3187a49c	3.947731e-09
38	0x335deaa7	5.1668987e-08
39	0x34e61dd7	4.286255e-07
40	0x34079002	1.2625244e-07
41	0x2fc3ac95	3.559292e-10
42	0x3390f2e4	6.749704e-08
43	0x3357e1b3	5.026386e-08
44	0x000001f4	7e-43
45	0x335bf36f	5.1211313e-08
46	0x34cd23ae	3.8210186e-07
47	0x355a5bd2	8.1344945e-07
48	0x3579e27a	9.3089295e-07
49	0x31ca7db6	5.8932654e-09
50	0x32134ea7	8.57441e-09
51	0x000001f4	7e-43
52	0x34e1c866	4.2055325e-07
53	0x3504d63f	4.94856e-07
54	0x349869a6	2.8389076e-07
55	0x3285e558	1.5587531e-08
56	0x36417a0d	2.8830284e-06
57	0x344d0018	1.9092147e-07
58	0x315f2448	3.2471394e-09
59	0x31cc4755	5.945291e-09
60	0x000001f4	7e-43
61	0x000001f4	7e-43
62	0x000001f4	7e-43
63	0x000001f4	7e-43
64	0x000001f4	7e-43
65	0x000001f4	7e-43
66	0x000001f4	7e-43
67	0x000001f4	7e-43
68	0x000001f4	7e-43
69	0x000001f4	7e-43
70	0x000001f4	7e-43
71	0x000001f4	7e-43
72	0x000001f4	7e-43
73	0x000001f4	7e-43
74	0x000001f4	7e-43
75	0x000001f4	7e-43
76	0x000001f4	7e-43
77	0x000001f4	7e-43
78	0x000001f4	7e-43
79	0x000001f4	7e-43
80	0x000001f4	7e-43
81	0x000001f4	7e-43
82	0x000001f4	7e-43
83	0x000001f4	7e-43
84	0x000001f4	7e-43
85	0x000001f4	7e-43
86	0x000001f4	7e-43
87	0x000001f4	7e-43
88	0x000001f4	7e-43
89	0x000001f4	7e-43
90	0x000001f4	7e-43
91	0x34263477	1.5479041e-07
92	0x355c3b52	8.204271e-07
93	0x3564b8a1	8.520529e-07
94	0x35202015	5.965133e-07
95	0x35afc3c3	1.309549e-06
96	0x35050de4	4.9566574e-07
97	0x2f5c991b	2.0063277e-10
98	0x33092f6c	3.1940928e-08
99	0x35238873	6.092079e-07
100	0x34de60df	4.1421205e-07
101	0x3048403e	7.285087e-10
102	0x33a731c8	7.785599e-08
103	0x33207007	3.735479e-08
104	0x000001f4	7e-43
105	0x339a9fb9	7.200237e-08
106	0x35089131	5.087523e-07
107	0x3605b946	1.9926388e-06
108	0x35f3f8c7	1.8177315e-06
109	0x311eabb1	2.3089621e-09
110	0x3225efe8	9.658812e-09
111	0x000001f4	7e-43
112	0x35874e9a	1.008116e-06
113	0x35980feb	1.1329515e-06
114	0x35273533	6.2289763e-07
115	0x320d2dc1	8.217683e-09
116	0x36b7c2e3	5.476513e-06
117	0x34f47c2a	4.5538883e-07
118	0x3140914f	2.8022276e-09
119	0x2edb6407	9.9767354e-11
120	0x000001f4	7e-43
121	0x3497c010	2.8265686e-07
122	0x35362ebd	6.7868297e-07
123	0x35914633	1.0823773e-06
124	0x355cc1b0	8.223824e-07
125	0x35c008e1	1.4307699e-06
126	0x352dbc53	6.472157e-07
127	0x32034ed2	7.643125e-09
128	0x33c19649	9.0145996e-08
129	0x355f06cc	8.3083864e-07
130	0x347fe8d9	2.3833435e-07
131	0x303d33c4	6.8831363e-10
132	0x340cc59f	1.311041e-07
133	0x33d1a808	9.7628856e-08
134	0x000001f4	7e-43
135	0x33a5ad16	7.7148954e-08
136	0x3544b833	7.3283735e-07
137	0x35cf3f91	1.5441202e-06
138	0x35efa05e	1.7853561e-06
139	0x3243f06c	1.14051595e-08
140	0x3296e32a	1.75656e-08
141	0x000001f4	7e-43
142	0x3559f8c2	8.120079e-07
143	0x357e7be0	9.4802635e-07
144	0x35144548	5.5235114e-07
145	0x3301d8ce	3.0232336e-08
146	0x36b8d370	5.508242e-06
147	0x34c629ff	3.691093e-07
148	0x31d7bb50	6.2786185e-09
149	0x324573b9	1.14932215e-08
150	0x000001f4	7e-43
151	0x33c69b87	9.248384e-08
152	0x34875a82	2.5211563e-07
153	0x34c5a11b	3.681133e-07
154	0x349c4299	2.910572e-07
155	0x350b85ec	5.1976417e-07
156	0x3471f1c0	2.2532822e-07
157	0x31203f56	2.3319067e-09
158	0x3309439e	3.1959296e-08
159	0x3490a667	2.6943164e-07
160	0x33f55eb7	1.142593e-07
161	0x2f72a1d4	2.2067265e-10
162	0x3338656d	4.2933085e-08
163	0x330694c6	3.1334615e-08
164	0x000001f4	7e-43
165	0x3314faf3	3.4687172e-08
166	0x3486e179	2.5123498e-07
167	0x351d2d06	5.8552575e-07
168	0x352296cb	6.0569135e-07
169	0x317ea14e	3.7053556e-09
170	0x31e78e4a	6.7391612e-09
171	0x000001f4	7e-43
172	0x349e97dd	2.9540288e-07
173	0x34c1a385	3.6068027e-07
174	0x345653f2	1.9960842e-07
175	0x32278919	9.751852e-09
176	0x36035f92	1.957615e-06
177	0x33ffab91	1.19055706e-07
178	0x3110632e	2.1011135e-09
179	0x317d899e	3.6894572e-09
180	0x000001f4	7e-43
181	0x34f14e8f	4.4946907e-07
182	0x35c4be1e	1.4658469e-06
183	0x3601db41	1.935012e-06
184	0x35dfaa90	1.6664435e-06
185	0x3651d1bd	3.126551e-06
186	0x35b55259	1.3509517e-06
187	0x2f1ca519	1.4246772e-10
188	0x3440c358	1.7952459e-07
189	0x35b34de8	1.3359213e-06
190	0x3582898a	9.725784e-07
191	0x2eef2dc8	1.0876594e-10
192	0x344e8209	1.9232552e-07
193	0x33c67aa4	9.242402e-08
194	0x000001f4	7e-43
195	0x3489ac32	2.5643527e-07
196	0x35a39215	1.2186962e-06
197	0x366f43f5	3.5653331e-06
198	0x3661e485	3.3660629e-06
199	0x318fe33e	4.187682e-09
200	0x3185e75f	3.8971133e-09
201	0x000001f4	7e-43
202	0x35f4c487	1.8236614e-06
203	0x361fb8ff	2.3800528e-06
204	0x35a0e797	1.198833e-06
205	0x33194cb5	3.5692853e-08
206	0x3735d841	1.0838791e-05
207	0x351c31cf	5.818701e-07
208	0x3146d271	2.8932414e-09
209	0x32b2fb29	2.0836142e-08
210	0x000001f4	7e-43
211	0x34311011	1.6490254e-07
212	0x3506854e	5.0112874e-07
213	0x35377af5	6.835174e-07
214	0x3518166c	5.665704e-07
215	0x358e4de8	1.0602498e-06
216	0x34f8a75c	4.631537e-07
217	0x2f14acb3	1.3521877e-10
218	0x333b84ce	4.3660116e-08
219	0x350c313c	5.222571e-07
220	0x3497a664	2.8247007e-07
221	0x300cf5d1	5.128103e-10
222	0x33933561	6.8549305e-08
223	0x333d1955	4.402803e-08
224	0x000001f4	7e-43
225	0x3385c35b	6.22883e-08
226	0x34ef1ce9	4.4538254e-07
227	0x35a53a7d	1.231048e-06
228	0x35a5248c	1.2304095e-06
229	0x310e1aef	2.067903e-09
230	0x325cfd09	1.2863219e-08
231	0x000001f4	7e-43
232	0x35304146	6.5660095e-07
233	0x354f3772	7.719419e-07
234	0x34dea33b	4.1469488e-07
235	0x328b6789	1.6228812e-08
236	0x3683ed26	3.931712e-06
237	0x3482d98d	2.4372676e-07
238	0x30a10841	1.1716638e-09
239	0x31960b52	4.3668615e-09
240	0x000001f4	7e-43
241	0x34904485	2.6871945e-07
242	0x355135f0	7.7937057e-07
243	0x358e9d30	1.0625572e-06
244	0x356a8f55	8.738037e-07
245	0x35daf398	1.6313161e-06
246	0x3535104b	6.7451464e-07
247	0x30176b53	5.5085997e-10
248	0x32fcfd31	2.94518e-08
249	0x35708264	8.959671e-07
250	0x3492a617	2.7315465e-07
251	0x3070fa6d	8.766737e-10
252	0x3403a9cc	1.2262097e-07
253	0x33b28736	8.3133656e-08
254	0x000001f4	7e-43
255	0x3311d0d6	3.395038e-08

exp_avg f4 [30]
0	0xb9058cee	-0.00012736369
1	0xb966cecc	-0.00022011547
2	0x80009ec7	-5.6959e-41
3	0x3a10fa93	0.00055305025
4	0xb9eaa81e	-0.00044757215
5	0x38a32d50	7.780886e-05
6	0xb9e6c1b2	-0.00044013333
7	0x384c96e8	4.8777933e-05
8	0x399b5f20	0.00029634777
9	0x382a0c70	4.054274e-05
10	0x38cf9dc8	9.899918e-05
11	0xba045c18	-0.00050491234
12	0xb952ad64	-0.00020091754
13	0x3a1be5bf	0.00059470156
14	0xb9c939f1	-0.00038380877
15	0xb8fe514c	-0.000121268065
16	0x39cba4fd	0.00038842103
17	0xb9dfd497	-0.00042692266
18	0xb8f2e42c	-0.000115819596
19	0x391263c2	0.00013960808
20	0xb88e1fbc	-6.7769986e-05
21	0x38def852	0.00010632038
22	0xb8afd041	-8.3834406e-05
23	0xb8b95abc	-8.838388e-05
24	0x37b14080	2.113008e-05
25	0xb881987e	-6.179603e-05
26	0x39e7d942	0.00044221623
27	0xb9668935	-0.00021985623
28	0x38ac4cdc	8.215915e-05
29	0xb94f3000	-0.0001975894

exp_avg_sq f4 [30]
0	0x36813c89	3.851547e-06
1	0x36d43730	6.324517e-06
2	0x000001f4	7e-43
3	0x373ce250	1.1258366e-05
4	0x374cbec7	1.2203766e-05
5	0x368e3659	4.2382567e-06
6	0x37bee04e	2.2754215e-05
7	0x370b5f77	8.307273e-06
8	0x37630937	1.35324e-05
9	0x37407387	1.147099e-05
10	0x37835128	1.5654208e-05
11	0x3709a603	8.204489e-06
12	0x37d03e22	2.4824465e-05
13	0x37567312	1.2782186e-05
14	0x370bb311	8.326738e-06
15	0x36650362	3.4125628e-06
16	0x37912848	1.7304104e-05
17	0x37391f98	1.1034215e-05
18	0x36517088	3.1208929e-06
19	0x365d4250	3.2970165e-06
20	0x3593f078	1.1022339e-06
21	0x3681c148	3.8670005e-06
22	0x35d976cf	1.6202338e-06
23	0x35f5515f	1.8277605e-06
24	0x37ba66f6	2.2220873e-05
25	0x357604de	9.1649224e-07
26	0x36eb16f4	7.006218e-06
27	0x3734de8d	1.0780653e-05
28	0x35c9f274	1.504623e-06
29	0x3651425c	3.1182053e-06

exp_avg f4 [1, 30]
0	0xb9264a4f	-0.00015858676
1	0xb83c5a94	-4.490705e-05
2	0x0000a100	5.7756e-41
3	0x38b66932	8.6980304e-05
4	0xb9035caa	-0.00012527654
5	0xb7a704f4	-1.9910258e-05
6	0x38228ad1	3.8753093e-05
7	0x3814bb32	3.546029e-05
8	0x38c09846	9.1836366e-05
9	0x3898fc27	7.294892e-05
10	0x380589f5	3.1838154e-05
11	0x38c8ec66	9.580776e-05
12	0x389e6262	7.552352e-05
13	0x38dad500	0.000104347244
14	0xb8d3c368	-0.00010097661
15	0xb97cdcad	-0.00024114801
16	0x38227009	3.872815e-05
17	0xb8c5d8be	-9.4340634e-05
18	0xb8ce60b8	-9.840861e-05
19	0xb9003572	-0.00012226941
20	0xb910e152	-0.00013816849
21	0xb8c674bc	-9.463119e-05
22	0xb8fb7d1c	-0.00011991916
23	0xb86e492c	-5.681177e-05
24	0x3849052c	4.792695e-05
25	0xb903858a	-0.0001254288
26	0xb78d8e30	-1.6874721e-05
27	0x37fb3074	2.9944094e-05
28	0xb8b91a59	-8.826395e-05
29	0x39412a35	0.00018421638

exp_avg_sq f4 [1, 30]
0	0x36acfda9	5.1555294e-06
1	0x34d47a57	3.957709e-07
2	0x000001f4	7e-43
3	0x34153a4d	1.3897916e-07
4	0x354e4193	7.6836403e-07
5	0x346d3290	2.209074e-07
6	0x33210182	3.7487105e-08
7	0x33f3d2ad	1.1353891e-07
8	0x34c4c370	3.6650044e-07
9	0x334953ac	4.687506e-08
10	0x33bcda35	8.794124e-08
11	0x338954cc	6.394984e-08
12	0x351fa58a	5.9473007e-07
13	0x340e1fe2	1.323638e-07
14	0x358ed6dd	1.0642358e-06
15	0x37095f13	8.1879725e-06
16	0x342dd711	1.6190121e-07
17	0x352cebe4	6.441826e-07
18	0x3690a806	4.311095e-06
19	0x35091419	5.1065723e-07
20	0x36e7b0ed	6.9049333e-06
21	0x345dd5ab	2.0659961e-07
22	0x36cbcf3e	6.0739976e-06
23	0x36382bad	2.744356e-06
24	0x34a5ff53	3.0919418e-07
25	0x369845b0	4.5380657e-06
26	0x3456647a	1.9966856e-07
27	0x340ddf0f	1.3212797e-07
28	0x35d9e3ca	1.6234055e-06
29	0x352369fc	6.087646e-07
