Checkpoints/ANN_checkpoint.pth (torch, 39198 bytes, 9 tensors)

linear_relu_stack.0.weight f4 [50, 15]
00000000: 0ffa 0340 56dd 3ebe a1d9 8fbe 4909 b13e
00000010: 611a 0c3e 6b14 213e 6cfd a73d a4e1 a3bd
00000020: 7f25 a8bd f51b 713e 93d5 0e3e 25c9 793d
00000030: 6195 ff3d 4eea b7bd e2d4 a73d f67e 84bf
00000040: 9d84 a93e 78d9 243e 74e1 cd3d 6033 c0bd
00000050: ac27 393e 1532 0dbe 7cd6 483e af7c f83a
00000060: 0936 763e bcc3 c5bd f5ca 2f3e 1b40 11be
00000070: 7bf7 a1bc 94e3 01bd 668b 7d40 ce9e b3bb
00000080: dabc e2be 25b5 32bd a043 15be 6252 303e
00000090: f47e a03e 27aa a23d ffdb 78bd a773 863d
000000a0: 97bd 09bf 677a c1be 2d85 413e d035 d3bc
000000b0: 8057 c0be 26e6 4440 3fba 9f3e 8754 49be
000000c0: e8c9 dc3d 5487 9cbd 8482 983e 2860 3b3d
000000d0: 9519 363d 65b9 573e ce08 7d3e 6940 22be
000000e0: 60db 51be 2c83 1ebe 945b 4dbd 185e d03d
000000f0: 9e67 36bf b841 2ebe d195 d63d 77d9 0c3f
00000100: 8a4a 033d 4dc1 a23d f7af d0bc dc7b 633e
00000110: c159 553c 6502 17be c6ad dd3d 0555 543e
00000120: d641 603c af13 cd3d e35b 21be a80d 383f
00000130: acfb 793e f6bb 09be 86de b63e ed28 4bbd
00000140: df6a 073e b77d 153e 9b17 293d 4a42 3f3e
00000150: 6d5b 17be 4927 013e fb22 f6bc ba95 5abd
00000160: 45cb b2bd ed5a 37be 00c7 24be fd47 093e
00000170: 34f9 33bc 9c44 0cbd 05c4 77be 3a38 e53d
00000180: 972b 8e3d 5e01 65be 5c56 793d 6ae2 a9bd
00000190: 14ea 6e3b a149 41be eb91 2ebe 39c8 1abe
000001a0: 9937 d83d 6bc0 c03f 4bfc 74be d1ca 0cbe
000001b0: b8ac bdbd 7a9c 9f3d 15a7 b63d ab7e b0bd
000001c0: 704a 40be 366f f73c c8df 793e d0ef aa3c
000001d0: 1b89 35bd 26c3 6b3e 98af 7e3e 473d 823e
000001e0: 24ed 0940 580b cb3d 9c0d d7bd 0446 06bf
000001f0: 5af4 14bc 7dcf 91bd 9510 af3e c7b5 f3bd
00000200: 5b40 313e 1f1d 153e 4d30 3bbe 30b5 2dbe
00000210: 8603 59bc 86de 123e ec4d 843e 2925 3640
00000220: dbc9 463e 4ad9 debe 8fb7 3ebe ac5a ab3d
00000230: b147 1d3d 2c0e acbd c87e d6bd f124 c33d
00000240: 0ed1 b83c 21f0 7dbe 1dd3 943e 07ed 213d
00000250: 487d 133e cac5 8dbe 8c4c f43d a587 7abe
00000260: 262d 0cbe 63c4 3dbe 711d 823e 00e4 79bb
00000270: 7bb0 20be 80de e63c 77b3 1abe f862 5b3d
00000280: 8264 babd 6ef8 44be 2f16 77be 80bb 903b
00000290: fb9d 49be 8c34 0740 81c6 12bd 1dd9 c3be
000002a0: 56f7 1a3d ef69 42be bbc7 4f3e 9781 3dbe
000002b0: f392 84bd acc6 983d 54ab 533e 4e51 c0bc
000002c0: c28a 2ebd 4f85 91be ac9e 863d c26e f8bc
000002d0: 9e8c 2740 d396 d0bd 40ea 58be 3d58 8cbe
000002e0: 1e83 b43d ac76 cebd 075e 9d3e b33b 053e
000002f0: 5a82 85bd 08fb 9bbd 424c 26be ba96 0a3d
00000300: f3d7 7e3e 7030 87be bb21 3b3e 436f c03f
00000310: 39b5 5fbe 9b69 87bd c3bd 463e 3a2b 3a3d
00000320: ff01 b6bd 5672 73bd 59a3 893e d94a a93c
00000330: a023 9e3e dafe b1bd 2d0a 273e bd60 3ebd
00000340: 3cf6 573d a6eb 2c3e 8419 dc3d 03b0 b73d
00000350: 27b9 38bf a6b2 4abe 6387 edbc 37e6 1e3d
00000360: 95d3 173d a803 6e3d 32d7 bcbd 76ac ad3d
00000370: cc55 083e 1f3d 273e 9e1a 0c3e 8769 07bc
00000380: 7390 f2b9 8633 0440 471f 4c3e 2490 a6be
00000390: beb3 7ebe 8e81 563e acb4 3dbe 0fa6 3abe
000003a0: 55ed 4fbe bbcb 4b3e d91d 0a3c 3046 783e
000003b0: ff42 55be 8ef5 2bbe 5b6e 04bd 385d 4cbe
000003c0: 136e 13c0 b0ea 83be b78f 3d3e 0514 a9bd
000003d0: 5d8f 063c 2dd6 223e b2b9 d63d 3abc e3bd
000003e0: 71e8 dd3d ba8d 54bd 0fca 453e 3b38 5a3e
000003f0: 1976 913e a6d7 a93c 43ee 043e 1872 9f3f
2.0621374 -0.1863912 -0.28095725 0.34577397 0.13681938 0.15730445 0.08202633 -0.08002022
-0.08210277 0.23545821 0.1394866 0.060982842 0.12479664 -0.08980237 0.08194901 -1.0351245
0.33108988 0.16098583 0.100527674 -0.09384799 0.1808154 -0.13788636 0.1961307 0.0018958057
0.2404405 -0.09656474 0.17167266 -0.1418461 -0.019771328 -0.031711176 3.9616332 -0.0054815775
-0.44284707 -0.043629784 -0.14576578 0.17218927 0.31346858 0.0794261 -0.06075668 0.06565028
-0.53804916 -0.37788698 0.18898459 -0.025782496 -0.37566757 3.0765471 0.31196782 -0.19661151
0.10780698 -0.07642999 0.29787076 0.045746 0.04445799 0.21066816 0.2471039 -0.15844883
-0.20493841 -0.15479726 -0.050136164 0.10174197 -0.7125186 -0.17017257 0.10477794 0.55019325
0.032053508 0.079470254 -0.025474532 0.22215217 0.013021887 -0.14747007 0.1082416 0.20735557
0.0136875715 0.1001352 -0.15757708 0.7189584 0.24412411 -0.13450608 0.35716647 -0.049599577
0.13224362 0.14598738 0.041282278 0.18677631 -0.1478097 0.12612642 -0.030045977 -0.053365447
-0.08730177 -0.17905779 -0.16091537 0.13406368 -0.010984708 -0.03424512 -0.2419587 0.11192365
0.06941908 -0.22363803 0.060873374 -0.08295138 0.003645544 -0.18875743 -0.17047851 -0.15115441
0.105574794 1.5058721 -0.23924367 -0.13749243 -0.09261459 0.077935174 0.08918587 -0.0861791
-0.18778396 0.030204397 0.24401772 0.020866305 -0.044320207 0.23023662 0.24871671 0.25437376
2.155099 0.09914273 -0.10500643 -0.52450585 -0.009091461 -0.071196534 0.3419234 -0.11899906
0.17309706 0.1456189 -0.18280144 -0.16963649 -0.013245469 0.14342698 0.258407 2.846018
0.19412939 -0.43525153 -0.1862471 0.08366904 0.03839845 -0.084011406 -0.104734 0.095285304
0.022560623 -0.24798633 0.29067317 0.039532688 0.1440326 -0.27689964 0.11928663 -0.24465807
-0.13689098 -0.18531947 0.25413087 -0.0038130283 -0.15692322 0.028182268 -0.15107523 0.05356118
-0.091012016 -0.19235393 -0.24129556 0.004416883 -0.19689171 2.1125822 -0.03583384 -0.38251582
0.037833534 -0.18985723 0.20291035 -0.18506466 -0.06473341 0.07459769 0.20670825 -0.02347627
-0.0426128 -0.2842202 0.06573233 -0.030326251 2.6179576 -0.101850174 -0.2118311 -0.2741107
0.08814071 -0.100812286 0.307358 0.13011055 -0.06519003 -0.0761624 -0.16240028 0.03383515
0.24887066 -0.26404142 0.18274586 1.5033954 -0.21846475 -0.066119395 0.19408326 0.04545138
-0.088870995 -0.05943521 0.26882437 0.020665573 0.30886555 -0.08691187 0.16312476 -0.046478976
0.05272506 0.16886768 0.10747054 0.089691184 -0.7215752 -0.19794711 -0.028995221 0.03879377
0.037067015 0.058108956 -0.09220733 0.0848016 0.13313979 0.1633191 0.13682029 -0.008264906
-0.0004626546 2.0656447 0.19933806 -0.32531846 -0.24873254 0.20947859 -0.18525952 -0.18227409
-0.20305379 0.19901936 0.008429968 0.24245524 -0.20826338 -0.1679289 -0.032331806 -0.19957435
-2.3035934 -0.2576499 0.18511854 -0.082557715 0.008212891 0.15902014 0.10484637 -0.11119886
0.1083535 -0.051892973 0.1931536 0.21310513 0.28410414 0.020732712 0.12981515 1.2456694

linear_relu_stack.0.bias f4 [50]
00000000: d23c 0e3e a4df cabd 12c0 9bbd 2bb2 d6ba
00000010: 4748 033e bda7 81bd ae13 123e c444 203c
00000020: edb2 c33d 4b84 2a3e 4aa4 d6bd 049d 3f3e
00000030: e217 8b3e bdd6 353e 743d 963c bde0 323d
00000040: 7c57 15bd 29ae ea3d 7ea9 63be 17f7 0bbe
00000050: ebf5 f3bd 53f4 8ebd 8206 56be 0ae7 633e
00000060: 7129 9a3d 44c0 22be 84dd 6bbe f3f9 83be
00000070: f955 be3c 9739 223d c5e5 0c3e 2cf6 523e
00000080: 05ef 3abe d7f7 4f3e b392 3fbe 511d 8fbd
00000090: 4177 10be 4443 b6bd 3271 1abe eb04 ac3e
000000a0: 98d3 613e b4f3 1fbe 3361 27be 7a22 143e
000000b0: 81fe e53d 2c33 05bd deaa 75bd 3800 04be
000000c0: 7fd5 f63d 5235 ea3d
0.13890389 -0.09905937 -0.07604994 -0.0016380002 0.1282054 -0.06330822 0.1426532 0.00978202
0.09555612 0.16652028 -0.104805544 0.1871224 0.2716666 0.17757697 0.01833985 0.04367136
-0.036460385 0.11459 -0.22232625 -0.13668476 -0.119121395 -0.06980195 -0.2090092 0.22256103
0.075274356 -0.15893656 -0.2303372 -0.25776634 0.023234354 0.039605703 0.13759525 0.2060172
-0.18255241 0.20309387 -0.18708305 -0.069880135 -0.14107992 -0.08899549 -0.15082243 0.33597502
0.22053373 -0.15620309 -0.16345672 0.14466277 0.112301834 -0.032519504 -0.059977405 -0.12890708
0.1205244 0.11435951

linear_relu_stack.2.weight f4 [60, 50]
00000000: c544 d63d d2c5 e93d 98a6 063d 209c c5bd
00000010: da2a 96bc cfcc 0fbd 9760 00bd b722 fc3d
00000020: 287a 48bd ff6e b2bc 7609 a03d cbaa 23be
00000030: 5db5 afbd 485e 22be 1023 023e a9d8 fbbd
00000040: f36a 9e3d 5e1c 85ba 3748 0bbe 608c c43c
00000050: 8c3b 8dbd 9223 a8bd 0dfc 40bd 492e a9bd
00000060: 141c dbbd 8521 89bc ec8d f1bd 2ad2 d5bd
00000070: 63ff a53d eb6b 323d 84ea e0bd 2476 b5bd
00000080: 2c88 743b c6e4 1abe 5e25 843d 57c7 dfbc
00000090: 2467 0cbe 80e9 cbbd 1cf6 963d edc2 b33d
000000a0: b812 69bd caaa 43bd 6ffa 93bd 6afa cc3d
000000b0: 5939 ccbd 803a 693b 5959 69bd c034 6f3d
000000c0: a927 383c 33ce d9bd 750a 293e 8f77 2ebd
000000d0: 80a9 bd3e fcd0 13be 19ae 0a3e b547 0abe
000000e0: f402 54be 8f8f 643b 7cfd f63d 2fad 18bc
000000f0: 9a2a 07be 808e 52bd 83c7 d3bd 81a9 8abd
00000100: fd73 57be c7ef bbbc 8683 eabd 275c ce3d
00000110: 4826 2bbe 6ea4 fcbd 64db 5c3b 1999 153e
00000120: 83ef babd ad5a 623e a7b4 ffbd 4806 79be
00000130: 4b2f a2be 9a04 bebd 556b 38bd 0db8 883d
00000140: 4dfd 0bbc f034 ae3d d4d8 e3bd eb77 15be
00000150: c8d5 c8bd bdfb 803d 2144 be3c 2009 31bd
00000160: ca23 f33d c6f9 09bd 3003 13be 383f 1ebe
00000170: 9cc7 1bbc 44cd 003e bfdf 193d f914 94be
00000180: b8fe 0cbd 9110 86bd c9b7 a2bd ac9f 06bd
00000190: ee03 04bd ac7e 10be b943 3c3d 1bd9 91bc
000001a0: 532f 16be 637f b9bc 24e0 13be 503a dc3c
000001b0: c807 f0bc e249 27be 7cf3 a3bd c955 fabd
000001c0: 21f2 403d f421 9cbb fce1 ab3c 1577 013e
000001d0: fdcf 643c b079 7a3d a85e f73c f133 033c
000001e0: 4457 b0bd 5142 1cbe 015a 6ebd c31a 983d
000001f0: a306 c73c 0475 cebd 9060 853d 2868 4c3d
00000200: 74be 533d 6d89 75bd 48df 28bd 1c9d b8bd
00000210: 2908 07be e1ee e6bc ca02 d33d c475 b6bc
00000220: 3e4c d3bd fcd6 d2bc b2bc 50bd c080 a6bc
00000230: 327f 61bd 83cc 96bd 3c87 903d 531b e0bc
00000240: 45e3 903d 8dff 84bd af23 e3bd 177b 55bd
00000250: d12f acbb 6238 0cbe dbb4 1e3e ddab c4bd
00000260: e3cc d93e 634b a6bd 97e9 0abe cb2f 32be
00000270: 8fc0 363d 8651 9b3d 3a00 c03d b448 e0bc
00000280: 141b 553d fdcb aa3d 4692 2d3d 33e5 bf3d
00000290: 4f3e c0be fe6c 083e 6c3c 0fbe ab10 0c3d
000002a0: 2bed 643d 5683 6cbd 62dd 593d dab6 63bd
000002b0: 6edd a8bd bf58 423e d16e 50bd bd1b 57be
000002c0: 0718 c33d 134b 0ebe 75c5 863d 3caa ffbd
000002d0: f202 9dbd 8530 34be 1bc7 f93c 14da 413d
000002e0: f163 003e 5656 8a3d cef7 2ebe 8447 7a3d
000002f0: a62e 15bd 9c44 a93d 960f f13d 2831 86bd
00000300: f939 103e d6c3 003d 7e16 15bd 94a4 4dbd
00000310: d9c8 8abc f771 993d 37a8 14bd e7c8 27be
00000320: 88fa 393e b916 3bbe 7d34 6a3e b184 443c
00000330: f480 5c3d b028 aabd b5a6 dfbd 8a0a 11bc
00000340: 915c 5e3d 6809 0e3d 7c5a 433d 0e33 033d
00000350: 09c9 233e 1c57 1d3e d724 b0be 4d41 113e
00000360: d3ac e63d 2f07 cf3d 7f28 15bd d0bb 24be
00000370: 1c25 89bc 72d9 c63d 78c4 873d a584 633e
00000380: a321 0e3d 39ac d2bd 1b39 0f3e cb7e e7bd
00000390: eb64 033d ea49 9e3d 492e fb38 215b 913c
000003a0: ce87 a3bd edfe 5bbd a624 873d 72d1 be3a
000003b0: 929f e73d a050 c0bc 9676 bd3d 2c36 86bc
000003c0: 9031 04bd b52f 173d d83c 1e3e 61fc 0b3e
000003d0: 0715 8ebc 6780 6ebc 7c47 20bc a59b 82be
000003e0: 34ff 113d abb3 dabd 9aa8 9dbd f12f 403c
000003f0: 20c4 f83c c8a7 943d c035 e53b 9838 01be
0.104623355 0.11414684 0.03287372 -0.09648919 -0.01833098 -0.03510743 -0.031342115 0.12311309
-0.048944622 -0.021781443 0.078143045 -0.15983121 -0.08579514 -0.15856278 0.12708688 -0.12297184
0.07735243 -0.0010155549 -0.13601767 0.023992717 -0.06896123 -0.082099095 -0.047115374 -0.08260781
-0.10698715 -0.016739616 -0.117946476 -0.10440476 0.08105352 0.04355995 -0.1098223 -0.08860424
0.003731261 -0.15126333 0.0645244 -0.027316732 -0.1371122 -0.09956646 0.073711604 0.087774135
-0.056902617 -0.0477703 -0.07225501 0.100087 -0.09971876 0.0035587847 -0.056969974 0.058399916
0.0112399245 -0.106350325 0.16507895 -0.04259449 0.3704338 -0.1443519 0.13542975 -0.13503917
-0.20704252 0.0034875607 0.12060067 -0.009318634 -0.13199845 -0.05140543 -0.10340788 -0.067706116
-0.2104034 -0.022941483 -0.11450867 0.100761704 -0.16713822 -0.1233605 0.0033700103 0.14609183
-0.091277145 0.22104903 -0.124856286 -0.24318802 -0.31676707 -0.092782214 -0.045024235 0.0667573
-0.008544278 0.08506191 -0.11125341 -0.14596526 -0.098064005 0.06298015 0.023225846 -0.043221593
0.118720606 -0.033685468 -0.14356685 -0.15453804 -0.00950804 0.12578303 0.037566897 -0.2892225
-0.034422606 -0.065461285 -0.079452105 -0.03286712 -0.03223031 -0.14110821 0.045963023 -0.01780372
-0.1466649 -0.02264375 -0.14440972 0.026883274 -0.029300585 -0.16336778 -0.08005425 -0.122233935
0.047105912 -0.0047647897 0.020981781 0.12643082 0.013965604 0.061151206 0.030196503 0.008007989
-0.086103946 -0.15259673 -0.058191303 0.074269794 0.024295157 -0.10080913 0.065125585 0.04990402
0.051695302 -0.059945513 -0.041228563 -0.09014341 -0.13186707 -0.028190078 0.10303266 -0.022272952
-0.103172764 -0.025737278 -0.050961204 -0.020325065 -0.055052944 -0.07363226 0.07057044 -0.02735678
0.07074598 -0.06494055 -0.110907905 -0.05211934 -0.0052547236 -0.13693383 0.15498678 -0.09603093
0.4253913 -0.081198476 -0.1356567 -0.17401044 0.044617232 0.07583909 0.09375043 -0.027378418
0.052027777 0.08339689 0.042375825 0.09369888 -0.37547538 0.13322827 -0.13987893 0.034195583
0.055890244 -0.05774244 0.053189643 -0.055594303 -0.08245359 0.18979166 -0.050886933 -0.21006675
0.09526067 -0.13895826 0.06580631 -0.124836415 -0.076665774 -0.17596634 0.030490449 0.047327116
0.12538125 0.067547485 -0.17086717 0.06110336 -0.03642144 0.08265039 0.11770551 -0.065523446
0.14084615 0.031436764 -0.036398403 -0.050205782 -0.016941475 0.0749244 -0.036293235 -0.16385232
0.18161976 -0.18270387 0.22871585 0.011994527 0.053833917 -0.08308542 -0.10920469 -0.00885261
0.054287497 0.03467694 0.047693714 0.03203111 0.15994658 0.15365261 -0.34403107 0.14185067
0.11263432 0.10108792 -0.036415573 -0.1608727 -0.016741328 0.09709443 0.0662927 0.22218569
0.034700047 -0.10286755 0.13986628 -0.11303481 0.032078665 0.07728942 0.00011977234 0.017743649
-0.07984887 -0.053709913 0.06598787 0.0014558269 0.113097325 -0.023475945 0.09251134 -0.016383253
-0.03227383 0.03691073 0.15452898 0.13670494 -0.017344011 -0.014556981 -0.009782668 -0.25509372
0.03564377 -0.106788 -0.07698174 0.01173018 0.030366957 0.07258564 0.006994933 -0.12619245

linear_relu_stack.2.bias f4 [60]
00000000: 30ad 83bd b7c5 4f38 c984 e3bc 8480 f83d
00000010: eee5 06bd 19f6 03be ccf7 3c3d 768b 993d
00000020: 12dc 79bd 7115 cd3d c0c7 04be 8234 003d
00000030: f4cc 03be 09c7 7dbc 5b42 003e c0fd 75bd
00000040: f953 c13d db0a c53d 9895 4dbc 818c 113e
00000050: e7e0 7a3d bd0d 49bd d214 06be f695 0c3c
00000060: 0e62 693c a91b de3c d2d5 8cbd dcae 8dbd
00000070: d518 ffbd 9b51 9abd 3b77 03be c5e2 d33d
00000080: de80 31bd 6793 ac3c 3126 443d 2eeb c3bb
00000090: f38f c8bd e8a1 5e3d 0038 debd 6fc3 0a3e
000000a0: 0161 303d 1655 7c3c cd71 293d 00fc 273e
000000b0: 20cf 75bd 54b8 153e c55c e13d b8f1 833d
000000c0: 4ee0 e8bd bb84 cdbd 85e1 823d a5e4 79bc
000000d0: 5e2b bcbc 3ab2 bd3d 5b89 86bd f1da a63b
000000e0: 5624 09be edee 40be bd3d ab3c c99f c83d
-0.06429517 4.9536782e-05 -0.027773278 0.121338874 -0.03293412 -0.12886848 0.046134755 0.07497303
-0.06100089 0.10013855 -0.12966824 0.031300075 -0.12871152 -0.015489348 0.12525313 -0.060056448
0.09439845 0.09621211 -0.012547873 0.14213754 0.06124964 -0.049085367 -0.1309388 0.008580675
0.014244569 0.027112799 -0.068767205 -0.069181174 -0.12455908 -0.07535096 -0.12838452 0.10345987
-0.043335788 0.02106638 0.047887985 -0.0059789633 -0.09793081 0.054353625 -0.10850525 0.13551114
0.04306126 0.015401145 0.041368295 0.16404724 -0.060011983 0.14621097 0.110040225 0.064425886
-0.11370908 -0.10035082 0.06390671 -0.015252267 -0.022969898 0.0926251 -0.06569167 0.005092018
-0.13392767 -0.18841143 0.020903463 0.097961016

linear_relu_stack.4.weight f4 [40, 60]
00000000: b13f edbd 1aa1 1d3d 8a79 c3bb 567b 403e
00000010: a808 173c ebf4 cdbd 6faf b7be b8e3 8a3d
00000020: e37c eebd b640 3fbe 008c 68b9 4b18 25bd
00000030: 752d debc 1422 343e b5d8 dfbd 9057 663c
00000040: 9383 65bd 6761 983d fa66 63bd 120a 9a3d
00000050: 9baf 01be df41 02bd 007e 8e3b b32d 14bd
00000060: da2b 0e3e 252f 6d3b 36d4 44be ec18 2a3a
00000070: ffc0 903d 7b29 153e 7928 0bbe 4033 9d3d
00000080: 0931 bcbe 51d4 5d3f 9c8c b3bd ba1e 193e
00000090: 17f2 8c3e b05c 10be ac1b b0bd 6428 103e
000000a0: 6065 20be ae6a 5c3e 88a3 103e 2a10 c33c
000000b0: e315 0b3e 3f54 483e ac95 2c3d b0e9 be3d
000000c0: 4b27 59be 77de b4bd d84b 7dbe abbc 743d
000000d0: a35f d63d e4d8 3f3e 2ef8 953e 0f43 adbc
000000e0: e6bb fb3c 3728 95bf f4a3 49be e75e 5ebd
000000f0: 08fb 7ebc 3888 263d 8bf3 42bd 3863 503e
00000100: d9ef 083e d9a3 a2bd ba3c 8bbe b828 133e
00000110: 50c1 e93d 9d97 533e 6c80 3e3d e5bb d33d
00000120: 1fd8 a1bd c5e6 c7ba e76e e3bd 44a4 b7bc
00000130: 26b6 093e ec7c 2a3e c5da 2cbd 5620 e93d
00000140: a0cb 9dbd e096 e5be e096 793d f4d9 00be
00000150: 9dcc 4d3d 70d9 fd3d cbb0 9dbd fb9d abbd
00000160: 5141 b83d 6f5f fd3d 00c8 c5bd 7149 373d
00000170: e4d5 76be dc38 183e 60c4 5fbd a76b 7d3e
00000180: 0533 26bc 78fc edbd 0f44 db3d b402 083e
00000190: 578d a03c c67d ee3d d1f8 4c3e 8225 a33d
000001a0: 276a 513d a5ce fb3d fe1f cfbd 40a1 353e
000001b0: 75c2 85bd 8d03 a33d 4a4d 693d 3dd4 b23d
000001c0: 610f 003d 6364 94bc ab9d 083e 6b1e 10be
000001d0: 554c 9b3c ba73 08bf d601 89bd c801 d23d
000001e0: acf2 053e 6bf8 45bd 84c0 8abd 9509 d4bd
000001f0: 079d d03d 9ea3 7e3d d279 b83e 831f 50be
00000200: 2eeb fb3d fff2 bb3e a215 c6bd 6f84 1b3d
00000210: 1903 483e 8a9b 0ebd 33de 143e 08fe a3bd
00000220: a3de fd3e 911e f63d 7f40 2b3e a257 99bd
00000230: 1aed e8bb d610 e03e a2d0 ebbd 16e0 03bf
00000240: 1192 65be d52e 10be a9ad 81bd bbbd cd3d
00000250: d997 d1bd b3ea c9bd 132d b9bd 1c63 693c
00000260: 129b 213f f56f f4be cd8e 57be 4a7a f7be
00000270: e3fb 06bd b200 4abb b6a8 7b3c ed58 b43d
00000280: d3ce dd3d 9981 1a3e 97de 3f3d 53c3 c7bd
00000290: 019d cfbd 9f59 09be 0bd7 5dbd 5b35 fdbd
000002a0: 817f 043c 7740 debd c54d c33e 65ee 2e3d
000002b0: 8d4a 5ebd d721 bebd 5d37 883c 5256 b7bd
000002c0: 99ac 1e3e 39a7 593e 57b0 ba3d 4615 b6bd
000002d0: 88aa febc 6317 04be 6963 81bc 0bf1 1fbe
000002e0: 9ede c4bc 3052 f9bd cfda 853e 1290 efbd
000002f0: d8dc e03c 7713 193e e030 ce3d 2919 81bd
00000300: 85df 0ebd aa1f 56be f23a 87bc e46f 99bc
00000310: da04 8b3b 3d67 cd3d 64e1 f63d 9c00 10be
00000320: f8fa 913d a063 9fbe a4cc 8c3d d047 44bd
00000330: 5025 2a3e 8113 9d3d 9043 023e 6a1f 103e
00000340: 88f8 b63d a050 fdbd 88cc 4b3d a681 14ba
00000350: 2c92 f73d de60 1b3e 44ab bebd 2053 c03d
00000360: d620 cabd 63c4 d9bd 3ad4 993c 950e aabd
00000370: 0cfa 753d 57c0 b93c ecc3 a4bd 10b4 a2bd
00000380: f153 073e 5913 83be 7966 0c3d 6e6e 393c
00000390: b7d6 a03e 7ff6 d5bd 67e2 ba3d e280 b63d
000003a0: 5ee6 9cbc d170 aebd b2b4 8e3d aee6 4b3b
000003b0: 6d32 2c3e a2e9 61be c980 203e b7e5 babd
000003c0: cc97 1b3d c8b9 cfbd e88b af3c 271b 18be
000003d0: 1725 7a3d 0809 9b3c eece 1c3f e908 22be
000003e0: 6006 b73b b3d1 813e 26a5 b53d f108 bf3d
000003f0: 1532 5f3e 4088 533c 8b75 953d a0b3 363d
-0.11584414 0.038483717 -0.0059654163 0.18797049 0.009218372 -0.1005648 -0.35876033 0.06781715
-0.11644914 -0.18677029 -0.00022177398 -0.04030637 -0.027121285 0.17591125 -0.109300055 0.014058962
-0.056033682 0.07440453 -0.055518128 0.07521452 -0.12664644 -0.0318011 0.0043485165 -0.036176395
0.13883916 0.003619143 -0.19221577 0.0006488699 0.07068061 0.14566605 -0.13589658 0.07675791
-0.3675616 0.86652094 -0.087670535 0.14953128 0.2752845 -0.14097857 -0.08599028 0.14077908
-0.15663671 0.2152507 0.14124882 0.023811419 0.13582568 0.19563387 0.042134926 0.09321916
-0.21206395 -0.08831494 -0.24735963 0.05975024 0.1046746 0.18735081 0.2929091 -0.02115014
0.030729245 -1.1652898 -0.1969145 -0.054289725 -0.01556278 0.040657252 -0.047595542 0.20350349
0.13372745 -0.07941408 -0.27194768 0.14371002 0.114138246 0.20663305 0.04650919 0.103385724
-0.0790255 -0.001525127 -0.11105137 -0.022417195 0.1344839 0.16649216 -0.042200822 0.11383121
-0.07704854 -0.4484167 0.0609349 -0.12583143 0.050243963 0.123949885 -0.07699736 -0.08379742
0.08996833 0.12371718 -0.096572876 0.044747774 -0.2410503 0.1486544 -0.054630637 0.24748097
-0.010144 -0.1162042 0.107063405 0.13282281 0.019598646 0.11645083 0.20016791 0.079661384
0.051126625 0.12295274 -0.10113524 0.17737293 -0.0653123 0.07959662 0.056958474 0.087318875
0.031264666 -0.018114274 0.13341396 -0.14074104 0.018957296 -0.53301585 -0.06689803 0.10254246
0.13080853 -0.048332613 -0.06775001 -0.1035339 0.101862006 0.062167756 0.36030442 -0.20324521
0.12300716 0.3670883 -0.09672095 0.037968095 0.19532432 -0.034816302 0.14537887 -0.08007437
0.4958392 0.12017549 0.16723822 -0.07487418 -0.007108343 0.43762845 -0.11514403 -0.51513803
-0.22419001 -0.14080365 -0.06331951 0.10045954 -0.10234041 -0.098592184 -0.090418 0.014244821
0.63127244 -0.47741666 -0.21050568 -0.48335487 -0.03295506 -0.0030823168 0.015360048 0.08806024
0.10830464 0.150885 0.046843138 -0.09754052 -0.10137368 -0.13413094 -0.05416016 -0.123636924
0.00808704 -0.108521394 0.3814527 0.04270782 -0.054270316 -0.09283798 0.016627962 -0.08952011
0.15495528 0.21255197 0.091156654 -0.08890776 -0.031087175 -0.12899546 -0.015794473 -0.15619294
-0.024031933 -0.12173879 0.261435 -0.11697401 0.027449057 0.14948831 0.10067916 -0.06303627
-0.034881134 -0.20910516 -0.0165076 -0.018730111 0.0042425217 0.10029457 0.120547086 -0.14062732
0.071279466 -0.31130695 0.068749696 -0.04792005 0.16615796 0.07669736 0.12721086 0.14074484
0.08934122 -0.123688936 0.049755603 -0.0005665071 0.12088427 0.1517367 -0.0931001 0.09390855
-0.09869544 -0.10633161 0.018777955 -0.083035626 0.060052916 0.022674723 -0.08045182 -0.079445004
0.13215615 -0.256007 0.034277413 0.011317832 0.31413814 -0.10447406 0.09125214 0.08911301
-0.019152816 -0.08517612 0.06968059 0.0031112838 0.16816111 -0.2206178 0.15674128 -0.09125846
0.03798656 -0.10142857 0.021429017 -0.14854108 0.061070528 0.018925205 0.6125325 -0.15823711
0.0055854768 0.253553 0.0886939 0.09327877 0.21796449 0.0129109025 0.0729781 0.044604897

linear_relu_stack.4.bias f4 [40]
00000000: 59a7 473d f2cd f43d 796e a93d b2ac 6a3d
00000010: c74c abbd 0c14 9f3d 6948 c0bd eeb6 43bd
00000020: 8900 b1bd c0a9 00bb 146d 09be 2ad9 633d
00000030: 122d 7ebd 96fd d03d 6d43 b6bd 43fd 1e3d
00000040: 59ed 073e 98bd 47bd d2fe b3bd 5c73 933c
00000050: 76c3 7cbd 7368 34bb 5d48 553d 4acb cc3d
00000060: 6c0d 87bd 5756 dcbc 4986 a73d e3cf 513c
00000070: 9427 da3a 5327 113e ba2d 2cbd 89f2 d73d
00000080: 77d1 ee3d 32f8 e53c 5563 60bd 23db a5bd
00000090: 1b02 b03d df32 2bbe 33fb 063d c041 93bd
0.04874358 0.119533435 0.08273024 0.0572936 -0.083642535 0.077674955 -0.09388811 -0.047781877
-0.0864268 -0.001963243 -0.13420516 0.055627026 -0.0620547 0.10204618 -0.08899579 0.038815748
0.13274135 -0.048764795 -0.087888375 0.017999344 -0.061709844 -0.0027528077 0.052070964 0.09999712
-0.06594357 -0.026896639 0.0817991 0.012805912 0.0016643875 0.14175157 -0.042035796 0.10544307
0.11661046 0.02807245 -0.05478223 -0.08098438 0.085941516 -0.16718625 0.032954406 -0.07190275

linear_relu_stack.6.weight f4 [50, 40]
00000000: 17f9 a3be 459a a23c db43 843e f8c4 323e
00000010: 4177 fb3e 4ffe 0cbc eb79 71bd a663 cc3d
00000020: 87c7 213e fc35 39bd 08d1 d23d ebbc fcbd
00000030: 003c 233f e0c5 413d 0f28 fc3c 3b56 c4be
00000040: 3b4a 17be 2411 9c3d 45ec fc3c ebb6 c7bd
00000050: c8fc 08be af4f f13d 3557 90be 0c07 92be
00000060: 3142 acbc 69e8 f23d ab4b 043e 90e6 9a3e
00000070: ffb7 a5bd e39f c13d 3de3 9b3d f686 85be
00000080: 418a 2f3e 5447 bfbd 6105 36be 3d51 e2bd
00000090: 76e7 32be b4dc f53d 2709 3a3e 4e1f f23d
000000a0: a6b5 70be a3a0 81bd 41da 90bd 1def d23c
000000b0: 6114 a23e 8893 df3d 0cd0 27bd 7abd e23d
000000c0: 6e55 c23d 3cf6 00be 4430 2ebd 15e8 4dbe
000000d0: c9b9 9c3e b554 0fbe b08d bebd efd1 48be
000000e0: 77e9 30be 2a84 033e b757 13be 6e6f 23be
000000f0: 4001 79bb 9ce9 8d3d ab13 84be 1539 28bd
00000100: de98 0abe 5dd3 ac3c e574 d2bc d4d5 5f3d
00000110: 3309 dbbd bed6 b73d eaa6 8f3c 233c f3bc
00000120: 69da 69bd 78b0 e13d b305 eabc a9ff 96bd
00000130: 7fa6 eabc d0f9 9d3d f58a 91bd 452c 3f3e
00000140: 5dd4 1abe 933c 69be 3407 3fbd db5c 143d
00000150: 46c9 e13e 466c acbc 085c b33b de0d 33bd
00000160: c497 c8bc fe89 75bd dc24 fd3d cf44 a7be
00000170: e473 eb3e 6f29 a8bc 7f46 23be 12ec 6fbd
00000180: afba 1bbe e457 ebbd 0f24 1abe 563d 20bd
00000190: 9cc5 163d b0d4 0abe 8650 0b3d 2d83 a6bc
000001a0: 14e0 a13d 0ff6 a53b 5d96 8cbd 460e c13c
000001b0: d518 5a3e cc31 153d d393 be3c 27dc 3abe
000001c0: e29c 1b3e 8e81 f23d 0fab 993c eab5 91be
000001d0: 1663 d6bc 98a0 b93c 208a 823e cc2e 4c3e
000001e0: a992 123e 9a25 edbd 7c17 c5bc fa8d 523d
000001f0: d184 00be 7c2b 8e3d f7ba efbd 58a1 a23d
00000200: 0078 12bd 8ede 02be 9be5 e7bd d0b9 1bbc
00000210: d600 b43d 6e6d e7bd 5143 1cbe 80ee 4bbd
00000220: 6f1e acbd 2eff adbd 6437 14bc 2632 8abd
00000230: c07d 213c 0802 14bd 80a1 63bd 3a23 dcbd
00000240: 0028 09be d3fd a23d 8e37 ddbd 87c4 d13d
00000250: 8663 dc3d 90a7 423c b468 1a3d c496 a83d
00000260: 2ec7 02bd a865 76bd 3de4 193e 8d64 053e
00000270: 512a 0dbe 5202 d93d 56cf fdbc ee52 c8bd
00000280: c703 033e c7c3 803d ca91 d63b 7f52 803d
00000290: caff d2bf aa62 77bd de8e f23d 846f 8f3d
000002a0: d104 fabe 7b6a 89bd 84eb 0a3e 60fa 2c3e
000002b0: 82ac 0fbf 98da 42be b0db a8be 27c3 b73d
000002c0: 9313 b73d ea3e 9cbd 72fa 3b3e aab1 a03d
000002d0: d01f 10bc 6d28 993d 26dd 353d c9aa 873d
000002e0: 7a82 ccbd 55e0 51be 12d6 8c3d 19c4 01bf
000002f0: a644 b2be b41e 213e 5a50 2fb9 421f e0bb
00000300: 2751 54bd 9abc 17be 5e5a e7bb ba4e 123e
00000310: fddc aabd e6ee 9c3d aad8 0abe d602 9ebe
00000320: 4634 83be 1e1d 023e 522d 733e 9773 c13d
00000330: ca9e e53e c3df 063e 3d72 1c3e 2085 da3b
00000340: 6917 b23d f5ba 0bbe 2d1c 93bb ec60 26be
00000350: 1848 0f3f 22f2 383d 477a 0c3d a53d 8dbe
00000360: d6a2 c6be 0620 9a3d 86c3 edbd 7544 953d
00000370: c890 e83d 7c38 9f3d ad67 81be 290e 82be
00000380: 13a8 083d eba4 983d c126 9bbb 6897 0b3d
00000390: b4b1 8cbd 7693 0f3c 0690 963d fd4f 32be
000003a0: f459 ce3d 1aaf 1e3d fb34 acbb b432 8ebd
000003b0: 4ef1 ccbe 66b9 e73d 4f3c e03d cef4 523e
000003c0: 4ab1 3dbf 72cd e53c abda af3d bd6f 103c
000003d0: b3b3 bd3e c8ae 84bc be53 9e3d 753e 13be
000003e0: b004 e63c 4c6f 653d f927 023e ed04 d9be
000003f0: bf66 b13f 6d18 283d 6174 a33e cd4c 6dbe
-0.32025978 0.019848952 0.2583302 0.1745795 0.4911442 -0.008605554 -0.05895416 0.09979944
0.1579877 -0.0452175 0.10293776 -0.12340721 0.6376343 0.04730785 0.03078082 -0.3834704
-0.1477441 0.07620457 0.03087438 -0.09751686 -0.13377678 0.117827766 -0.28191534 -0.28521
-0.021027656 0.11860735 0.1291949 0.3025403 -0.08091735 0.09454324 0.07611702 -0.2607953
0.17142583 -0.09339777 -0.1777549 -0.11050651 -0.17471108 0.120049864 0.18167554 0.11822377
-0.23506793 -0.06329467 -0.07072879 0.025748784 0.31656173 0.10916811 -0.040969893 0.11071296
0.09488951 -0.12593931 -0.0425265 -0.20108064 0.30610493 -0.13997157 -0.093043685 -0.19611333
-0.1727656 0.12843385 -0.1438893 -0.15960476 -0.003799513 0.06929323 -0.25796255 -0.041070063
-0.13534877 0.02109688 -0.025690505 0.05464728 -0.10695114 0.08976506 0.017535646 -0.029691761
-0.057093058 0.11019987 -0.02856717 -0.07372982 -0.028643845 0.077136636 -0.07106582 0.18669231
-0.15120073 -0.22777013 -0.04663773 0.036221366 0.44098872 -0.021047723 0.0054736175 -0.043714397
-0.02448643 -0.059946053 0.12360546 -0.32669684 0.45986855 -0.02052757 -0.15944861 -0.058574744
-0.15207933 -0.11491373 -0.15052818 -0.039120995 0.03680955 -0.13557696 0.03401234 -0.020326221
0.07904068 0.005064733 -0.06864617 0.023566376 0.21298535 0.036424443 0.023263847 -0.18248044
0.15196565 0.11841117 0.018758325 -0.28459102 -0.026170295 0.022659585 0.25496006 0.19939727
0.14313759 -0.115794376 -0.02405905 0.05140493 -0.12550665 0.06941888 -0.117055826 0.0794093
-0.035758972 -0.1278021 -0.11323091 -0.00950475 0.08789222 -0.11300169 -0.15260054 -0.049788
-0.08404242 -0.08495937 -0.009046409 -0.06747846 0.009856641 -0.03613475 -0.05557394 -0.107489064
-0.13394165 0.079585694 -0.10801612 0.10242563 0.1076117 0.01188077 0.03769751 0.08231881
-0.031928234 -0.06015554 0.15028472 0.13026638 -0.13785674 0.10596146 -0.030982655 -0.097814426
0.1279441 0.062873416 0.006548141 0.06265735 -1.6484311 -0.060396828 0.11843656 0.07003692
-0.488318 -0.06709763 0.13566405 0.16892385 -0.561226 -0.190287 -0.32980108 0.08972769
0.0893928 -0.076291874 0.18357256 0.07846387 -0.008796647 0.07478414 0.044400357 0.066243716
-0.09985824 -0.20495732 0.06876768 -0.50689846 -0.34818 0.15734369 -0.00016719234 -0.0068396637
-0.051835205 -0.1481804 -0.007060333 0.14287844 -0.083429314 0.07662754 -0.13559213 -0.3086154
-0.2562582 0.1270642 0.23747757 0.09445875 0.4484771 0.13171296 0.15277953 0.006668702
0.086958714 -0.13645537 -0.004489443 -0.1624791 0.5596938 0.04515279 0.0342963 -0.27586094
-0.3879611 0.07525639 -0.11609559 0.07288448 0.1135574 0.077744454 -0.2527441 -0.25401428
0.033363413 0.074533306 -0.0047348444 0.03407994 -0.06869832 0.008763185 0.07351689 -0.17413326
0.10075751 0.03874121 -0.005255339 -0.069432646 -0.4002785 0.11314659 0.10949003 0.20601198
-0.74098647 0.028052066 0.085866295 0.008815703 0.37051162 -0.016196623 0.07730816 -0.14379294
0.028078407 0.056014344 0.12710561 -0.4238657 1.3859481 0.04103892 0.31924728 -0.23173828

linear_relu_stack.6.bias f4 [50]
00000000: 2fd6 1abd 62da e73d 9b6a 043e ec25 bdbc
00000010: c4c6 f83d ff15 b4b9 8b42 7fbd 959c 133d
00000020: e178 a9bd 4d8f 813d 2ee6 30be b673 1dbe
00000030: ff6b cbbd 5732 c23d c6d8 c13d 87b8 82bd
00000040: a60d f9bc 86e5 08be 14fb e73d ae2d 7c3d
00000050: 20ca ef3d a461 cb3d ba0e d2bd 48e3 f03c
00000060: b2ed 23be 738b 223e 1931 173c 364e 35bd
00000070: a718 483d ffdc cebd e836 ca3d c43c 84bd
00000080: c01b 803d d0ec 61bc 239d 3f3d d522 8abd
00000090: 3571 73bd 115e bd3d f4fc aa3d ca65 a83d
000000a0: 14e9 dfbc 4a30 1e3e 0cf4 173e 07f9 2e3d
000000b0: cc32 b73d 776c d9bd ae12 44be f21e 7fbc
000000c0: 7470 453d a42a ed3d
-0.037801918 0.1132095 0.12931292 -0.023089372 0.121472865 -0.00034348664 -0.06231932 0.036038
-0.08275009 0.063261606 -0.17275307 -0.15376171 -0.09932708 0.09482258 0.094651744 -0.06382852
-0.030402016 -0.13368806 0.11327186 0.061567 0.11708474 0.09930733 -0.10256715 0.029405251
-0.16008642 0.15873508 0.009228014 -0.04426404 0.048851635 -0.101007454 0.09873754 -0.064569026
0.06255293 -0.013789371 0.046780717 -0.06744925 -0.059434135 0.09246457 0.08349028 0.0822254
-0.02733282 0.15448108 0.1483919 0.04271796 0.089452356 -0.10616391 -0.1914775 -0.015571343
0.048202947 0.11580399

linear_relu_stack.8.weight f4 [1, 50]
00000000: 5fdb 8dbe 0bbc e3bd 3cb7 01be 3a42 4d3d
00000010: b4c1 0e3e 427c a9be 58fb bd3e fa0b 1fbe
00000020: 9503 433f 961b 8f3e 1e62 0f3e 6acf 65bd
00000030: ea7e 1438 64c4 6a3e c1b1 dc3d fcbe 57be
00000040: f269 2ebe aeb9 3cbf 982c f23d 04ed 2e3e
00000050: be7a 673e c129 7d3e ce14 e13d a658 97be
00000060: 241d a93d e833 413e 1290 493e 98b8 9e3d
00000070: f469 20be 9312 ab3c 6030 0f3d 9681 19bd
00000080: 9d36 45be 6f23 b73e d5b0 223e 025f c53e
00000090: 5a8f 3cbd 7fa9 4cbe c462 3e3e 4f8a 68be
000000a0: 03a1 56bc 6ac6 8d3d 8371 9d3d 23fa 7bbe
000000b0: 5e19 5c3d 805e aa3e f98c d0bc 5323 52bd
000000c0: ee29 15be 6951 ff3d
-0.2770643 -0.11119851 -0.12667555 0.050111987 0.1394108 -0.33102614 0.37105823 -0.15531912
0.7617734 0.27950734 0.14002272 -0.05610601 3.5404148e-05 0.2292648 0.10776091 -0.21068949
-0.17032602 -0.73720825 0.11824912 0.17082602 0.22605416 0.24722959 0.10990296 -0.2955982
0.08257511 0.18867457 0.19683865 0.07750052 -0.15665418 0.02088288 0.034958243 -0.0374771
-0.19259115 0.3576922 0.15887769 0.38549048 -0.04603515 -0.19986533 0.18592364 -0.2270901
-0.013099912 0.0692261 0.07687666 -0.24607138 0.05373513 0.33275223 -0.025457846 -0.05130322
-0.14566776 0.124667
