Checkpoints/ANN_128_v4.pth (torch, 25314 bytes, 15 tensors)

fc1.weight f4 [32, 11]
0.39200538 -0.09492812 -0.17012075 0.10240977 -0.059070718 0.24850595 -0.037035808 0.099515185
0.14546573 0.17298234 0.1073642 0.07414202 0.18936741 0.011882014 0.1912396 0.06268909
-0.23491938 -0.19369923 -0.10462549 -0.20087838 0.005427179 0.050453972 -0.35246417 0.4957645
0.42637205 0.031784218 -0.025593216 -0.16473553 0.20680732 0.2594972 0.03082023 0.07047898
-0.08680057 -0.19117862 -0.026524736 -0.050377816 -0.052910414 0.18104084 -0.0808274 0.21313879
0.19951728 -0.090987384 0.25544432 0.22931236 -0.09989729 0.21237917 -0.22397973 0.0050887954
-0.0049579623 -0.030153902 0.010697889 0.030819597 0.010826811 0.008598014 0.0086232545 -0.207216
0.13851911 0.20745079 0.14038378 -0.14013925 0.13614629 -0.11827078 0.15576214 0.33773136
-0.00043079062 -0.08466285 -0.07321443 0.20773727 0.06694051 0.011996358 -0.0050526266 -0.056264322
0.004577233 0.05818633 -0.0029855494 -0.03313068 -0.0076573356 -0.08829533 0.24139169 0.19581021
0.19258653 -0.09374897 -0.023850158 -0.024660332 0.2844004 0.19879425 0.17279057 0.11062713
0.0594338 -0.19233342 -0.2464215 0.0983701 -0.12553518 0.31302017 0.15775296 -0.21002531
0.015570265 -0.13808122 0.021553474 0.30223697 0.18498892 -0.27610463 0.22972542 -0.24410352
0.03875314 0.1713549 -0.08088333 -0.20192638 0.02799088 -0.14404473 -0.008654742 0.18859689
-0.16951337 0.20742942 -0.16415584 -0.03479898 -0.04688492 6.8710113e-35 0.32891786 0.18044865
6.8738226e-35 0.05888014 0.0059313853 0.18932892 0.061119318 0.081189945 0.27407324 -0.09526494
0.23418593 0.18569547 -0.09381207 -0.006028579 0.011668882 -0.27319044 -0.22347248 0.18033938
-0.09430967 -0.08496359 -0.043785352 -0.00086700375 0.075372525 -0.031481486 -0.0655105 0.20318048
0.19675028 0.5362372 -0.2238942 0.2221201 -0.17895393 0.11623762 0.04086611 -0.023457201
0.16779685 -0.122096404 -0.048967477 -0.11897132 -0.017640164 0.11425043 -0.1473046 0.24381876
0.01944364 0.02930875 0.2780112 -0.07502737 -0.21452709 -0.11692177 0.306012 0.14472803
0.25213504 0.025495036 0.09414216 0.17205451 0.13975494 0.29485157 0.23611563 0.25091675
0.035288867 0.13581644 -0.08795732 0.110935554 0.30269852 -0.21251449 0.030859945 0.009199423
0.06359837 0.1645437 -0.28210714 -0.13043283 0.09097877 0.3104583 0.016672773 0.021987246
-0.060555134 0.23795745 0.10685878 -0.028100291 0.29010162 -0.07415922 -0.26203823 -0.09389524
0.25915906 0.10376007 -0.10409607 0.22265515 0.24296531 -0.11378805 6.8717276e-35 -6.8798286e-35
0.2352075 0.15118943 0.27142802 0.013716902 -0.11338963 -0.016302524 0.14889206 -0.1992951
-0.1650834 0.14820275 -0.15026896 0.037467282 -0.35345158 -0.28182933 0.35620904 -0.22471632
0.2201624 -0.2761628 0.056433994 0.07456806 0.017161261 -0.2292041 0.014377486 0.39995497
-0.12413494 -0.506571 0.05773904 0.2252041 0.21872136 0.26283622 0.28190914 0.12771957
0.3404881 0.17143428 -0.25313807 0.20005766 0.2558134 0.3577497 -0.059136346 0.16547652
0.31095174 -0.006036123 0.03331161 0.119800374 0.014630417 0.08843418 0.0051085036 0.5011925
00000000: eeb4 c83e ad69 c2bd 2234 2ebe 37bc d13d
00000010: 23f4 71bd 5878 7e3e dcb2 17bd 9ece cb3d
00000020: f8f4 143e 4822 313e c3e1 db3d c5d7 973d
00000030: 88e9 413e c7ac 423c 50d4 433e 2363 803d
00000040: b58e 70be 1759 46be e445 d6bd 10b3 4dbe
00000050: 7ad6 b13b d3a8 4e3d 2f76 b4be d8d4 fd3e
00000060: 704d da3e 2b30 023d dda8 d1bc 6eb0 28be
00000070: 4cc5 533e d1dc 843e b57a fc3c 4957 903d
00000080: 7fc4 b1bd 54c4 43be 674a d9bc f858 4ebd
00000090: 97b8 58bd c562 393e d688 a5bd 0e41 5a3e
000000a0: 424e 4c3e 9857 babd 99c9 823e dcd0 6a3e
000000b0: f396 ccbd ed79 593e f15a 65be e9bf a63b
000000c0: 6776 a2bb 5105 f7bc 3346 2f3c 6179 fc3c
000000d0: f062 313c afde 0c3c 8d48 0d3c 6e30 54be
000000e0: f4d7 0d3e fb6d 543e c4c0 0f3e aa80 0fbe
000000f0: ef69 0b3e f337 f2bd 1c80 1f3e 20eb ac3e
00000100: bddb e1b9 b763 adbd 72f1 95bd 14b9 543e
00000110: 1b18 893d 5f8c 443c 8190 a5bb 6b75 66bd
00000120: 9dfc 953b ca54 6e3d 35a9 43bb 09b4 07bd
00000130: 63ea fabb 2fd4 b4bd 622f 773e 7982 483e
00000140: 6735 453e 76ff bfbd 6861 c3bc 7704 cabc
00000150: ee9c 913e b890 4b3e 03f0 303e 7a90 e23d
00000160: db70 733d 0df3 44be eb55 7cbe 4376 c93d
00000170: 4b8c 00be 2e44 a03e fe89 213e e010 57be
00000180: 6d1a 7f3c 2a65 0dbe e990 b03c cebe 9a3e
00000190: bc6d 3d3e 965d 8dbe 243d 6b3e 46f6 79be
000001a0: 9dbb 1e3d a977 2f3e 29a6 a5bd cac5 4ebe
000001b0: 214d e53c 7680 13be 9ecc 0dbc 8b1f 413e
000001c0: ea94 2dbe 6168 543e 7818 28be 6089 0ebd
000001d0: 670a 40bd aea9 b606 ec67 a83e 88c7 383e
000001e0: d0bc b606 4d2c 713d 115c c23b 71df 413e
000001f0: 4058 7a3d ea46 a63d 5453 8c3e 441a c3bd
00000200: 70ce 6f3e f426 3e3e 8b20 c0bd 638b c5bb
00000210: d72e 3f3c 9edf 8bbe f8d5 64be e3aa 383e
00000220: 6e25 c1bd 6401 aebd 4558 33bd a347 63ba
00000230: e95c 9a3d bbf2 00bd 5e2a 86bd 8b0e 503e
00000240: e878 493e d746 093f 8544 65be 7473 633e
00000250: b33f 37be fd0d ee3d 3963 273d 5129 c0bc
00000260: f0d2 2b3e ae0d fabd 1f92 48bd 3ca7 f3bd
00000270: 1b82 90bc 21fc e93d 04d7 16be a0ab 793e
00000280: 4548 9f3c e718 f03c 7c57 8e3e f3a7 99bd
00000290: fdac 5bbe ae74 efbd 9bad 9c3e 9633 143e
000002a0: d817 813e f7da d03c 9bcd c03d 0f2f 303e
000002b0: eb1b 0f3e c9f6 963e 4cc8 713e 2978 803e
000002c0: 0f8b 103d 7713 0b3e f822 b4bd 2e32 e33d
000002d0: 4dfb 9a3e 669d 59be ffcd fc3c 2db9 163c
000002e0: dd3f 823d 257e 283e 5970 90be 2f90 05be
000002f0: 1453 ba3d 64f4 9e3e 5795 883c 991e b43c
00000300: a908 78bd 1eab 733e c7d8 da3d 9532 e6bc
00000310: 3388 943e cae0 97bd e029 86be 264c c0bd
00000320: 7fb0 843e 2980 d43d 5230 d5bd b6ff 633e
00000330: e6cb 783e b609 e9bd 8eae b606 b0e5 b686
00000340: 3cda 703e 67d1 1a3e 9df8 8a3e dbbc 603c
00000350: d338 e8bd df8c 85bc 2977 183e 0414 4cbe
00000360: 9f0b 29be 76c2 173e 1be0 19be 4b77 193d
00000370: 9bf7 b4be ef4b 90be 0861 b63e 091c 66be
00000380: 4172 613e 3665 8dbe 5527 673d 24b7 983d
00000390: c695 8c3c 7bb4 6abe 8c8f 6b3c e6c6 cc3e
000003a0: 763a febd a3ae 01bf c67f 6c3d e79b 663e
000003b0: 7ef8 5f3e 7892 863e 6556 903e ebc8 023e
000003c0: 7554 ae3e 788c 2f3e 509b 81be eadb 4c3e
000003d0: f9f9 823e f82a b73e f438 72bd ad72 293e
000003e0: 1135 9f3e abca c5bb c171 083d e659 f53d
000003f0: 6bb4 6f3c fb1c b53d 3c65 a73b 274e 003f

fc1.bias f4 [32]
-0.04711162 0.12998515 -0.038414788 0.15250057 0.005520698 0.10267072 -0.018944638 -0.07522716
0.35048705 0.053937413 -0.15036057 0.16805042 0.019778902 -0.08797542 0.34881777 0.31936044
0.27603063 -0.096256256 -0.17343123 0.159394 0.2469678 -0.20076917 0.12844045 -0.072544
0.23597692 -0.2329928 -0.003346956 0.04982683 0.2984434 -6.8666055e-35 -0.044522315 0.08160117
00000000: 1df8 40bd d41a 053e d358 1dbd 1c29 1c3e
00000010: f9e6 b43b 0745 d23d c931 9bbc b210 9abd
00000020: 0a73 b33e 7aed 5c3d 1ff8 19be 6915 2c3e
00000030: 5d07 a23c 752c b4bd 3e98 b23e 3683 a33e
00000040: e353 8d3e 0022 c5bd f597 31be 2e38 233e
00000050: 21e5 7c3e 6f96 4dbe e585 033e f391 94bd
00000060: efa3 713e aa95 6ebe 9b58 5bbb 3817 4c3d
00000070: 93cd 983e b28b b686 085d 36bd 841e a73d

fc2.weight f4 [32, 32]
6.878139e-35 -6.877533e-35 6.8798286e-35 -6.879884e-35 6.87094e-35 6.872684e-35 6.878598e-35 6.879884e-35
6.876238e-35 6.880251e-35 -6.868295e-35 -6.866826e-35 -6.8677603e-35 -6.879884e-35 6.875161e-35 -6.866826e-35
-6.869783e-35 -6.871709e-35 6.880288e-35 -6.87004e-35 6.8717276e-35 -6.877404e-35 -6.8710113e-35 -6.8694524e-35
6.8700034e-35 -6.8777164e-35 6.878598e-35 -6.880251e-35 6.877404e-35 -6.87094e-35 6.8734346e-35 -6.8756593e-35
0.15058404 0.08064939 -0.19284536 -0.12165412 0.4161387 -0.012719011 0.5765252 -0.0040951846
-0.04181115 0.05087878 0.28755674 -0.08095931 0.18553272 0.24803023 0.097747885 0.10234046
-0.09328411 -0.22355227 -0.09029212 0.15134335 0.009488139 0.038664844 0.16749138 0.091406755
0.037159562 0.13590291 0.17271227 0.11883103 -0.17996414 0.094562076 0.07072994 0.018131917
0.19845183 0.065317914 0.1360234 0.020350587 -0.124280065 -0.09099532 0.42417663 0.06189138
-0.0964118 0.2880838 0.06108671 0.09313659 0.039462578 -0.06411016 -0.00455856 0.101715766
0.12526558 -0.080874 -0.22161873 0.25063455 -0.4020249 0.11350703 -0.14086124 0.13520624
-0.0024274492 -0.107351825 0.20639451 0.13270228 -0.17665623 0.20057613 -0.11275848 0.07247488
-0.082415156 0.036819767 0.17308722 -0.1729967 0.30495244 -0.088201515 0.31473306 0.06373697
-0.010763585 0.18350253 -0.14902437 0.13476747 -0.075502895 0.052928984 0.04252959 0.11410373
0.012808798 0.11081194 0.03312561 0.10775462 -0.12525725 -0.067640826 -0.10987979 0.17690302
-0.1457374 -0.20028922 -0.110300615 0.005270781 0.07320361 0.2659002 -0.09595045 0.036509577
-0.14491767 0.1206226 -0.029143695 0.10889873 0.962815 0.024557913 0.7231538 0.031905893
-0.21402772 -0.02117489 -0.08417323 -0.035066634 0.08871463 -0.06846082 -0.01781621 0.15716377
0.036395945 0.17297925 -0.5179824 0.14148577 -0.87896 -0.15030847 0.054411374 0.12178278
-0.05059816 -0.15312463 0.01753425 0.07258323 -0.21777894 0.19716114 -0.14963835 -0.047334094
0.11482043 -0.09101389 -0.045375373 -0.14075984 -0.53776926 0.20575428 -0.6768122 -0.24064925
0.18314946 0.10387435 -0.043967385 -0.0016133547 -0.016842479 -0.1055446 0.04653488 -0.06034178
-0.09079279 0.017720645 0.21772873 -0.13612078 0.21766609 0.19574574 0.10538206 -0.17106365
0.2012826 -0.032357514 -0.13163267 -0.056414355 0.037565704 0.052343383 0.20520532 -0.001477595
-0.038909853 0.15958548 -0.11242173 -0.025372619 0.7860122 -0.22254303 0.7917873 0.14012264
-0.06344236 0.088809386 0.027524322 0.08726446 0.16711576 0.21174482 -0.08383048 0.008351097
-0.103741586 0.09740222 -0.2590171 -0.014147215 -0.7297356 -0.11227936 0.02388587 0.082103245
0.011180503 -0.043904785 -0.0492428 0.041900136 -0.09615942 0.03660123 -0.36900157 0.04152269
-0.11970195 -0.010056796 -0.049547818 0.112159595 0.47501767 -0.123892546 0.7496902 0.027323382
-0.000561875 0.20060298 0.09257973 -0.08002426 0.1013073 0.3232443 -0.17844424 -0.10135517
-0.054630987 -0.11485891 -0.2466538 0.07581952 -0.15322304 0.044243596 -0.022167187 0.21749003
-0.07429506 -0.1374012 0.016472867 0.19753805 -0.15464096 0.15985106 -0.2282253 0.23730928
00000000: 30da b606 10d6 b686 b0e5 b606 10e6 b686
00000010: 32a9 b606 10b5 b606 50dd b606 10e6 b606
00000020: 40cd b606 90e8 b606 3297 b686 328d b686
00000030: 8e93 b686 10e6 b686 ecc5 b606 328d b686
00000040: 52a1 b686 6eae b686 d0e8 b606 12a3 b686
00000050: 8eae b606 30d5 b686 aea9 b686 129f b686
00000060: d2a2 b606 50d7 b686 50dd b606 90e8 b686
00000070: 30d5 b606 32a9 b686 2cba b606 50c9 b686
00000080: b432 1a3e 822b a53d 4179 45be cc25 f9bd
00000090: 2210 d53e 6663 50bc 2897 133f e630 86bb
000000a0: 2b42 2bbd 4566 503d a33a 933e ffcd a5bd
000000b0: 4afc 3d3e a3fb 7d3e 0b30 c83d e097 d13d
000000c0: bd0b bfbd e3ea 64be 13eb b8bd c0f9 1a3e
000000d0: 2474 1b3c 075f 1e3d dc82 2b3e 7733 bb3d
000000e0: a034 183d 222a 0b3e 7cdb 303e af5d f33d
000000f0: 8548 38be c3a9 c13d dcda 903d 6389 943c
00000100: f536 4b3e 66c5 853d b849 0b3e 46b6 a63c
00000110: 8c86 febd c15b babd ae2d d93e d181 7d3d
00000120: 8d73 c5bd b87f 933e 0f36 7a3d 66be be3d
00000130: 83a3 213d 304c 83bd f95f 95bb 5b50 d03d
00000140: 9f45 003e 45a1 a5bd 05f0 62be 2c53 803e
00000150: 35d6 cdbe 6076 e83d ee3d 10be 8173 0a3e
00000160: d715 1fbb 46db dbbd 1559 533e 1be3 073e
00000170: 5fe5 34be d463 4d3e ebed e6bd b66d 943d
00000180: 47c9 a8bd 53d0 163d c73d 313e 0c26 31be
00000190: ba22 9c3e ffa2 b4bd b124 a13e 8788 823d
000001a0: bf59 30bc 16e8 3b3e d899 18be 7c00 0a3e
000001b0: 43a1 9abd 10cc 583d 8233 2e3d 37af e93d
000001c0: fedb 513c 5ff1 e23d b8ae 073d 74ae dc3d
000001d0: 7043 00be 4687 8abd a808 e1bd 1126 353e
000001e0: 2f3c 15be 9e18 4dbe 4ae5 e1bd 84b6 ac3b
000001f0: c6eb 953d 1224 883e ab81 c4bd 118b 153d
00000200: 4c65 14be fb08 f73d c2be eebc 4c06 df3d
00000210: 0b7b 763f ad2d c93c 9c20 393f c1af 023d
00000220: 152a 5bbe f776 adbc 0463 acbd 08a2 0fbd
00000230: 04b0 b53d 3035 8cbd 4df3 91bc 8aef 203e
00000240: ea13 153d 7921 313e 7f9a 04bf a5e1 103e
00000250: 8603 61bf 77ea 19be 76de 5e3d 4069 f93d
00000260: 0440 4fbd b4cc 1cbe fda3 8f3c 84a6 943d
00000270: 7101 5fbe 9ce4 493e cc3a 19be 65e1 41bd
00000280: f926 eb3d 7e65 babd 87db 39bd 5923 10be
00000290: 3fab 09bf 40b1 523e 9043 2dbf c26c 76be
000002a0: 888b 3b3e 13bc d43d 2517 34bd 3377 d3ba
000002b0: 3df9 89bc c427 d8bd 5c9b 3e3d f128 77bd
000002c0: 92f1 b9bd e32a 913c 48f4 5e3e 3f63 0bbe
000002d0: dce3 5e3e 9271 483e 8dd2 d73d 4f2b 2fbe
000002e0: 071d 4e3e 5089 04bd b7ca 06be bd12 67bd
000002f0: 7fde 193d 0466 563d 5821 523e dcab c1ba
00000300: f05f 1fbd 606a 233e 5d3d e6bd 3dda cfbc
00000310: 1838 493f 52e2 63be 93b2 4a3f 4f7c 0f3e
00000320: 11ee 81bd b2e1 b53d b07a e13c b6b7 b23d
00000330: 6520 2b3e a2d3 583e 51af abbd 0ad3 083c
00000340: 7876 d4bd d17a c73d e49d 84be b8c9 67bc
00000350: f4cf 3abf b9f2 e5bd 4dac c33c bf25 a83d
00000360: 6e2e 373c 81d5 33bd d1b2 49bd 7a9f 2b3d
00000370: 3bef c4bd 2ceb 153d c6ed bcbe b213 2a3d
00000380: 4c26 f5bd 42c5 24bc a7f2 4abd eeb3 e53d
00000390: 8435 f33e 60bb fdbd b2eb 3f3f 49d5 df3c
000003a0: cb4a 13ba de6a 4d3e 719a bd3d c2e3 a3bd
000003b0: 347a cf3d 4780 a53e 16ba 36be 4d93 cfbd
000003c0: bec4 5fbd 263b ebbd d092 7cbe 4447 9b3d
000003d0: 80e6 1cbe c638 353d f697 b5bc b5b5 5e3e
000003e0: 0228 98bd e6b2 0cbe 1bf2 863c 6a47 4a3e
000003f0: 335a 1ebe ffaf 233e e5b3 69be 3401 733e

fc2.bias f4 [32]
-6.8677787e-35 -0.0582427 0.014532506 -0.13285744 -0.0009861267 0.06760864 -0.015640149 0.012462778
0.11639607 -0.075208396 0.16064048 0.07348848 0.021013761 0.15488298 0.07008192 -6.8679646e-35
0.0033215194 0.11722027 -0.024590388 -0.060155187 -0.023260025 0.02298353 0.15673974 0.039049957
0.054392606 0.15269978 0.13716559 0.12165581 0.10124898 0.099103846 0.067877755 0.1292769
00000000: ae93 b686 e68f 6ebd bf19 6e3c c80b 08be
00000010: ec40 81ba 6676 8a3d c51f 80bc ae30 4c3c
00000020: 1061 ee3d dc06 9abd f07e 243e 2181 963d
00000030: 0d25 ac3c a599 1e3e 1c87 8f3d f294 b686
00000040: d9ad 593b 2e11 f03d c871 c9bc 4965 76bd
00000050: cf8b bebc f547 bc3c 6280 203e d9f2 1f3d
00000060: c8ca 5e3d 555d 1c3e 2375 0c3e ae26 f93d
00000070: a05b cf3d f5f6 ca3d 7e03 8b3d 2a61 043e

fc3.weight f4 [1, 32]
6.8679646e-35 0.14553213 -0.22802152 0.6104747 -0.3013303 0.3655757 -0.14637981 -0.05109242
0.58009243 -0.49007246 0.62911224 0.06674087 0.48904267 0.52183 -0.06908135 6.8747387e-35
0.827993 -0.3613024 0.09934652 -0.19982062 0.32254234 0.16387723 0.22519267 0.10820613
0.62886643 0.13600138 0.6077092 0.19862762 -0.16485673 0.018417157 0.5587373 0.040694766
00000000: f294 b606 6006 153e 797e 69be 1248 1c3f
00000010: f747 9abe bd2c bb3e 97e4 15be 4946 51bd
00000020: f080 143f c7ea fabe 800d 213f 70af 883d
00000030: cd63 fa3e a796 053f 867a 8dbd 0cc3 b606
00000040: 59f7 533f a1fc b8be 3076 cb3d c79d 4cbe
00000050: 4524 a53e 6fcf 273e e898 663e 2d9b dd3d
00000060: 64fd 203f f243 0b3e d592 1b3f 0a65 4b3e
00000070: 34d0 28be 94df 963c 6809 0f3f 8eaf 263d

exp_avg f4 [32, 11]
1.003308e-05 2.7816612e-05 9.21888e-05 -0.0005211405 -0.00052727986 2.5383319e-05 -3.0476314e-05 -1.4380643e-05
0.00029363562 0.000117528216 -0.0002767571 5.7764046e-05 8.7043096e-05 -5.0848474e-05 0.00095504604 0.0009606151
4.927282e-05 3.3977347e-05 1.4358153e-06 -0.00018144042 -0.00018019963 0.00054851384 0.00028893718 6.838812e-05
-8.399241e-05 0.00011803894 0.0001047673 -2.0493899e-05 -2.1060987e-05 -6.028905e-05 -0.0003600293 0.00043718316
-4.2783547e-08 -0.0002996208 -0.00012767079 -5.2432588e-05 -0.00022230919 -0.00020884766 -0.00010043911 -6.745094e-05
-1.8949751e-05 -8.498984e-06 1.0477466e-05 -0.0005406412 0.0032498748 0.002030935 0.00077908207 0.0012769895
0.001310257 0.001263978 0.0011590872 0.000591743 -0.00015167784 -0.0001399243 0.006383097 -3.5269346e-05
2.2578417e-05 3.9866925e-05 6.252107e-05 5.8877366e-05 2.4166562e-05 7.1202725e-05 6.5295186e-05 -7.1859846e-05
0.00010175015 -7.4743207e-06 0.00034531482 0.000687399 -0.00016236791 0.006095169 0.0061670463 0.00043985952
-2.303702e-05 -0.00022104208 -0.0003688375 -1.1961497e-07 0.0021836616 1.9762927e-05 1.351611e-05 -6.540689e-05
0.00037395023 0.0003894588 -1.3070006e-05 -7.7707504e-05 -9.092796e-05 -0.000167046 0.00013191579 5.0339513e-05
7.680079e-05 5.1855925e-05 0.00010475451 -0.00019703558 -0.00022796003 4.9629423e-05 3.8038183e-05 8.058763e-06
3.637295e-05 -0.000147999 0.00043615146 0.0002410743 0.00013619065 4.2418615e-05 0.000221045 0.00022220053
9.6253745e-05 3.4675235e-05 2.7076861e-05 0.00036958433 -5.6320503e-05 0.0001109959 -0.00046159516 -5.2762596e-05
7.224787e-05 -6.327496e-05 -7.859867e-05 -5.7139463e-05 -4.304429e-05 6.87107e-40 8.494331e-05 -0.00046652515
6.87387e-40 -5.7435856e-05 -7.969276e-05 -5.782915e-05 -0.00047906785 -0.00045385974 -6.897788e-05 -5.5826094e-06
4.0532846e-05 6.890093e-05 0.00033370225 -0.00080573035 -0.00027167698 -0.00011986307 -3.7983853e-05 -0.00011659358
-0.00012745903 -7.936001e-05 3.6581866e-06 -8.670317e-09 -0.0004898524 4.4741588e-05 -6.55107e-07 -0.0028228431
-0.0014857367 -0.00057881104 -0.001766245 -0.0017693855 -0.00089554884 -0.00043265676 1.6976031e-05 -0.00011227513
-0.00039049026 -0.004563306 5.159578e-06 -1.13932e-05 3.862259e-05 -0.00028765397 -0.00029489654 7.6089636e-06
5.461421e-05 6.218941e-05 6.3449115e-05 3.9452356e-05 -0.00012459018 -9.9642195e-05 -8.715031e-05 -9.146145e-05
-2.8816765e-05 -1.3909623e-05 -5.7650082e-05 0.000100247984 0.00014228525 -3.2982534e-05 0.00012988958 -0.00059098157
-7.857343e-05 -9.248125e-05 -1.9021209e-05 -0.0007805645 -0.0007645193 -6.239806e-05 4.3158157e-05 8.954125e-05
0.000101280406 0.0002195706 -0.0007333425 0.0004507032 7.1899e-05 -3.5442656e-05 -2.5890386e-05 -1.6687973e-05
5.9753034e-05 -8.691277e-06 -5.7880534e-05 -1.3543568e-07 0.00052901 -1.8887803e-07 4.443447e-05 3.5980258e-05
2.9445131e-05 -2.2329421e-05 -2.0316169e-05 2.7543483e-05 1.5632188e-05 -1.1371808e-06 6.87179e-40 -6.87989e-40
0.00014757222 -7.241838e-05 1.1781231e-06 -3.2043194e-05 0.0002819036 0.00028515625 1.1721168e-06 1.716267e-05
5.6366835e-06 -0.00021762546 -0.00022806639 0.00035748718 0.0011574465 0.0007132874 0.00034481622 0.00045754414
0.0004871445 0.00042448667 0.00018470474 8.68272e-05 0.0011501998 -2.2920442e-06 0.0010787906 9.6859134e-05
6.379264e-05 0.00011735285 -0.00046826428 -0.00048265012 5.2336683e-05 -0.00010842946 -0.00012431256 0.00026467652
-2.7543661e-05 0.00020947361 3.0489115e-05 4.6100293e-05 -3.3519973e-06 0.00064932683 0.00063071726 3.9727536e-05
6.0664548e-05 2.5188507e-05 -0.00019415017 -0.00025952703 0.00061623903 -0.00024074138 -8.660804e-05 -0.00011789733
00000000: c053 2837 b857 e937 7c55 c138 269d 08ba
00000010: 2739 0aba 43ee d437 63a7 ffb7 6444 71b7
00000020: 1bf3 9939 7b79 f638 b619 91b9 ac47 7238
00000030: e88a b638 2246 55b8 0e5c 7a3a cad1 7b3a
00000040: 4aaa 4e38 e682 0e38 3db6 c035 0b41 3eb9
00000050: f8f3 3cb9 24ca 0f3a 7e7c 9739 986b 8f38
00000060: 1525 b0b8 ac8b f738 84b6 db38 50ea abb7
00000070: 20ac b0b7 e0de 7cb8 51c2 bcb9 bb35 e539
00000080: 02c1 37b3 6c16 9db9 5edf 05b9 10eb 5bb8
00000090: ab1b 69b9 1efe 5ab9 d6a2 d2b8 7374 8db8
000000a0: 48f6 9eb7 dc96 0eb7 60c8 2f37 d1b9 0dba
000000b0: dafb 543b 6f19 053b 503b 4c3a a860 a73a
000000c0: eebc ab3a 10ac a53a 83ec 973a 331f 1b3a
000000d0: b60b 1fb9 a5b8 12b9 4c29 d13b 2cee 13b8
000000e0: c866 bd37 c936 2738 be1d 8338 17f3 7638
000000f0: 4cb9 ca37 ac52 9538 16ef 8838 76b3 96b8
00000100: b262 d538 edcb fab6 5f0b b539 9132 343a
00000110: 4e41 2ab9 fcb9 c73b ef14 ca3b f29c e639
00000120: a03f c1b7 88c7 67b9 8860 c1b9 836f 00b4
00000130: c31b 0f3b 90c8 a537 40c3 6237 0f2b 89b8
00000140: c00e c439 4630 cc39 4047 5bb7 e6f6 a2b8
00000150: 94b0 beb8 1229 2fb9 e052 0a39 a423 5338
00000160: 1c10 a138 e07f 5938 a6af db38 569b 4eb9
00000170: 8e08 6fb9 3029 5038 308b 1f38 2034 0737
00000180: 288f 1838 2e30 1bb9 42ab e439 e4c8 7c39
00000190: 66ce 0e39 a4ea 3138 51c8 6739 80fe 6839
000001a0: d6db c938 4070 1138 1e23 e337 c5c4 c139
000001b0: ae39 6cb8 78c6 e838 4102 f2b9 684d 5db8
000001c0: c883 9738 7cb2 84b8 57d5 a4b8 08a9 6fb8
000001d0: 748a 34b8 607b 0700 9823 b238 f297 f4b9
000001e0: 287c 0700 48e7 70b8 ba20 a7b8 948d 72b8
000001f0: 662b fbb9 06f4 edb9 38a8 90b8 4052 bbb6
00000200: d001 2a38 e87e 9038 c2f4 ae39 a637 53ba
00000210: de6f 8eb9 ff5e fbb8 da50 1fb8 b483 f4b8
00000220: 86a6 05b9 156e a6b8 2b7f 7536 75f4 14b2
00000230: 7069 00ba eaa8 3b38 9cda 2fb5 73ff 38bb
00000240: 0dbd c2ba 5abb 17ba 5981 e7ba baea e7ba
00000250: 44c3 6aba 35d6 e2b9 c067 8e37 4075 ebb8
00000260: b7ba ccb9 c987 95bb 7020 ad36 6c25 3fb7
00000270: b1fe 2138 43d0 96b9 589c 9ab9 8050 ff36
00000280: 9011 6538 af6b 8238 fc0f 8538 a579 2538
00000290: 6ca4 02b9 fff6 d0b8 77c4 b6b8 fece bfb8
000002a0: 88bb f1b7 605d 69b7 4ecd 71b8 3a3c d238
000002b0: 6832 1539 ba56 0ab8 f832 0839 1aec 1aba
000002c0: cac7 a4b8 7ef2 c1b8 bc8f 9fb7 cc9e 4cba
000002d0: 066a 48ba b4db 82b8 b804 3538 18c8 bb38
000002e0: 8166 d438 893c 6639 c83d 40ba 5c4c ec39
000002f0: 7bc8 9638 43a8 14b8 2e2f d9b7 26fd 8bb7
00000300: 559f 7a38 c0d0 11b7 c0c4 72b8 476c 11b4
00000310: 43ad 0a3a 66ce 4ab4 265f 3a38 82e9 1638
00000320: f000 f737 1150 bbb7 a46c aab7 2e0d e737
00000330: de21 8337 3ca1 98b5 937b 0700 d57d 0780
00000340: 9ebd 1a39 52df 97b8 0020 9e35 1e66 06b8
00000350: 76cc 9339 0681 9539 a051 9d35 8ef8 8f37
00000360: be22 bd36 6432 64b9 1b25 6fb9 1e6d bb39
00000370: 76b5 973a e8fb 3a3a 73c8 b439 89e2 ef39
00000380: 6e67 ff39 a38d de39 4dad 4139 0017 b638
00000390: 4dc2 963a 05d1 19b6 3566 8d3a da20 cb38
000003a0: 6ac8 8538 551b f638 5e81 f5b9 340c fdb9
000003b0: 1684 5b38 a064 e3b8 e659 02b9 48c4 8a39
000003c0: 900d e7b7 25a6 5b39 e0c2 ff37 d05b 4138
000003d0: e0f2 60b6 9637 2a3a b856 253a 1ea1 2638
000003e0: 1072 7e38 e84b d337 ca94 4bb9 2111 88b9
000003f0: 1a8b 213a 866f 7cb9 56a1 b5b8 a63f f7b8

exp_avg_sq f4 [32, 11]
5.210712e-05 2.0784524e-05 3.3444048e-06 4.0729778e-05 4.1644656e-05 7.163113e-06 1.5995865e-06 2.3943043e-08
2.479478e-05 7.4402396e-07 0.00018925981 0.000110962574 4.43247e-05 7.18313e-06 8.8766574e-05 9.068616e-05
1.5291595e-05 3.4154632e-06 1.2676155e-09 4.021795e-05 1.1036014e-06 0.00041185512 3.5448345e-06 1.0054957e-06
2.1418619e-07 1.911202e-06 1.9373708e-06 4.665616e-07 3.5773978e-06 3.513441e-06 5.184234e-06 4.4042413e-06
1.7670633e-12 1.11065e-06 2.9820075e-07 4.738683e-08 7.529485e-07 7.601726e-07 1.2110327e-07 1.3616663e-07
9.873594e-08 2.8334146e-08 1.9718382e-07 3.1476136e-06 0.0019800884 0.0008160558 0.000112974725 0.0014892513
0.0015231641 0.00028130107 6.585011e-05 4.4660933e-06 0.0010147883 1.1549076e-05 0.0073301923 4.1695007e-06
1.6462122e-06 2.734486e-07 3.1401314e-06 3.183172e-06 5.761301e-07 3.582126e-07 2.4569664e-07 4.479843e-06
5.55048e-07 1.153601e-05 0.0043813135 0.0017495981 0.00028344762 0.0034208426 0.0034973559 0.0006043974
0.00013499097 3.5289493e-06 0.0021400095 8.629504e-08 0.015807416 2.3480934e-05 9.157647e-06 1.4792394e-06
1.9549556e-05 1.9927553e-05 3.2007931e-06 1.1549574e-06 3.860277e-07 1.5102742e-06 1.3359275e-06 9.141865e-05
4.1407093e-05 1.5620035e-05 2.5370127e-06 2.9054305e-05 2.9752455e-05 5.5480687e-06 1.8574642e-06 8.188854e-07
3.9362007e-05 2.5273948e-06 0.00011906274 8.722292e-06 3.5216785e-06 6.183277e-07 6.048454e-06 6.209463e-06
1.2621888e-06 2.0051672e-07 2.2161775e-08 1.40295e-05 1.7645003e-07 2.1397549e-05 6.775485e-06 1.7286691e-06
2.677172e-07 2.302625e-06 2.3419661e-06 7.318065e-07 4.094871e-08 7e-43 1.6017717e-05 4.9542377e-06
7e-43 1.6360986e-05 5.3308136e-06 8.464895e-07 7.721921e-06 7.936854e-06 1.9961653e-06 1.3009843e-06
9.914538e-07 2.7323065e-05 3.364052e-06 2.6599908e-05 1.9858562e-06 6.603795e-07 1.00608716e-07 1.1653422e-06
1.2418203e-06 2.459834e-07 2.03925e-09 9.374563e-12 6.949244e-06 2.4341344e-07 7.7252427e-10 6.6717046e-05
2.5130981e-05 4.5946135e-06 4.186805e-05 4.3073665e-05 8.682219e-06 2.7100311e-06 7.89822e-07 2.9610605e-05
3.4492405e-06 0.00022378894 1.21870125e-05 4.857655e-06 7.854448e-07 1.0501686e-05 1.0705243e-05 1.6757539e-06
4.7318724e-07 6.759353e-08 1.0803479e-07 1.8233672e-07 4.9573908e-05 1.3523567e-05 4.6110626e-06 7.2829704e-07
8.598786e-06 8.774191e-06 1.6759997e-06 6.8157686e-07 3.7035142e-07 1.3309581e-05 2.4129424e-06 3.3046694e-05
3.2142165e-05 1.2136497e-05 1.9510974e-06 2.6012463e-05 2.648471e-05 4.246199e-06 1.6173801e-06 5.292455e-07
1.7248278e-06 2.4105213e-06 0.00012238442 4.7803783e-06 4.6272967e-07 4.7889564e-08 1.9695296e-06 1.8860427e-06
3.5392497e-07 2.320791e-06 2.2228623e-06 2.183624e-13 7.853257e-06 5.4932583e-13 6.214947e-05 2.6346515e-05
4.3414457e-06 6.791758e-05 6.862272e-05 9.197377e-06 2.2372585e-06 6.7852017e-09 7e-43 7e-43
0.00026995566 3.0293964e-05 1.197644e-05 1.9467539e-06 1.832725e-05 1.8913697e-05 4.184582e-06 6.239632e-07
4.0297756e-09 4.816719e-05 4.7899e-07 7.417934e-05 0.00032783952 0.00013472224 2.2791786e-05 0.00026982382
0.00027788413 4.577418e-05 9.99578e-06 1.4455894e-07 0.00022203958 7.0009456e-09 0.0011826934 6.250659e-05
2.4545237e-05 3.9489205e-06 4.9631697e-05 5.067363e-05 8.4877065e-06 2.1807166e-06 2.7286728e-07 2.3241702e-05
1.7346039e-06 0.00022978403 3.5692596e-05 1.37618545e-05 2.2167403e-06 2.6708713e-05 2.7290886e-05 4.7966373e-06
1.5500942e-06 4.760952e-07 1.991275e-05 2.162257e-06 0.000121888675 3.717539e-05 1.4317904e-05 2.3245386e-06
00000000: 988d 5a38 6d5a ae37 7070 6036 44d5 2a38
00000010: 9cab 2e38 ac5a f036 60b1 d635 4fab cd32
00000020: 62fe cf37 f0b8 4735 0b74 4639 94b4 e838
00000030: 49e9 3938 9e06 f136 3128 ba38 c32e be38
00000040: 7346 8037 3635 6536 4138 ae30 b2af 2838
00000050: 751f 9435 42ee d739 cbe3 6d36 92f4 8635
00000060: 0dfb 6534 3342 0036 c703 0236 bd7b fa34
00000070: 3a13 7036 75c8 6b36 3bf4 ad36 25c8 9336
00000080: 2ab1 f82b a511 9535 6618 a034 5f86 4b33
00000090: 3a1e 4a35 aa0e 4c35 9d08 0234 3335 1234
000000a0: a808 d433 7263 f332 7ab9 5334 973b 5336
000000b0: 5fc4 013b 94ec 553a d8ec ec38 fb32 c33a
000000c0: e8a4 c73a 977b 9339 0219 8a38 73db 9536
000000d0: a502 853a e7c2 4137 1c32 f03b bde7 8b36
000000e0: 6cf3 dc35 7dce 9234 0cbb 5236 7b9e 5536
000000f0: 5ca7 1a35 5d50 c034 4ae8 8334 8f51 9636
00000100: 9cfe 1435 c98a 4137 1f91 8f3b c552 e53a
00000110: b29b 9439 3730 603b e533 653b 6c70 1e3a
00000120: 5d8c 0d39 e3d2 6c36 673f 0c3b 3351 b933
00000130: 8e7e 813c ecf8 c437 cba3 1937 478a c635
00000140: 5afe a337 182a a737 35cd 5636 0904 9b35
00000150: 3e3f cf34 a0b4 ca35 1f4e b335 04b8 bf38
00000160: 87ac 2d38 c507 8337 8c41 2a36 a5b9 f337
00000170: e994 f937 8c29 ba36 fc4d f935 60d1 5b35
00000180: a218 2538 509c 2936 52b1 f938 f555 1237
00000190: fa55 6c36 28fb 2535 d3f3 ca36 e25a d036
000001a0: 7a68 a935 9e4d 5734 425e be32 3e60 6b37
000001b0: 3776 3d34 e37e b337 f958 e336 9e04 e835
000001c0: c6ba 8f34 cc86 1a36 ac2a 1d36 5c71 4435
000001d0: 95df 2f33 f401 0000 c95d 8637 943c a636
000001e0: f401 0000 f33e 8937 57df b236 513a 6335
000001f0: 668d 0137 8728 0537 dcf5 0536 7b9d ae35
00000200: 1812 8535 d633 e537 f9c1 6136 de22 df37
00000210: c044 0536 ef44 3135 3a0e d833 da68 9c35
00000220: 9fac a635 b30f 8434 de22 0c31 47eb 242d
00000230: 8d2d e936 7dae 8234 9059 5430 71ea 8b38
00000240: 5fd0 d237 6e2b 9a36 7a9b 2f38 ffa9 3438
00000250: d9a9 1137 fbdd 3536 2804 5435 4a64 f837
00000260: 8079 6736 e3a8 6a39 d276 4c37 f0fe a236
00000270: 5bd7 5235 6630 3037 ab9a 3337 77ea e035
00000280: 5c0a fe34 f027 9133 c100 e833 56c8 4334
00000290: 94ed 4f38 47e3 6237 bab8 9a36 3180 4335
000002a0: 8143 1037 dd34 1337 e9f2 e035 9bf5 3635
000002b0: b6d4 c634 374c 5f37 09ee 2136 9e9b 0a38
000002c0: 63d0 0638 dc9d 4b37 99ef 0236 5735 da37
000002d0: 7b2b de37 927a 8e36 c214 d935 7911 0e35
000002e0: a280 e735 71c4 2136 5154 0039 2367 a036
000002f0: 156d f834 22af 4d33 432c 0436 ef23 fd35
00000300: 1403 be34 e3be 1b36 7c2c 1536 adda 752a
00000310: 7bc1 0337 199f 1a2b 3e56 8238 b602 dd37
00000320: bcac 9136 f96e 8e38 8be9 8f38 6f4e 1a37
00000330: cf23 1636 4423 e931 f401 0000 f401 0000
00000340: d688 8d39 cb1f fe37 6bee 4837 faa4 0236
00000350: 78bd 9937 dba8 9e37 4969 8c36 6d7e 2735
00000360: 4876 8a31 2007 4a38 f193 0035 bb90 9b38
00000370: e0e1 ab39 3a44 0d39 fd30 bf37 2477 8d39
00000380: fab0 9139 a7fd 3f38 8cb3 2737 0f38 1b34
00000390: 4cd3 6839 f88c f031 9b04 9b3a f815 8338
000003a0: 7fe6 cd37 f880 8436 a12b 5038 658a 5438
000003b0: 6c66 0e37 6d58 1236 987e 9234 2df7 c237
000003c0: 89d0 e835 2ef2 7039 a2b4 1538 b7e2 6637
000003d0: 4fc3 1436 860c e037 bbee e437 cdf2 a036
000003e0: d50c d035 079a ff34 4e0a a737 4b1b 1136
000003f0: 7c9e ff38 c5ec 1b38 ee36 7037 45ff 1b36

exp_avg f4 [32]
0.000114302005 0.00019210592 1.3698009e-05 -0.00056202034 0.0066827037 8.4653875e-05 0.0015933306 -8.413679e-05
0.00033919926 0.0004558645 -0.0003881791 -0.00036411406 -0.0004453519 -0.005050605 4.3811742e-05 -0.000357812
-0.0003197422 0.0004668955 0.00014348654 -7.967747e-05 0.0023172267 0.00031107044 0.00018741796 -0.0005603482
0.00049705105 0.0005979085 0.0004210336 0.00018685656 -0.00030449874 -6.86666e-40 -0.00019255828 0.00029952324
00000000: 6cb5 ef38 0a70 4939 80d0 6537 8c54 13ba
00000010: 95fa da3b 3488 b138 4ed7 d03a 9872 b0b8
00000020: 8ed6 b139 1901 ef39 8484 cbb9 90e6 beb9
00000030: 1f7e e9b9 8c7f a5bb 80c2 3738 b798 bbb9
00000040: 12a3 a7b9 a7c9 f439 e074 1639 8418 a7b8
00000050: 9ddc 173b 2b17 a339 a085 4439 55e4 12ba
00000060: 884c 023a f6bc 1c3a 2cbe dc39 edee 4339
00000070: 21a5 9fb9 257a 0780 78e9 49b9 5409 9d39

exp_avg_sq f4 [32]
0.0002137269 0.00045579564 1.3741215e-05 3.607702e-06 0.008344343 1.7047212e-05 0.017994257 9.5553325e-05
0.00016411535 3.632136e-05 2.1227966e-05 5.909799e-05 7.2454313e-06 0.00026058 5.0073115e-05 4.9686754e-05
0.00012707792 1.0439228e-05 0.00026995823 0.00012341974 0.0013908633 0.00025346427 0.00014332857 0.00015001794
9.500464e-06 2.795615e-06 3.393965e-05 0.00010876794 0.000632724 7e-43 5.145235e-07 4.561755e-05
00000000: e11b 6039 dbf7 ee39 128a 6637 d91b 7236
00000010: b6b6 083c 9c00 8f37 b168 933c cd63 c838
00000020: 6116 2c39 c357 1838 b612 b237 fcdf 7738
00000030: c81d f336 759e 8839 9905 5238 bf66 5038
00000040: 3840 0539 2524 2f37 2e89 8d39 3c6a 0139
00000050: a14d b63a 66e3 8439 784a 1639 224e 1d39
00000060: 2f64 1f37 4d9c 3b36 6c5a 0e38 581a e438
00000070: 64dd 253a f401 0000 c91d 0a35 7955 3f38

exp_avg f4 [32, 32]
6.87819e-40 -6.87759e-40 6.87989e-40 -6.87994e-40 6.871e-40 6.87274e-40 6.87865e-40 6.87994e-40
6.8763e-40 6.8803e-40 -6.86835e-40 -6.86688e-40 -6.86782e-40 -6.87994e-40 6.87522e-40 -6.86688e-40
-6.86984e-40 -6.87177e-40 6.88035e-40 -6.87009e-40 6.87179e-40 -6.87746e-40 -6.87107e-40 -6.8695e-40
6.87006e-40 -6.87777e-40 6.87865e-40 -6.8803e-40 6.87746e-40 -6.871e-40 6.8735e-40 -6.87571e-40
8.460587e-05 0.00023567566 9.0886024e-05 0.00022181269 -3.3058e-06 4.9473514e-05 1.6528335e-05 0.00010264503
0.0002835283 -1.2122939e-05 -2.1505592e-05 0.00041194115 3.734193e-05 -7.554711e-05 0.00014893815 0.0005011333
9.841815e-05 7.9888516e-05 -1.5722551e-05 0.00014856411 6.587438e-05 0.00027086152 0.000411454 4.555496e-05
0.00023134897 0.00017275875 0.00020852766 0.0003180643 0.00041320798 4.9664683e-05 1.75576e-05 0.00047128665
1.7019236e-05 -0.00026956698 1.807617e-05 -0.00022147334 -2.8993773e-06 7.256759e-05 -1.0525681e-05 -6.9717455e-05
-8.1235805e-05 0.00012286447 0.00014095135 -5.802847e-05 9.267949e-05 0.00021596078 0.00022055145 -0.00045628723
-6.492395e-06 6.222799e-05 -3.1359552e-06 -7.229869e-05 -8.174605e-05 1.003722e-05 -9.4238385e-05 -2.6713813e-05
-0.00011247397 0.000100716454 -7.633265e-06 8.7290355e-05 -0.00030773575 9.015781e-05 4.1354713e-05 -0.0004350008
-2.2519132e-05 -1.4139222e-05 -4.8645197e-05 -3.4508969e-06 -1.5228865e-05 -7.463652e-05 -1.2077925e-05 -4.6682966e-05
-6.408777e-05 -8.536987e-06 -3.4424458e-05 -0.00012170066 -4.412276e-06 -1.3030276e-05 -0.00011980758 -9.8281365e-05
-5.5714096e-05 -2.5177866e-05 -2.1583862e-06 -8.2385406e-05 -2.7823802e-05 -1.0945855e-06 -9.19085e-05 -5.8603517e-05
-2.6379495e-05 -3.1679563e-05 -1.763768e-05 -7.97487e-05 -4.9188897e-05 -4.3362565e-05 -2.1979824e-06 -7.1469e-05
-0.00012774492 0.00067059835 0.00036973707 0.00032003302 1.4399019e-05 -0.00021186456 2.5722202e-05 8.194735e-05
0.00044122033 -0.00017385944 -7.9578924e-05 0.00103656 0.0001366641 -0.00017135584 0.00014593318 0.00028261557
0.00025177893 0.00053133594 -2.8142298e-05 -0.00015917982 -1.7337847e-05 0.0009418216 0.0014206516 -0.00011322703
0.0007709344 0.0007657219 0.00077279145 0.0015211427 0.0009943261 0.0006910247 8.801948e-06 0.0005155073
4.1466687e-05 -6.5549306e-05 -6.7018525e-05 -4.6854853e-05 -1.5343362e-06 -6.388448e-05 -1.4679384e-05 -6.0964405e-05
-7.469687e-05 4.101471e-05 -1.4245263e-05 -0.0002650338 -5.4025935e-05 2.0075502e-05 -0.00010465796 -0.00011480294
-2.9172414e-05 -5.9368438e-05 1.6119584e-05 -2.1248707e-06 -4.3514283e-05 -0.0001486277 -0.00026521483 -1.874259e-05
-0.00011231066 -0.00015801503 -0.00015362834 -0.00021739345 -0.00013362168 -4.5537774e-05 -3.8389884e-05 -0.00017221106
0.00036820682 0.0009998663 0.00013743507 0.0006838926 1.1345114e-06 -5.8205318e-05 2.4460824e-05 0.0003930098
0.00038953702 -1.2351655e-05 -0.00011928425 0.00075158256 -0.000120195196 -0.00014454448 0.000116511525 0.0015348718
0.0013447038 5.121666e-05 -4.2752356e-05 1.999957e-05 -1.945116e-05 0.0011236002 0.0013001628 5.6537203e-05
0.00067950075 0.00016874203 0.0005720456 0.00072774163 0.001012849 9.037575e-05 -4.3888638e-05 0.00139955
9.1937596e-05 0.00012352706 4.1345484e-05 0.00012128508 1.2931694e-06 3.6017052e-05 1.3635708e-05 2.923706e-05
0.00025171437 1.3040233e-05 2.3923581e-05 0.00033439905 3.861874e-05 2.184503e-05 0.000112427195 0.00029681632
6.959854e-05 0.00013700969 -1.7887394e-05 6.2858424e-05 1.283472e-05 0.0002989687 0.00025191417 3.0742427e-05
0.00016018908 0.00020977203 0.00019039198 0.00035774676 0.00025488262 0.00010370863 2.1606236e-05 0.00032798445
00000000: 5c7d 0700 317d 0780 d57d 0700 d97d 0780
00000010: 5b7b 0700 d77b 0700 7d7d 0700 d97d 0700
00000020: d57c 0700 f37d 0700 9e7a 0780 357a 0780
00000030: 787a 0780 d97d 0780 887c 0700 357a 0780
00000040: 087b 0780 927b 0780 f67d 0700 1a7b 0780
00000050: 937b 0700 287d 0780 607b 0780 f07a 0780
00000060: 187b 0700 3e7d 0780 7d7d 0700 f37d 0780
00000070: 287d 0700 5b7b 0780 0d7c 0700 ab7c 0780
00000080: 6e6e b138 b41f 7739 109a be38 6496 6839
00000090: 36d9 5db6 c881 4f38 54a6 8a37 2243 d738
000000a0: 86a6 9439 a063 4bb7 e866 b4b7 cef9 d739
000000b0: 989f 1c38 0c6f 9eb8 482c 1c39 7d5e 033a
000000c0: d865 ce38 d289 a738 ece3 83b7 e0c7 1b39
000000d0: 0a26 8a38 6b02 8e39 6cb8 d739 4412 3f38
000000e0: 4496 7239 9326 3539 38a8 5a39 dec1 a639
000000f0: d6a3 d839 0c4f 5038 a948 9337 0617 f739
00000100: 88c4 8e37 ab54 8db9 48a2 9737 4c3b 68b9
00000110: ec92 42b6 6e2f 9838 7597 30b7 4635 92b8
00000120: 245d aab8 2ed5 0039 57cc 1339 9863 73b8
00000130: ec5c c238 8873 6239 d443 6739 d639 efb9
00000140: 40d9 d9b6 6680 8238 4d73 52b6 109f 97b8
00000150: 146f abb8 8865 2837 d9a1 c5b8 7a17 e0b7
00000160: 01e0 ebb8 bc37 d338 a010 00b7 a70f b738
00000170: 9857 a1b9 1b13 bd38 4974 2d38 d210 e4b9
00000180: 78e7 bcb7 7f37 6db7 6208 4cb8 f595 67b6
00000190: 7a7f 7fb7 2d86 9cb8 4ba2 4ab7 74cd 43b8
000001a0: dc66 86b8 143a 0fb7 fb62 10b8 8b39 ffb8
000001b0: 2a0d 94b6 9c9c 5ab7 3441 fbb8 681c ceb8
000001c0: 8eae 69b8 0e35 d3b7 cbd8 10b6 54c6 acb8
000001d0: 2967 e9b7 ace9 92b5 00bf c0b8 0ccd 75b8
000001e0: 8949 ddb7 acdf 04b8 a1f4 93b7 c23e a7b8
000001f0: 2d50 4eb8 33e0 35b8 0d81 13b6 a1e1 95b8
00000200: 44f3 05b9 18cb 2f3a 45d9 c139 1bca a739
00000210: 5193 7137 f627 5eb9 02c6 d737 26db ab38
00000220: 9753 e739 0a4e 36b9 9ce3 a6b8 2fdd 873a
00000230: 7d4d 0f39 fcad 33b9 a405 1939 052c 9439
00000240: 3201 8439 5a49 0b3a 2013 ecb7 82e9 26b9
00000250: be70 91b7 94e4 763a 2835 ba3a 4d74 edb8
00000260: 8818 4a3a baba 483a 2895 4a3a 1461 c73a
00000270: 0c54 823a e225 353a 14ac 1337 1c23 073a
00000280: 84ec 2d38 8477 89b8 4c8c 8cb8 0486 44b8
00000290: 64ef cdb5 b8f9 85b8 7947 76b7 08b4 7fb8
000002a0: 94a6 9cb8 3607 2c38 f0fe 6eb7 3cf4 8ab9
000002b0: e899 62b8 d067 a837 d07b dbb8 5cc2 f0b8
000002c0: 48b7 f4b7 6002 79b8 8b38 8737 0099 0eb6
000002d0: 1b83 36b8 f2d8 1bb9 880c 8bb9 6839 9db7
000002e0: 5488 ebb8 d6b0 25b9 4b17 21b9 1cf4 63b9
000002f0: cc1c 0cb9 d0ff 3eb8 d304 21b8 8e93 34b9
00000300: e20b c139 f20d 833a 721c 1039 4147 333a
00000310: 8445 9835 7c21 74b8 3831 cd37 e20c ce39
00000320: c63a cc39 f439 4fb7 3e28 fab8 da05 453a
00000330: 4e11 fcb8 dd90 17b9 a657 f438 c02d c93a
00000340: c640 b03a 78d1 5638 fe50 33b8 c0c4 a737
00000350: 0c2b a3b7 c445 933a 396a aa3a 5c22 6d38
00000360: 8620 323a 58f0 3039 55f5 153a eac5 3e3a
00000370: 93c1 843a 1c88 bd38 1115 38b8 1b71 b73a
00000380: 9fce c038 0b87 0139 606a 2d38 6e5a fe38
00000390: f690 ad35 0411 1738 ebc4 6437 1c42 f537
000003a0: 88f8 8339 60c7 5a37 80af c837 4852 af39
000003b0: 8efa 2138 d83f b737 e4c6 eb38 039e 9b39
000003c0: 6ff5 9138 42aa 0f39 e30c 96b7 dcd2 8338
000003d0: b454 5737 e6be 9c39 5913 8439 6ef1 0038
000003e0: 6ef8 2739 40f6 5b39 f5a3 4739 f58f bb39
000003f0: c4a1 8539 267e d938 0a3f b537 54f5 ab39

exp_avg_sq f4 [32, 32]
7e-43 7e-43 7e-43 7e-43 7e-43 7e-43 7e-43 7e-43
7e-43 7e-43 7e-43 7e-43 7e-43 7e-43 7e-43 7e-43
7e-43 7e-43 7e-43 7e-43 7e-43 7e-43 7e-43 7e-43
7e-43 7e-43 7e-43 7e-43 7e-43 7e-43 7e-43 7e-43
9.624866e-06 1.5517746e-05 5.697693e-06 1.06326015e-05 6.390666e-09 7.123539e-06 5.9711067e-09 3.5330443e-06
3.1393927e-05 2.1568671e-06 2.2766042e-06 4.6174657e-05 1.0724948e-06 6.8616424e-07 3.079934e-05 7.318693e-05
1.0654096e-05 1.3046011e-06 1.4270944e-09 2.7116006e-05 2.5750474e-08 1.18420885e-05 4.362729e-05 5.138141e-06
1.2351301e-05 3.500589e-06 6.1154747e-06 3.1785705e-05 3.3411252e-05 4.2286138e-06 1.251786e-08 3.975294e-05
1.4013446e-05 9.042183e-06 4.6669194e-07 1.3535656e-05 7.381897e-09 6.845816e-06 5.420571e-09 3.299206e-06
2.0202548e-05 2.8841287e-06 1.4316228e-06 1.0545264e-05 1.7567889e-07 9.719228e-07 1.453767e-05 9.413589e-05
1.7233262e-05 3.5599663e-07 3.04557e-09 1.9675905e-05 2.9926092e-08 9.92079e-06 5.62872e-06 2.2515317e-06
4.984122e-06 5.8197105e-07 2.892144e-06 3.935744e-06 1.9859512e-05 5.406305e-07 3.5102214e-08 4.468531e-05
9.90044e-08 4.76923e-09 9.559739e-09 2.3257967e-09 1.1533476e-08 2.014242e-07 6.806131e-09 4.546839e-08
1.4460238e-07 6.7812187e-09 4.9022876e-08 2.7806996e-07 8.2143864e-10 8.552892e-09 4.0222704e-07 6.1257833e-07
2.1978389e-07 5.32929e-09 3.0895626e-11 2.44493e-07 9.753685e-10 2.256243e-08 7.48147e-08 6.477518e-08
2.3973226e-09 5.0814823e-09 2.1608033e-09 5.1230963e-08 6.226353e-08 1.10882254e-08 1.3129477e-10 3.183872e-07
0.00037825896 0.00051895593 9.928207e-05 0.0003897033 1.415447e-07 0.0003203319 2.38615e-07 0.00013576956
0.0010457779 5.7392685e-05 8.58714e-05 0.0014832332 1.9852727e-05 1.7979608e-05 0.0010224624 0.0029450175
0.00044162257 2.343183e-05 8.1952365e-09 0.0009925441 9.8435e-09 0.00035848105 0.0011710577 0.00020876029
0.00037434802 6.0893934e-05 0.00015919445 0.0008113468 0.0010662621 8.1565515e-05 1.5811452e-08 0.0015940749
6.580887e-06 1.2552154e-05 5.9501776e-06 6.868554e-06 1.3177013e-08 6.8069075e-06 1.5844648e-08 2.8508446e-06
2.4071858e-05 1.4258763e-06 2.4492517e-06 4.4934142e-05 1.2401056e-06 8.345026e-07 2.6670072e-05 5.0602466e-05
7.903937e-06 1.1790313e-06 1.7739344e-09 2.1203756e-05 2.2680476e-08 9.143327e-06 4.214378e-05 5.7943193e-06
1.0392156e-05 4.3269633e-06 5.134207e-06 2.960731e-05 2.5443927e-05 5.042201e-06 6.647938e-08 2.94755e-05
0.00028515403 0.00063694816 0.00015222497 0.00045155853 2.25549e-07 9.572306e-06 2.1015097e-07 9.6879536e-05
0.0009849337 6.758324e-05 1.3780492e-05 0.0012599697 3.8667502e-05 8.817726e-06 0.00038402848 0.002456752
0.00016551155 4.173213e-05 1.6995944e-08 0.00069706223 7.47129e-09 0.00041312384 0.0013676923 0.00011809047
0.0004919413 0.00010399446 0.00021781103 0.0010167148 0.0011960217 0.00013068691 1.7303496e-07 0.0013331207
3.2769399e-06 1.0369815e-05 6.392197e-06 5.168592e-06 1.0601235e-08 6.631942e-07 6.8058053e-09 1.4094982e-06
1.5344727e-05 1.0538427e-06 8.4708955e-07 2.943082e-05 1.3537643e-06 3.7478134e-07 1.0592996e-05 2.7795422e-05
1.9512267e-06 1.1937351e-06 1.5511386e-09 1.0585974e-05 5.5217613e-09 6.899324e-06 3.3633165e-05 2.548082e-06
9.108719e-06 4.5675843e-06 4.2921747e-06 2.5006057e-05 1.8700044e-05 5.6937592e-06 1.6956916e-08 1.6158301e-05
00000000: f401 0000 f401 0000 f401 0000 f401 0000
00000010: f401 0000 f401 0000 f401 0000 f401 0000
00000020: f401 0000 f401 0000 f401 0000 f401 0000
00000030: f401 0000 f401 0000 f401 0000 f401 0000
00000040: f401 0000 f401 0000 f401 0000 f401 0000
00000050: f401 0000 f401 0000 f401 0000 f401 0000
00000060: f401 0000 f401 0000 f401 0000 f401 0000
00000070: f401 0000 f401 0000 f401 0000 f401 0000
00000080: 7c7a 2137 1b2c 8237 cf2e bf36 ad62 3237
00000090: e594 db31 bc06 ef36 692a cd31 3d19 6d36
000000a0: f9ac 0338 b2be 1036 c3c7 1836 a9ab 4138
000000b0: a4f2 8f35 d930 3835 8a2e 0138 ef7b 9938
000000c0: febe 3237 c119 af35 6c23 c430 2e77 e337
000000d0: e431 dd32 62ad 4637 72fc 3638 4c68 ac36
000000e0: 6f38 4f37 a9eb 6a36 8733 cd36 a451 0538
000000f0: 0f23 0c38 84e3 8d36 210e 5732 65bc 2638
00000100: 4b1b 6b37 e1b3 1737 a78d fa34 3317 6337
00000110: daa3 fd31 1db5 e536 d93f ba31 ed67 5d36
00000120: a478 a937 f48c 4136 2f26 c035 90eb 3037
00000130: 3fa2 3c34 0373 8235 d1e6 7337 d26a c538
00000140: 2690 9037 ce1f bf34 3c4a 5131 af0d a537
00000150: 1688 0033 7871 2637 56de bc36 0519 1736
00000160: 483d a736 bf38 1c35 a816 4236 c90f 8436
00000170: fa97 a637 d81f 1135 4bc3 1633 7c6c 3b38
00000180: 3f9c d433 97de a331 2d3c 2432 d9d3 1f31
00000190: c424 4632 1047 5834 5ddb e931 0649 4333
000001a0: 0044 1b34 3b00 e931 398d 5233 a549 9534
000001b0: 9bcb 6130 04f0 1232 aaf1 d734 1070 2435
000001c0: bcfd 6b34 ee1c b731 62e1 072e dd42 8334
000001d0: ba0d 8630 4fcf c132 d1a9 a033 881a 8b33
000001e0: 25be 2431 3199 ae31 417d 1431 0a09 5c33
000001f0: bdb5 8533 887e 3e32 315c 102f ceee aa34
00000200: 0f51 c639 8b0a 083a a835 d038 1751 cc39
00000210: 83fb 1734 38f2 a739 ff1a 8034 5d5d 0e39
00000220: 7c12 893a edb8 7038 db15 b438 0c69 c23a
00000230: 6889 a637 ead2 9637 2504 863a 3201 413b
00000240: 9489 e739 798f c437 08cb 0c32 4118 823a
00000250: 2c1c 2932 83f2 bb39 2d7e 993a aae6 5a39
00000260: 2444 c439 5d68 7f38 6fed 2639 90b0 543a
00000270: d2c1 8b3a 270e ab38 c0d1 8732 47f0 d03a
00000280: 64d1 dc36 1797 5237 a3a7 c736 6e78 e636
00000290: 1e61 6232 e466 e436 c01a 8832 2351 3f36
000002a0: eced c937 bd60 bf35 d35d 2436 ab77 3c38
000002b0: b471 a635 9502 6035 8bb9 df37 fc3d 5438
000002c0: 279b 0437 353f 9e35 c5ce f330 b8de b137
000002d0: e5d2 c232 4a66 1937 8ac3 3038 d36c c236
000002e0: f859 2e37 5530 9136 8146 ac36 375d f837
000002f0: 6b70 d537 2d30 a936 6dc3 8e33 2742 f737
00000300: ba80 9539 def8 263a 949e 1f39 29bf ec39
00000310: 702e 7234 be98 2037 dca5 6134 ce2b cb38
00000320: e418 813a 7abb 8d38 c332 6737 9125 a53a
00000330: ea2e 2238 d8ef 1337 6e57 c939 7501 213b
00000340: 2b8d 2d39 8909 2f38 7afe 9132 0ebb 363a
00000350: 155b 0032 8b98 d839 2344 b33a 57a7 f738
00000360: 9ff5 003a 9a17 da38 3464 6439 4a43 853a
00000370: d4c3 9c3a 0009 0939 7dcb 3934 1cbc ae3a
00000380: 66e9 5b36 04fa 2d37 8e7c d636 de6d ad36
00000390: b920 3632 5c06 3235 7fd8 e931 fd2d bd35
000003a0: 8db8 8037 c271 8d35 8d63 6335 34e2 f637
000003b0: fdb2 b535 8e35 c934 92b8 3137 372a e937
000003c0: d2f1 0236 6d38 a035 d62f d530 6a9a 3137
000003d0: edb9 bd31 be80 e736 5611 0d38 b7ff 2a36
000003e0: a6d1 1837 4043 9936 8005 9036 19c4 d137
000003f0: 0ade 9c37 050d bf36 a7a8 9132 b08b 8737

exp_avg f4 [32]
-6.86783e-40 0.00066536677 3.3928343e-05 -0.00026271987 0.0012449574 -0.00019000273 0.0006205519 0.000576425
-0.0006813782 -0.00012859708 9.703217e-08 -0.00026102684 0.00032846004 0.0006442924 -0.00031981454 -6.86802e-40
0.00013503685 -0.00042076758 0.0021182795 0.0006325424 0.00038246342 -0.0003188469 -0.00011461717 0.00086301356
-0.00023669784 -0.00068785466 0.00039551972 7.418869e-05 -0.0007040511 0.0009049373 0.00019293698 0.0006224994
00000000: 797a 0780 026c 2e3a 484e 0e38 aabd 89b9
00000010: d72d a33a 783b 47b9 88ac 223a 3a1b 173a
00000020: 849e 32ba 04d8 06b9 0060 d033 6eda 88b9
00000030: 2935 ac39 bbe5 283a c8ac a7b9 867a 0780
00000040: ae98 0d39 789a dcb9 d5d2 0a3b 34d1 253a
00000050: 5f85 c839 e82a a7b9 a05e f0b8 dc3b 623a
00000060: 1832 78b9 2551 34ba c25d cf39 c095 9b38
00000070: 1290 38ba 5039 6d3a 204f 4a39 3a2f 233a

exp_avg_sq f4 [32]
7e-43 0.00032645688 9.048708e-05 1.1759673e-06 0.010185934 0.00030237556 0.010267343 0.00021626212
0.00019046814 0.000102045626 1.2571561e-05 1.6735877e-06 9.3341565e-05 0.00019709654 9.4407435e-05 7e-43
1.00490715e-05 7.4050545e-06 6.486379e-05 0.00033537377 0.00025242817 1.7188904e-05 1.1840374e-05 0.00027456
6.859986e-05 7.795026e-05 2.4297788e-05 6.575172e-05 0.000356408 0.0004636719 0.00012221735 4.6498997e-05
00000000: f401 0000 4d28 ab39 e2c3 bd38 eed5 9d35
00000010: e7e2 263c 2988 9e39 5c38 283c 6cc4 6239
00000020: 67b8 4739 5401 d638 71ea 5237 09a0 e035
00000030: 5fc0 c338 b3ab 4e39 9bfc c538 f401 0000
00000040: 6f98 2837 ef78 f836 7b07 8838 1bd5 af39
00000050: 5658 8439 e430 9037 05a6 4637 d2f2 8f39
00000060: 45dd 8f38 3a79 a338 1ad3 cb37 30e4 8938
00000070: 46dc ba39 fd18 f339 7827 0039 eb07 4338

exp_avg f4 [1, 32]
6.86802e-40 -0.000113908085 -7.6537646e-05 -3.1251868e-05 -6.4865e-05 -2.4647718e-05 -6.4241096e-05 -9.7656404e-05
-2.7741153e-05 -5.6456487e-05 -2.8884137e-05 -0.0001264126 -4.0582705e-05 -5.4688746e-05 1.634379e-05 6.8748e-40
-4.4771303e-05 -1.5387364e-05 -1.240824e-05 -5.690899e-05 -5.255186e-06 -3.867645e-05 -8.8147746e-05 -0.00012792037
-3.1654956e-05 -1.2862387e-05 -2.496081e-05 -0.00012810281 1.5688918e-05 -0.0001249129 -3.3326298e-05 -3.9261497e-05
00000000: 867a 0700 f0e1 eeb8 d682 a0b8 7014 03b8
00000010: 2208 88b8 92c2 ceb7 2db9 86b8 e2cc ccb8
00000020: acb5 e8b7 b1cb 6cb8 364c f2b7 a08d 04b9
00000030: 5937 2ab8 9861 65b8 061a 8937 6a7c 0700
00000040: d2c8 3bb8 1d14 81b7 fc2c 50b7 90b1 6eb8
00000050: b455 b0b6 8638 22b8 f6db b8b8 5d22 06b9
00000060: 40c5 04b8 88cb 57b7 ee62 d1b7 5653 06b9
00000070: b29b 8337 0dfb 02b9 d7c7 0bb8 b6ac 24b8

exp_avg_sq f4 [1, 32]
7e-43 4.5064417e-07 3.0664972e-07 6.026404e-08 2.303585e-07 3.278171e-08 1.770819e-07 3.3414054e-07
4.0881424e-08 1.4061746e-07 3.7914774e-08 1.6950784e-06 4.05236e-08 9.5122914e-08 2.1388772e-08 7e-43
1.10962915e-07 8.4960384e-08 1.0888364e-08 1.4984181e-07 8.37185e-09 8.643283e-08 1.1524575e-06 8.7941635e-07
4.6271794e-08 1.792523e-07 2.8009605e-08 1.1362008e-06 5.4710938e-08 8.2737745e-07 3.0768046e-08 1.182864e-07
00000000: f401 0000 10f0 f134 9ea1 a434 826a 8133
00000010: 7658 7734 dfcb 0c33 e723 3e34 ed63 b334
00000020: 9a95 2f33 a2fc 1634 bcd7 2233 7382 e335
00000030: 2b0c 2e33 6046 cc33 68ba b732 f401 0000
00000040: 824a ee33 7773 b633 880f 3b32 34e4 2034
00000050: c9d3 0f32 f39c b933 23ae 9a35 0811 6c35
00000060: 60bc 4633 7f78 4034 c699 f032 907f 9835
00000070: 50fb 6a33 f218 5e35 d325 0433 a304 fe33
