Checkpoints/ANN_Simple_4048.pth (torch, 26035 bytes, 15 tensors)

linear.0.weight f4 [30, 15]
0.15848863 -0.16902447 -0.13511293 0.31862608 -0.044101365 0.116732605 -0.052915953 0.16722527
0.24205954 0.088484 -0.081262626 -0.14405084 -0.0828269 0.0051000584 -0.10617522 -0.00072421937
-0.25013202 -0.41299608 0.111508995 -0.18525998 0.060785048 0.27399245 -0.07621842 -0.17916782
0.1627949 0.31507543 0.23442131 -0.019135917 0.1570805 -0.13579482 -0.1757191 -0.0069136256
0.20077822 -0.18062088 0.13183129 -0.18738095 0.06871248 -0.19216144 0.14858434 0.27630353
0.20241015 -0.16242903 -0.19509785 -0.29914215 0.05230144 -0.021664292 -0.18357256 -0.19774887
0.21602842 0.10694516 -0.04467176 0.11954659 0.22887701 -0.16992195 -0.123717606 -0.18107359
-0.16839886 0.063804805 -0.25719935 0.046651274 0.1073056 0.31083864 0.6027768 0.5089153
-0.029070452 0.04508932 0.068855375 -0.047702353 -0.021770634 -0.081139594 0.14079998 0.07873246
-0.0030004312 -0.22058871 0.008812955 0.15874994 0.33110642 0.043376707 0.49982083 0.056230366
0.050564326 0.04095928 0.0039202 -0.092803426 0.042164795 -0.03185572 -0.0768236 -0.09252913
-0.026925998 -0.24451275 0.2347337 -0.04371183 0.17638923 -0.055271875 0.16194919 -0.016759178
0.06079022 -0.06021764 0.26017374 -0.10342194 -0.20595878 0.0639858 0.26446596 -0.118270814
-0.24539761 0.21938555 0.26463136 -0.14542975 -0.4503012 -0.057837814 -0.019908769 0.20309775
0.09824199 -0.044202253 -0.09036805 -0.12494322 -0.0014680133 0.171367 -0.16569114 -0.13278216
-0.028278263 -0.22615105 -0.11643107 -0.8321841 -0.05830843 0.117608845 0.13674429 0.035613462
0.15108392 0.202547 0.18233892 -0.21046129 0.15678032 -0.069924444 0.24869229 -0.17234014
0.30598074 0.6091577 0.6362515 0.031816065 -0.029156294 0.19778818 0.2200664 -0.14022814
0.12364343 0.23937732 -0.047012076 -0.15379359 -0.1902132 -0.1631983 -0.08223478 0.12884812
-0.28946605 0.09735274 0.2605204 0.0050962814 0.097565465 -0.0019813294 0.03458277 0.21900974
0.097367905 -0.1631507 0.18927966 0.06505784 -0.09694034 0.24071512 -0.26221505 -0.21619962
-0.2910788 0.21864685 0.13985904 -0.1126906 -0.05666536 0.022518152 -0.062890016 -0.015658723
0.05933762 0.24706684 0.09140862 0.11504533 0.38818276 -0.18350103 0.05478116 -0.08847146
-0.062320694 0.019845186 -0.10880632 0.26110333 0.15155654 0.12137505 -0.20027277 -0.09586736
-0.18331335 0.112512045 -0.2183627 0.045874372 0.0505636 -0.41360533 0.3761787 0.18233486
-0.044764332 -0.039724104 0.16363433 0.035917882 0.16900204 0.028055374 -0.11071974 0.0040272344
0.18033981 0.18784265 -0.10730039 -0.2715693 -0.3925975 0.12166778 -0.059148777 -0.01737067
0.055952244 -0.06535614 0.21527874 0.057441786 -0.113601 0.20772722 0.25094333 0.21834573
0.17198183 0.12932387 0.20325258 0.29302314 -0.5150489 0.008378525 0.23979375 0.0032748452
-0.16746011 0.0411505 -0.08341175 -0.054838922 0.015751438 -0.13742886 -0.0948649 0.03283252
0.282996 -0.101077005 -0.2259175 -0.015670871 -0.026942333 0.08908197 0.13400023 0.019612357
-0.046409868 -0.11500698 0.020297837 -0.15748087 0.16166483 0.2766957 -0.13109498 0.1361533
00000000: d84a 223e c014 2dbe 0b5b 0abe f522 a33e
00000010: a2a3 34bd 8111 ef3d 66be 58bd 1a3d 2b3e
00000020: 75de 773e 1937 b53d 056d a6bd 1082 13be
00000030: 26a1 a9bd 641e a73b 6572 d9bd 8ad9 3dba
00000040: 4e11 80be 3974 d3be d45e e43d cbb4 3dbe
00000050: bef9 783d bd48 8c3e 6718 9cbd c577 37be
00000060: b5b3 263e 9151 a13e 240c 703e edc2 9cbc
00000070: b6d9 203e cc0d 0bbe b5ef 33be b28b e2bb
00000080: ce98 4d3e aef4 38be c8fe 063e cbe0 3fbe
00000090: 21b9 8c3d f8c5 44be 7e26 183e a877 8d3e
000000a0: 9b44 4f3e cc53 26be bbc7 47be 2929 99be
000000b0: 093a 563d 5079 b1bc 72fa 3bbe ae7e 4abe
000000c0: 8e36 5d3e 1006 db3d bcf9 36bd d8d4 f43d
000000d0: bc5e 6a3e 0500 2ebe a85f fdbd 5b6b 39be
000000e0: c070 2cbe 18ac 823d a2af 83be 6815 3f3d
000000f0: 0ac3 db3d 3e26 9f3e 954f 1a3f 4648 023f
00000100: 2825 eebc 94af 383d 0c04 8d3d 8b63 43bd
00000110: 5458 b2bc 842c a6bd df2d 103e 7c3e a13d
00000120: e2a2 44bb 02e2 61be 3664 103c 588f 223e
00000130: c886 a93e c6ab 313d 84e8 ff3e d051 663d
00000140: 8a1c 4f3d ebc4 273d 0575 803b b90f bebd
00000150: feb4 2c3d 257b 02bd b155 9dbd ea7f bdbd
00000160: e993 dcbc 8d61 7abe 085e 703e 2d0b 33bd
00000170: 619f 343e c364 62bd 02d6 253e 8b4a 89bc
00000180: 2aff 783d c6a6 76bd 7e35 853e e2ce d3bd
00000190: dce6 52be fd0a 833d 1568 873e f837 f2bd
000001a0: 8349 7bbe 9ba6 603e c37d 873e 89eb 14be
000001b0: e18d e6be 58e7 6cbd b717 a3bc dbf8 4f3e
000001c0: 1933 c93d 6c0d 35bd e212 b9bd 3be2 ffbd
000001d0: 5a6a c0ba d57a 2f3e f0aa 29be 0cf8 07be
000001e0: d1a7 e7bc 2494 67be 6a73 eebd 040a 55bf
000001f0: d2d4 6ebd e8dc f03d b206 0c3e 6cdf 113d
00000200: beb5 1a3e 7b68 4f3e 0eb7 3a3e 2a83 57be
00000210: 058b 203e 8c34 8fbd 31a9 7e3e ef79 30be
00000220: 82a9 9c3e c2f1 1b3f 61e1 223f 9051 023d
00000230: 2ed9 eebc fc88 4a3e 1659 613e f797 0fbe
00000240: c438 fd3d 541f 753e bc8f 40bd 117c 1dbe
00000250: 40c7 42be 751d 27be b56a a8bd c3f0 033e
00000260: e534 94be e060 c73d ee62 853e b5fe a63b
00000270: 67d0 c73d 31d9 01bb aaa6 0d3d 1744 603e
00000280: d368 c73d fa10 27be 87d2 413e 0b3d 853d
00000290: a888 c6bd 067e 763e 0d41 86be 6f63 5dbe
000002a0: 4808 95be f6e4 5f3e 3537 0f3e 54ca e6bd
000002b0: f019 68bd fd77 b83c 7bcc 80bd b946 80bc
000002c0: 010c 733d 17ff 7c3e 7134 bb3d e39c eb3d
000002d0: e4bf c63e b2e7 3bbe 3662 603d 8630 b5bd
000002e0: fc43 7fbd 5f92 a23c d9d5 debd 56af 853e
000002f0: a331 1b3e 7b93 f83d 4e14 4dbe 1b56 c4bd
00000300: 7fb6 3bbe b76c e63d 799a 5fbe c4e6 3b3d
00000310: c71b 4f3d 14c4 d3be 7f9a c03e fdb5 3a3e
00000320: ce5a 37bd beb5 22bd c28f 273e a11e 133d
00000330: df0e 2d3e 62d4 e53c 08c1 e2bd e4f6 833b
00000340: 00ab 383e d359 403e 4fc0 dbbd 220b 8bbe
00000350: 8a02 c9be f52c f93d fd45 72bd ef4c 8ebc
00000360: 2e2e 653d 71d9 85bd 0872 5c3e 1448 6b3d
00000370: a4a7 e8bd 72b6 543e a57b 803e 0696 5f3e
00000380: 011c 303e 7a6d 043e 7221 503e 2107 963e
00000390: 3fda 03bf 1546 093c 7e8c 753e c99e 563b
000003a0: aa7a 2bbe 6d8d 283d c8d3 aabd c79e 60bd
000003b0: 2909 813c 27ba 0cbe 8748 c2bd 647b 063d
000003c0: dae4 903e 7601 cfbd eb56 67be 3360 80bc
000003d0: 2bb6 dcbc 9c70 b63d 5b37 093e 18aa a03c
000003e0: 4618 3ebd c888 ebbd a647 a63c aa42 21be
000003f0: 778b 253e 0fab 8d3e c33d 06be c56b 0b3e

linear.0.bias f4 [30]
-0.25365368 0.18923782 -0.1956842 -0.09861694 -0.029285368 0.034483727 -0.0017777527 0.24976774
0.0803251 0.031810667 0.303295 0.29029775 -0.004899988 -0.14483677 0.22524504 0.14202645
0.030687824 0.26118967 -0.17311575 -0.23416735 0.24156389 0.05863076 0.049330737 -0.025831522
0.08467766 -0.007238318 0.23738582 0.19311118 0.26283643 0.052535243
00000000: e5de 81be 8fc7 413e 7061 48be aef7 c9bd
00000010: dee7 efbc cf3e 0d3d 7b03 e9ba 1dc3 7f3e
00000020: 7c81 a43d e74b 023d 7b49 9b3e e8a1 943e
00000030: 1490 a0bb 1750 14be a3a6 663e 626f 113e
00000040: 0865 fb3c a7ba 853e 4145 31be 91c9 6fbe
00000050: 865c 773e cf26 703d 070f 4a3d a19c d3bc
00000060: 7b6b ad3d 6a2f edbb 4515 733e f0be 453e
00000070: 7f92 863e 322f 573d

linear.2.weight f4 [30, 30]
0.013193254 0.3771542 -0.07315282 0.06932753 -0.21704522 -0.3000084 0.12123838 0.026716972
0.20087539 -0.1556286 0.07269687 0.30316752 -0.03292147 0.22252366 0.25802925 -0.15482248
0.15057664 -0.07317513 0.11047128 0.107563585 0.06968015 -0.014321038 -0.32271495 -0.23738335
0.06758899 -0.62837017 -0.006731489 0.21807763 0.13011077 -0.0516245 0.22164322 0.1604025
0.036428194 -0.059568457 -0.19581592 -0.005328847 -0.0021769255 -0.1956048 -0.020639887 0.019842228
-0.043533385 0.15057577 0.21096782 0.2772124 0.28258565 -0.30104867 0.09542125 0.16763075
-0.08615343 0.1803897 0.09745414 0.08563944 -0.2651345 -0.15199226 0.2057386 -0.31991616
0.0026758632 0.19717169 -0.14052042 -0.44520357 -0.24069014 -0.09374784 0.054171864 0.16754913
-0.05289165 -0.16927262 0.020588173 0.024405422 0.18628538 -0.07350263 0.13324791 -0.13244617
0.0207035 -0.07528412 -0.13979553 0.085552976 -0.13633889 0.11489332 0.098049596 -0.10018339
-0.0659478 0.17099597 0.16637133 -0.030287348 -0.008284823 0.66545737 -0.057007432 -0.08562396
-0.14929333 -0.14095555 0.15664652 -0.18100177 -0.12596701 0.045657635 -0.022236474 -0.037207257
0.0019369727 0.114472546 0.0628214 -0.09825132 0.13661663 0.08198599 -0.13229227 0.14160284
-0.13811561 -0.05061899 0.026385061 -0.15954982 -0.0043408656 -0.031311512 0.020735867 -0.026666613
0.021347245 0.03405771 0.03212497 -0.07168776 -0.032743335 0.13503459 -0.09531858 -0.036588147
0.05002342 0.03254222 0.17809746 -0.0036585927 -0.33529156 -0.3320346 -0.12253666 0.09665384
0.32024008 -0.3401096 0.11432804 0.33009517 0.07562103 -0.090662755 -0.04097993 0.27693045
0.18192631 0.10148584 -0.19806525 0.12030807 -0.112300806 -0.14528766 0.03774062 -0.2226308
-0.061763555 0.55838144 0.17582998 0.33248255 0.041758623 0.3637945 0.016168693 0.22438446
0.041693673 0.14979082 -0.1428531 -0.046681672 0.17956111 -0.0025179088 0.10070246 -0.21239792
0.084608704 0.29364386 0.01865559 0.10755296 0.14702266 0.05058049 0.31021142 0.10505629
-0.121399 -0.11024505 0.10621612 0.13164394 -0.15647545 -0.11978247 0.111032136 -0.5004964
0.10111891 0.32753745 0.23301248 -0.27750555 0.16486956 0.24618034 -0.032494325 -0.16429317
-0.0834497 -0.011006384 -0.08395018 0.13804375 -0.059442554 0.08280947 0.20076169 0.21040429
-0.04646246 0.15055783 0.10343339 -0.124672785 0.16973636 0.25493652 0.17392881 0.14359719
0.13113442 0.10387482 0.0072457213 -0.02453661 0.12949838 -0.32166734 -0.1341913 0.22287105
-0.03318832 -0.08108953 0.24418809 0.26759756 0.1541889 0.13449904 0.065819405 0.022936948
-0.2950078 -0.09627944 0.13787845 0.017232453 -0.05610261 -0.0030454851 0.0098146135 0.024296185
0.2851878 -0.13223897 0.16546255 0.1765517 -0.074112915 -0.07728503 0.09015522 0.057681434
-0.057224926 0.039571278 0.119957015 0.52335024 -0.026676808 0.13184689 0.021461954 0.20770851
0.18851244 0.36432073 -0.057089258 -0.1778459 -0.008163505 -0.4203157 0.08977964 0.12470691
-0.1388385 -0.2220892 0.16903119 0.051834 0.044283196 0.29526907 0.343536 -0.21310103
00000000: 8528 583c 5b1a c13e 25d1 95bd 98fb 8d3d
00000010: 1a41 5ebe b39a 99be d44b f83d 8ddd da3c
00000020: 47b2 4d3e 1b5d 1fbe 19e2 943d c638 9b3e
00000030: aad8 06bd 3edd 633e 691c 843e c989 1ebe
00000040: c330 1a3e d8dc 95bd c43e e23d 4c4a dc3d
00000050: 77b4 8e3d c9a2 6abc e53a a5be 9f14 73be
00000060: 196c 8a3d dedc 20bf d393 dcbb be4f 5f3e
00000070: c23b 053e 3674 53bd 71f6 623e 8e40 243e
00000080: bb35 153d 0efe 73bd f883 48be 9c9d aebb
00000090: c0aa 0ebb a04c 48be fb14 a9bc 2b8c a23c
000000a0: 1050 32bd 8930 1a3e f307 583e c9ee 8d3e
000000b0: 11af 903e 0d23 9abe 376c c33d 65a7 2b3e
000000c0: 3671 b0bd 14b8 383e 0996 c73d bb63 af3d
000000d0: b6bf 87be dca3 1bbe 24ad 523e 0dcc a3be
000000e0: 895d 2f3b 60e7 493e 96e4 0fbe b9f1 e3be
000000f0: 7a77 76be defe bfbd 51e3 5d3d 0092 2b3e
00000100: eaa4 58bd cd55 2dbe 87a8 a83c e1ed c73c
00000110: 98c1 3e3e 8c88 96bd 2472 083e f89f 07be
00000120: 639a a93c 902e 9abd 8f26 0fbe 6636 af3d
00000130: 6c9c 0bbe 304d eb3d 3ace c83d f32c cdbd
00000140: a40f 87bd 9119 2f3e 3f5d 2a3e 2c1d f8bc
00000150: 11bd 07bc 6a5b 2a3f a080 69bd 9d5b afbd
00000160: 5ae0 18be a756 10be f267 203e 8758 39be
00000170: 7ffd 00be 8003 3b3d 4429 b6bc a366 18bd
00000180: 05e2 fd3a 9570 ea3d 82a8 803d fd37 c9bd
00000190: 3be5 0b3e 45e8 a73d a077 07be 5600 113e
000001a0: 2e6e 0dbe dc55 4fbd 7c25 d83c 0761 23be
000001b0: d23d 8ebb 8040 00bd 44de a93c f173 dabc
000001c0: 6be0 ae3c 1980 0b3d 7995 033d 08d1 92bd
000001d0: e01d 06bd 8246 0a3e 6336 c3bd 74dd 15bd
000001e0: 5ce5 4c3d fe4a 053d 2e5f 363e 00c5 6fbb
000001f0: 56ab abbe 7000 aabe 80f4 fabd 73f2 c53d
00000200: 82f6 a33e d822 aebe d224 ea3d 3c02 a93e
00000210: 33df 9a3d 65ad b9bd 92da 27bd d4c9 8d3e
00000220: e44a 3a3e cfd7 cf3d 9ed1 4abe 1464 f63d
00000230: f7fd e5bd 4ac6 14be e995 1a3d 54f9 63be
00000240: c8fb 7cbd 16f2 0e3f c60c 343e 273b aa3e
00000250: 170b 2b3d 4643 ba3e 3574 843c 0ac5 653e
00000260: fcc6 2a3d c462 193e 1548 12be 4835 3fbd
00000270: dede 373e 8003 25bb 173d ce3d d77e 59be
00000280: 5447 ad3d 7d58 963e 9cd3 983c ba44 dc3d
00000290: 1c8d 163e 7d2d 4f3d 08d4 9e3e c127 d73d
000002a0: 0aa0 f8bd 28c8 e1bd d687 d93d abcd 063e
000002b0: 1a3b 20be 8350 f5bd d164 e33d 8820 00bf
000002c0: 6e17 cf3d fdb2 a73e d39a 6e3e 3515 8ebe
000002d0: 91d3 283e b316 7c3e c518 05bd 783c 28be
000002e0: ade7 aabd 1f54 34bc 12ee abbd 575b 0d3e
000002f0: 097a 73bd 0398 a93d 7994 4d3e 3974 573e
00000300: 6c4f 3ebd d52b 1a3e e3d4 d33d 7254 ffbd
00000310: 5ecf 2d3e 0a87 823e 651a 323e 240b 133e
00000320: 1a48 063e 52bc d43d 846d ed3b 0001 c9bc
00000330: 399b 043e 95b1 a4be 7269 09be 4f38 643e
00000340: 7af0 07bd 4412 a6bd 710c 7a3e 8c02 893e
00000350: b2e3 1d3e 1eba 093e 53cc 863d 44e6 bb3c
00000360: 430b 97be 282e c5bd 0230 0d3e 132b 8d3c
00000370: dacb 65bd c396 47bb 79cd 203c cb08 c73c
00000380: 2304 923e a769 07be 046f 293e f8c9 343e
00000390: 83c8 97bd 9d47 9ebd 4da3 b83d 5e43 6c3d
000003a0: af64 6abd 7e15 223d 06ac f53d 48fa 053f
000003b0: 5289 dabc df02 073e fbd0 af3c 8ab1 543e
000003c0: 6809 413e 3f88 ba3e 6dd6 69bd 3c1d 36be
000003d0: 39c0 05bc 9f33 d7be 63de b73d 5666 ff3d
000003e0: ae2b 0ebe 5a6b 63be 8316 2d3e e34f 543d
000003f0: 4c62 353d 822d 973e f3e3 af3e 2837 5abe

linear.2.bias f4 [30]
0.08899996 0.15294306 0.056089956 -0.12275679 0.11070194 -0.045559175 -0.033476233 -0.06150486
0.023107473 0.20658803 0.12666072 0.13321361 -0.15672995 -0.15413594 -0.17639637 -0.08615576
0.21372141 -0.047639586 0.21423009 -0.06938712 0.15220608 -0.015914306 0.1125434 0.105614446
0.038442623 0.07073692 -0.16540116 0.13646506 0.03443444 0.020465365
00000000: 9c45 b63d 1b9d 1c3e 95be 653d e967 fbbd
00000010: b3b7 e23d 429c 3abd 601e 09bd 85ec 7bbd
00000020: e24b bd3c d08b 533e 59b3 013e 2669 083e
00000030: d17d 20be d0d5 1dbe 40a1 34be 6e72 b0bd
00000040: c9d9 5a3e ba21 43bd 225f 5b3e d61a 8ebd
00000050: e9db 1b3e b85e 82bc 277d e63d 634c d83d
00000060: 0376 1d3d 85de 903d ec5e 29be 7fbd 0b3e
00000070: 210b 0d3d fba6 a73c

linear.4.weight f4 [1, 30]
0.29165742 0.6677999 -0.090677544 -0.09536408 -1.2637881 0.41440415 0.084789775 -0.34409916
0.47881183 0.45785138 0.2219966 -0.12937294 -0.24396102 -0.29305476 -0.2516765 0.30407855
0.13524753 -0.21400747 0.11955206 -0.10199486 -0.086907394 -0.73042256 0.09350809 -0.06535733
0.06538614 -0.27719414 -0.06398997 0.23193008 0.4022148 -0.07754327
00000000: 1f54 953e eff4 2a3f 26b5 b9bd 3e4e c3bd
00000010: cfc3 a1bf c82c d43e 43a6 ad3d c42d b0be
00000020: d326 f53e 7f6b ea3e 1453 633e 577a 04be
00000030: ebd0 79be 460b 96be bedb 80be 2fb0 9b3e
00000040: 547e 0a3e c624 5bbe b6d7 f43d aee2 d0bd
00000050: 81fc b1bd f9fc 3abf 2b81 bf3d 10da 85bd
00000060: 2be9 853d 64ec 8dbe 2c0d 83bd 147f 6d3e
00000070: 19ef cd3e 02cf 9ebd

exp_avg f4 [30, 15]
1.0528036e-07 0.00017868384 5.5153563e-05 0.00012193783 7.408675e-05 7.48564e-05 3.446276e-05 0.00017862383
0.00015861655 0.00013855928 0.0001901126 -6e-45 -6e-45 2.129264e-34 0.0001901126 -2.2187043e-05
-0.001955113 -0.0005073486 -0.00030620443 -0.0012138858 -0.0012353691 -0.0006061296 -0.0028368367 -0.0025163677
-0.0020560087 -0.003013425 -6e-45 6e-45 8.1077117e-35 -0.003013425 1.4167251e-05 0.00038025205
-0.0003774868 0.00041415772 -9.362407e-05 -0.00011601614 4.4238204e-06 -0.00027048067 -0.00024268146 -0.00012715545
-0.00029329027 6e-45 6e-45 -6e-45 -0.00029329027 0.0 0.0 0.0
0.0 0.0 0.0 0.0 0.0 0.0 0.0 0.0
0.0 0.0 0.0 0.0 4.2721176e-06 -0.00064732553 -0.00055300543 -0.00023930182
-0.0004697744 -0.00049149257 -0.00023018465 -0.0011070166 -0.0009834496 -0.00083844265 -0.0011791539 6e-45
-6e-45 -2.4381176e-34 -0.0011791539 6.8514637e-06 0.0005970298 -0.00016272468 -7.68902e-05 0.00012858906
0.00011575959 7.448192e-05 0.00031489812 0.0002787303 0.00027224107 0.00033323496 6e-45 -6e-45
-7.445715e-35 0.00033323496 -6e-45 -6e-45 6e-45 6e-45 -6e-45 -6e-45
-6e-45 6e-45 6e-45 6e-45 -6e-45 -6e-45 6e-45 -6e-45
0.0 -4.114008e-06 0.000489485 0.0005928308 0.00020023172 0.00041722888 0.0004405521 0.00019784151
0.0010619032 0.00094597664 0.0007761752 0.001136777 -6e-45 6e-45 5.3931974e-35 0.001136777
3.3550052e-06 0.00038849982 1.9550565e-05 0.00014221136 9.1989124e-05 8.8900095e-05 6.586095e-05 0.00022342337
0.00019846114 0.00019796609 0.00023794397 6e-45 -6e-45 6.878432e-35 0.00023794397 5.4252932e-06
2.7273662e-05 -0.00037024583 3.1632855e-05 -0.00016950161 -0.0001880285 -8.204406e-05 -0.00038249034 -0.00033976545
-0.00028581003 -0.0004073392 6e-45 -6e-45 -4.8934676e-35 -0.0004073392 -7.361011e-06 -0.00022881592
0.0003029334 -0.00020676995 0.00010062761 0.00011813648 3.1341762e-05 0.0002358712 0.00021010305 0.00015650729
0.000252449 -6e-45 6e-45 -2.3309676e-37 0.000252449 -1.467077e-05 0.0013827725 0.0012399956
0.0005421904 0.000993717 0.0010406926 0.00043975285 0.002382679 0.0021181267 0.0017160862 0.002540995
-6e-45 -6e-45 2.0394976e-34 0.002540995 -3.9216145e-20 -3.2112176e-20 -9.725949e-21 -2.2670164e-20
-3.6377303e-21 -3.7906703e-21 -7.12225e-21 -1.7006072e-20 -2.4292023e-20 -2.5727201e-20 -3.92448e-20 6e-45
6e-45 1.7875601e-34 -3.92448e-20 -3.1835763e-05 -0.00075030135 0.0011566072 -0.0008310528 0.0005046278
0.0005731928 0.00015014135 0.0011865014 0.0010559628 0.0007628627 0.0012678977 -6e-45 -6e-45
-2.892683e-35 0.0012678977 -2.2188395e-05 0.001122674 0.0013371812 0.0004619018 0.000916588 0.0009677565
0.00037294062 0.0022316116 0.0019851422 0.0015717294 0.002382723 -6e-45 6e-45 1.1834607e-34
0.002382723 1.4100011e-05 -0.0004318915 -0.00069932686 -0.00016363233 -0.00046621897 -0.00049483887 -0.00016650575
-0.0010941902 -0.0009720907 -0.00073933124 -0.0011655451 -6e-45 -6e-45 1.3855499e-34 -0.0011655451
1.5478399e-19 1.2674489e-19 3.8387795e-20 8.947785e-20 1.4357917e-20 1.4961547e-20 2.811112e-20 6.712207e-20
9.587937e-20 1.0154404e-19 1.5489707e-19 0.0 6e-45 1.2148769e-34 1.5489707e-19 -4.3756963e-06
00000000: 7d16 e233 145d 3b39 b054 6738 e0b8 ff38
00000010: 055f 9b38 39fc 9c38 1b8c 1038 f84c 3b39
00000020: 4e52 2639 394a 1139 f658 4739 0400 0080
00000030: 0400 0080 8d83 8d07 f658 4739 501e bab7
00000040: 5a21 00bb 97ff 04ba 108a a0b9 401b 9fba
00000050: 1cec a1ba abe4 1eba 39ea 39bb a5e9 24bb
00000060: 1abe 06bb e27c 45bb 0400 0080 0400 0000
00000070: 3a8a d706 e27c 45bb e1af 6d37 915c c739
00000080: 6ce9 c5b9 4f23 d939 0a58 c4b8 b14d f3b8
00000090: 5470 9436 4dcf 8db9 4f78 7eb9 0855 05b9
000000a0: c1c4 99b9 0400 0000 0400 0000 0400 0080
000000b0: c1c4 99b9 0000 0000 0000 0000 0000 0000
000000c0: 0000 0000 0000 0000 0000 0000 0000 0000
000000d0: 0000 0000 0000 0000 0000 0000 0000 0000
000000e0: 0000 0000 0000 0000 0000 0000 0000 0000
000000f0: 3659 8f36 48b1 29ba 91f7 10ba 18ed 7ab9
00000100: 0d4c f6b9 82d7 00ba b95d 71b9 5019 91ba
00000110: 18e7 80ba efca 5bba d78d 9aba 0400 0000
00000120: 0400 0080 6c0a a287 d78d 9aba a0e5 e536
00000130: fe81 1c3a 13a1 2ab9 1d40 a1b8 ddd5 0639
00000140: f5c3 f238 2d33 9c38 e918 a539 8c22 9239
00000150: 94bb 8e39 0ab6 ae39 0400 0000 0400 0080
00000160: e9f0 c586 0ab6 ae39 0400 0080 0400 0080
00000170: 0400 0000 0400 0000 0400 0080 0400 0080
00000180: 0400 0080 0400 0000 0400 0000 0400 0000
00000190: 0400 0080 0400 0080 0400 0000 0400 0080
000001a0: 0000 0000 0f0b 8ab6 c850 003a 3468 1b3a
000001b0: 4bf5 5139 83bf da39 e7f9 e639 ad73 4f39
000001c0: 8f2f 8b3a 6bfb 773a 3c78 4b3a e8ff 943a
000001d0: 0400 0080 0400 0000 3360 8f06 e8ff 943a
000001e0: 8d26 6136 90af cb39 8500 a437 921e 1539
000001f0: 49ea c038 e06f ba38 d41e 8a38 c146 6a39
00000200: 021a 5039 1e95 4f39 9980 7939 0400 0000
00000210: 0400 0080 2fdc b606 9980 7939 ea0a b636
00000220: bec9 e437 8e1d c2b9 85ad 0438 3ebc 31b9
00000230: 8429 45b9 120f acb8 fc88 c8b9 8c22 b2b9
00000240: c6d8 95b9 2490 d5b9 0400 0000 0400 0080
00000250: 3717 8286 2490 d5b9 9afe f6b6 4eee 6fb9
00000260: 08d3 9e39 63d0 58b9 0908 d338 0ac0 f738
00000270: f674 0338 3154 7739 1c4f 5c39 1b1c 2439
00000280: 225b 8439 0400 0080 0400 0000 2fa3 9e82
00000290: 225b 8439 7a22 76b7 253e b53a 5987 a23a
000002a0: c821 0e3a 9c3f 823a d967 883a a18e e639
000002b0: b826 1c3b 45d0 0a3b 4cee e03a d286 263b
000002c0: 0400 0080 0400 0080 418c 8707 d286 263b
000002d0: 6931 399f 3da5 179f ceb7 379e 181d d69e
000002e0: f86d 899d 1d35 8f9d 1689 069e 299e a09e
000002f0: 826e e59e 8efc f29e 0d54 399f 0400 0000
00000300: 0400 0000 859b 6d07 0d54 399f 6487 05b8
00000310: dfaf 44ba 4c99 973a 02db 59ba 0049 043a
00000320: 5142 163a 436f 1d39 6184 9b3a 3b68 8a3a
00000330: d9fa 473a 962f a63a 0400 0080 0400 0080
00000340: 29cd 1986 962f a63a 3721 bab7 b026 933a
00000350: 5b44 af3a 692b f239 2e47 703a 0ab1 7d3a
00000360: 3e87 c339 3b40 123b 2919 023b 7d02 ce3a
00000370: 7527 1c3b 0400 0080 0400 0000 154f 1d07
00000380: 7527 1c3b 168f 6c37 7f6f e2b9 0853 37ba
00000390: b894 2bb9 da6e f4b9 13b8 01ba 0c98 2eb9
000003a0: ee6a 8fba e7d3 7eba aecf 41ba 34c5 98ba
000003b0: 0400 0080 0400 0080 d22b 3807 34c5 98ba
000003c0: 97bc 3620 4ba2 1520 ff47 351f 0b46 d31f
000003d0: 509b 871e cd4e 8d1e 42c0 041f cd7c 9e1f
000003e0: 8663 e21f 9bc3 ef1f c4de 3620 0000 0000
000003f0: 0400 0000 1e7c 2107 c4de 3620 f2d2 92b6

exp_avg_sq f4 [30, 15]
9.99393e-09 1.2958034e-07 3.6944503e-08 2.851574e-08 2.0645249e-08 2.283321e-08 1.146794e-08 2.577508e-07
3.0230004e-07 1.6790891e-07 3.4626538e-07 7.7350254e-23 5.647619e-23 3.311541e-07 1.511184e-08 7.680574e-06
0.00017808945 5.8657286e-05 9.980162e-06 8.722046e-05 8.872215e-05 1.9942621e-05 9.7784345e-05 9.7528435e-05
0.00016526127 0.00048076303 3.50173e-06 0.00011429508 0.0001117704 0.00036895153 1.535356e-06 3.3669818e-05
1.0003324e-05 1.597241e-06 1.9718156e-05 1.9966925e-05 3.7515638e-06 1.8210763e-05 1.5090976e-05 2.5487265e-05
0.00011228638 2.0610182e-13 1.3493699e-25 5.762325e-09 0.00011228066 0.0 0.0 0.0
0.0 0.0 0.0 0.0 0.0 0.0 0.0 0.0
0.0 0.0 0.0 0.0 1.7087541e-06 1.7315459e-05 4.388408e-06 1.9893193e-06
6.885843e-06 6.974266e-06 1.7508711e-06 9.362151e-06 1.0076907e-05 1.4591814e-05 4.5680485e-05 9.600457e-07
6.2311046e-06 1.8092354e-05 2.7573995e-05 9.126761e-06 7.5929805e-05 2.1899303e-05 8.62693e-06 3.349534e-05
3.4118417e-05 7.64896e-06 3.0444178e-05 3.1933396e-05 6.072413e-05 0.00016538287 1.1808582e-06 6.289483e-05
4.799266e-05 0.00011737957 1.55195e-10 4.103282e-06 1.1377109e-06 1.7881622e-07 8.8755877e-07 9.54246e-07
4.6687492e-07 2.7640786e-07 1.5917327e-07 4.7161025e-06 3.402903e-08 2.3288806e-06 1.1757731e-05 3.587852e-24
0.0 1.4041688e-06 1.4070966e-05 4.1135254e-06 1.2549211e-06 4.524201e-06 4.614873e-06 1.3400228e-06
7.492559e-06 7.850802e-06 1.1322762e-05 3.1936524e-05 2.864997e-07 8.022572e-06 6.7160336e-06 2.5216275e-05
5.1718143e-08 4.1333633e-06 9.221606e-07 2.9182735e-07 1.509704e-06 1.5278606e-06 4.350874e-07 2.5529662e-06
2.6131931e-06 3.6720069e-06 1.235896e-05 3.1209787e-12 7.6973936e-07 3.9247757e-06 8.4341855e-06 3.7533575e-06
2.1617963e-05 5.687515e-06 3.063481e-06 7.4705563e-06 7.616982e-06 2.0467482e-06 1.0009487e-05 1.0904633e-05
1.7396427e-05 4.909848e-05 3.9220652e-07 1.2130175e-05 1.4703198e-05 3.4390003e-05 1.6587445e-06 2.1794505e-05
6.680743e-06 1.8827466e-06 1.0012146e-05 1.01882215e-05 2.2545396e-06 1.0887466e-05 1.1005604e-05 1.7549533e-05
5.3760792e-05 4.8867565e-07 1.3443651e-05 1.3281701e-05 4.0474522e-05 5.5257865e-06 8.2978004e-05 2.6734508e-05
5.99945e-06 4.0265368e-05 4.1033752e-05 8.849269e-06 4.170672e-05 4.171257e-05 7.1111965e-05 0.00020731514
2.3891857e-07 5.7652367e-05 4.7673828e-05 0.00015964288 2.2378981e-07 8.9818116e-07 2.2256488e-07 1.0013569e-07
1.2720817e-07 1.3843018e-07 7.001608e-08 1.1100144e-06 1.5068099e-06 9.574662e-07 2.1019061e-06 1.502263e-08
3.6663984e-19 1.8778838e-06 2.2380583e-07 1.558031e-05 0.00024874628 7.858427e-05 2.049712e-05 0.00013891119
0.00014062104 2.6750447e-05 0.0001532829 0.00015351211 0.00020048855 0.0007727851 1.6637296e-06 2.7156886e-05
0.00017801374 0.0005947904 3.2417838e-06 0.000118715485 3.9650942e-05 6.4167507e-06 5.109655e-05 5.2360858e-05
1.3655953e-05 6.497038e-05 6.537353e-05 0.00011518417 0.00029789866 3.0901238e-06 0.000109529676 7.456919e-05
0.00022328892 6.183547e-07 3.894873e-05 1.2891623e-05 1.8807405e-06 2.0120871e-05 2.0523063e-05 4.632868e-06
2.170774e-05 2.0969543e-05 3.5598e-05 0.000108858854 1.4170602e-06 2.8865685e-05 2.3887336e-05 8.495069e-05
2.7788294e-06 2.0742233e-05 6.5975946e-06 1.8512969e-06 5.7974057e-06 6.0783923e-06 2.188015e-06 9.712992e-06
1.2552594e-05 2.1457881e-05 2.7751814e-05 0.0 3.8074857e-05 2.4971427e-05 2.7803535e-06 4.6286672e-07
00000000: c5b1 2b32 c622 0b34 e9ac 1e33 c7f2 f432
00000010: 6257 b132 c322 c432 8904 4532 0061 8a34
00000020: cd4b a234 734a 3434 5ae6 b934 7d05 bb1a
00000030: 128d 881a 79c9 b134 4acf 8132 d0db 0037
00000040: 86bd 3a39 c806 7638 7870 2737 21ea b638
00000050: 5710 ba38 744a a737 9211 cd38 2e88 cc38
00000060: fc49 2d39 ec0e fc39 43ff 6a36 b4b1 ef38
00000070: 4766 ea38 d66f c139 6e12 ce35 b138 0d38
00000080: f3d3 2737 c860 d635 6b68 a537 a57e a737
00000090: 60c3 7b36 51c3 9837 402f 7d37 7ccd d537
000000a0: 4b7b eb38 ce0c 682a 3d0b 2716 f2fd c531
000000b0: 3878 eb38 0000 0000 0000 0000 0000 0000
000000c0: 0000 0000 0000 0000 0000 0000 0000 0000
000000d0: 0000 0000 0000 0000 0000 0000 0000 0000
000000e0: 0000 0000 0000 0000 0000 0000 0000 0000
000000f0: 5858 e535 aa40 9137 2340 9336 3f80 0536
00000100: f10c e736 7d04 ea36 79ff ea35 2212 1d37
00000110: fc0f 2937 5dcf 7437 0c99 3f38 ebda 8035
00000120: c814 d136 09c5 9737 b44e e737 241f 1937
00000130: 813c 9f38 65b4 b737 62bc 1037 597d 0c38
00000140: 5f1a 0f38 0854 0037 6062 ff37 39f0 0538
00000150: 0ab2 7e38 a06a 2d39 fb7d 9e35 68e6 8338
00000160: ba4b 4938 ad29 f638 82a3 2a2f edae 8936
00000170: 73b3 9835 a100 4034 9340 6e35 a513 8035
00000180: cda6 fa34 3565 9434 37e9 2a34 033f 9e36
00000190: 5027 1233 dd49 1c36 1243 4537 5dcc 8a18
000001a0: 0000 0000 df76 bc35 5712 6c37 ea06 8a36
000001b0: c36e a835 97ce 9736 75d9 9a36 d5da b335
000001c0: 9768 fb36 f0b6 0337 e4f6 3d37 95f3 0538
000001d0: 38d0 9934 af98 0637 4a5a e136 8a87 d337
000001e0: b320 5e33 52b1 8a36 658a 7735 72ac 9c34
000001f0: 09a1 ca35 e410 cd35 f595 e934 a053 2b36
00000200: 515e 2f36 996c 7636 5459 4f37 8e9e 5b2c
00000210: 16a0 4e35 91b1 8336 8d80 0d37 31e2 7b36
00000220: 3958 b537 62d7 be36 3496 4d36 97ab fa36
00000230: 6195 ff36 de5a 0936 6bee 2737 0bf3 3637
00000240: 8bee 9137 17ef 4d38 7490 d234 b482 4b37
00000250: c1ad 7637 fc3d 1038 07a2 de35 58d3 b637
00000260: 252b e036 aeb2 fc35 d7f9 2737 14ee 2a37
00000270: b24c 1736 4fa9 3637 b6a4 3837 5637 9337
00000280: 367d 6138 892d 0335 0b8c 6137 79d4 5e37
00000290: 30c3 2938 256a b936 7a04 ae38 eb43 e037
000002a0: e24e c936 9ce2 2838 a81b 2c38 5277 1437
000002b0: 40ee 2e38 88f4 2e38 f221 9538 bc62 5939
000002c0: b844 8034 c2cf 7138 62f5 4738 cf65 2739
000002d0: e04a 7034 8a1a 7135 2bfa 6e34 2e0a d733
000002e0: b796 0834 66a3 1434 bf5b 9633 cefb 9435
000002f0: 983d ca35 4a82 8035 790e 0d36 1d0b 8132
00000300: 0c6d d820 990b fc35 474f 7034 76b2 8237
00000310: 296a 8239 9ccd a438 3bf1 ab37 b0a8 1139
00000320: ac73 1339 2666 e037 91ba 2039 18f8 2039
00000330: 3c3a 5239 bb94 4a3a 504d df35 f8ce e337
00000340: 33a9 3a39 b5eb 1b3a 6c8d 5936 e4f6 f838
00000350: e04e 2638 784f d736 8150 5638 0b9e 5b38
00000360: df1b 6537 b540 8838 2619 8938 088f f138
00000370: 482f 9c39 ec5f 4f36 4cb3 e538 0762 9c38
00000380: aa22 6a39 03fd 2535 e15c 2338 1949 5837
00000390: c06d fc35 3ec9 a837 f128 ac37 0874 9b36
000003a0: 0419 b637 c0e7 af37 104f 1538 274b e438
000003b0: d131 be35 9624 f237 aa61 c837 8e27 b238
000003c0: ed7b 3a36 9bff ad37 e860 dd36 147a f835
000003d0: 5687 c236 fef4 cb36 d0d5 1236 fcf4 2237
000003e0: fb98 5237 7300 b437 91cc e837 0000 0000
000003f0: 91b2 1f38 bb79 d137 1c96 3a36 eb7f f834

exp_avg f4 [30]
0.0001901126 -0.003013425 -0.00029328984 0.0 -0.0011791539 0.00033323516 6e-45 0.0011367769
0.00023794413 -0.000407339 0.000252449 0.0025409942 -3.92448e-20 0.0012678972 0.0023827234 -0.0011655452
1.5489707e-19 0.00073137064 -0.00028068444 0.0 0.0010828042 -2.0439172e-20 -0.0019026304 -0.001026811
0.0015670437 0.002032022 -0.0002724555 0.002456877 0.0005866097 -0.00088311115
00000000: f658 4739 e27c 45bb b2c4 99b9 0000 0000
00000010: d78d 9aba 11b6 ae39 0400 0000 e7ff 943a
00000020: a480 7939 1d90 d5b9 225b 8439 cf86 263b
00000030: 0d54 399f 922f a63a 7727 1c3b 35c5 98ba
00000040: c4de 3620 74b9 3f3a d428 93b9 0000 0000
00000050: e1ec 8d3a e30a c19e af61 f9ba 0f96 86ba
00000060: 4365 cd3a ac2b 053b 5cd8 8eb9 8e03 213b
00000070: b6c6 193a 9680 67ba

exp_avg_sq f4 [30]
3.462654e-07 0.0005985791 0.00011228639 0.0 5.288404e-05 0.00022948359 1.4114041e-05 4.02411e-05
1.3128792e-05 6.163148e-05 6.770358e-05 0.00026519762 2.1167123e-06 0.0008018353 0.00041051288 0.00013914752
6.5829496e-05 2.2381953e-05 1.2493905e-05 0.0 7.386243e-05 2.2838496e-05 0.00067580567 0.000116814015
1.7521808e-05 0.0004447705 4.7084934e-05 0.00078473875 0.00017071307 0.0003026349
00000000: 5be6 b934 f7e9 1c3a 4c7b eb38 0000 0000
00000010: cecf 5d38 88a1 7039 58cb 6c37 8dc8 2838
00000020: bb43 5c37 2640 8138 15fc 8d38 390a 8b39
00000030: d70c 0e36 4232 523a 1b3a d739 21e8 1139
00000040: f10d 8a38 e1c0 bb37 ea9c 5137 0000 0000
00000050: 97e6 9a38 4c95 bf37 8d28 313a 0cfa f438
00000060: ccfb 9237 1630 e939 107d 4538 edb6 4d3a
00000070: 7101 3339 f8aa 9e39

exp_avg f4 [30, 30]
2.8715933e-08 -4.557911e-05 0.0003080348 0.0 0.0005875186 7.701668e-05 -6e-45 -1.5438598e-05
0.0007161074 0.0009272006 0.0005512757 0.00019772972 3.241515e-21 0.00025079542 0.0001027474 0.0002897794
1.6889734e-22 0.00032078955 0.0008578912 0.0 0.00061864173 6.1103218e-21 0.00051622756 0.00062061567
0.00028816971 3.7059795e-05 0.00076798006 0.00021055414 0.00059695635 3.9419796e-05 2.2216923e-06 -4.783607e-05
0.00045070256 0.0 0.0017105038 0.00080253487 6e-45 6.7421606e-05 0.000919941 0.0026232242
0.0017072153 0.00019586738 1.9680843e-34 0.0012245134 0.000368194 0.00027142925 9.88273e-35 0.00083099527
0.002394592 0.0 0.0013822978 1.3454542e-34 0.00090114615 0.0018626221 0.000632109 5.2379375e-05
0.001198373 0.00017615774 0.0017203928 -1.422269e-05 -8.916448e-09 1.4123037e-05 -5.442593e-05 0.0
-2.9231158e-05 3.0164983e-05 6e-45 4.588026e-06 -0.00015572151 -5.694718e-05 -3.124988e-05 -5.828581e-05
3.480867e-36 2.2224769e-05 -7.6148053e-06 -6.9052374e-05 9.749879e-36 -3.6793524e-05 -6.1639825e-05 0.0
-8.6358734e-05 -7.06087e-36 -7.794449e-05 -3.6933474e-05 -4.184251e-05 -1.1495932e-05 -0.00013970266 -6.441093e-05
-3.895214e-05 -1.2229543e-05 0.0 6e-45 0.0 0.0 6e-45 6e-45
6e-45 6e-45 6e-45 6e-45 6e-45 6e-45 6e-45 0.0
6e-45 0.0 6e-45 6e-45 6e-45 0.0 6e-45 6e-45
6e-45 6e-45 6e-45 0.0 6e-45 0.0 6e-45 0.0
-1.2441882e-07 4.140165e-05 -0.00046377548 0.0 -0.000378346 -6.329084e-05 6e-45 2.6016294e-05
-0.0012965128 -0.00067970215 -0.00038764576 -0.00047664178 -3.7284885e-36 5.4464304e-05 -0.00012159941 -0.0005264733
-1.615464e-35 -0.0003622811 -0.0006766223 0.0 -0.000798699 -2.125901e-35 -0.0006691697 -0.0004553824
-0.00040017779 -0.00016055565 -0.0011732485 -0.000529636 -0.00047262656 -0.00017078273 4.0804206e-08 -6.485122e-05
0.0004368445 0.0 0.0008337671 0.00010945335 -6e-45 -2.2072205e-05 0.0010164453 0.0013156021
0.0007824274 0.0002814741 4.6362726e-21 0.00035576647 0.00014549 0.00041196446 2.4157057e-22 0.00045562658
0.0012177813 0.0 0.00087880564 8.739483e-21 0.00073247997 0.00088121527 0.00040909732 5.266326e-05
0.0010903014 0.00029891726 0.0008462713 5.601706e-05 -1.3458717e-06 -7.77145e-06 1.8109102e-05 0.0
-0.00019283667 -0.0001388432 -6e-45 -4.2912334e-06 0.00014544358 -0.00025495657 -0.00012829248 6.032909e-05
9.539048e-22 -0.00014641389 -9.794336e-07 5.294385e-05 4.970274e-23 -2.6363907e-05 -0.00019824562 0.0
-2.3269513e-05 1.7981305e-21 -1.7383873e-05 -0.00016925455 -5.293259e-09 1.0766535e-05 5.336852e-05 6.0298804e-05
-0.00011777469 1.1452226e-05 5.4671623e-06 3.157992e-05 -7.344507e-05 0.0 0.0007834574 0.0005639614
6e-45 1.7435206e-05 -0.00059047266 0.0010359256 0.0005213428 -0.0002449603 -3.858219e-21 0.0005948587
4.087278e-06 -0.00021498148 -2.0103061e-22 0.00010722699 0.00080553605 0.0 9.473819e-05 -7.272822e-21
7.075836e-05 0.0006877014 1.4983743e-07 -4.371996e-05 -0.00021652674 -0.00024484206 0.00047868834 -4.6507925e-05
7.4489753e-07 -6.88028e-05 0.00015674993 0.0 0.000602948 0.00026507207 6e-45 -0.00021586445
0.00013933022 0.0008191357 0.00020141144 3.7319085e-05 5.299394e-21 0.0001048517 3.091353e-05 5.9021007e-05
00000000: 01ab f632 322c 3fb8 bb7f a139 0000 0000
00000010: b503 1a3a 0484 a138 0400 0080 2382 81b7
00000020: 27b9 3b3a 610f 733a 7c83 103a ab55 4f39
00000030: 05ec 741d 317d 8339 177a d738 88ed 9739
00000040: 322f 4c1b a52f a839 1be4 603a 0000 0000
00000050: 582c 223a 68d7 e61d 7253 073a d0b0 223a
00000060: 7c15 9739 a770 1b38 4552 493a 32c8 5c39
00000070: 107d 1c3a af56 2538 6218 1536 97a3 48b8
00000080: 464c ec39 0000 0000 fc32 e03a 3461 523a
00000090: 0400 0000 b364 8d38 3228 713a 66ea 2b3b
000000a0: a4c4 df3a c061 4d39 38cd 8207 da7f a03a
000000b0: 2a0a c139 9e4e 8e39 305d 0307 26d7 593a
000000c0: 96ee 1c3b 0000 0000 382e b53a 6fd7 3207
000000d0: e53a 6c3a 3a23 f43a 1eb4 253a edb1 5b38
000000e0: ba12 9d3a fcb6 3839 ce7e e13a fd9d 6eb7
000000f0: f42e 19b2 fbf1 6c37 6647 64b8 0000 0000
00000100: 6f35 f5b7 cf0a fd37 0400 0000 d8f2 9936
00000110: 2d49 23b9 92da 6eb8 4e12 03b8 e977 74b8
00000120: 490f 9404 546f ba37 ae82 ffb6 36d0 90b8
00000130: 645b 4f05 bf52 1ab8 a144 81b8 0000 0000
00000140: 7e1b b5b8 082b 1685 2176 a3b8 04e9 1ab8
00000150: 0e80 2fb8 a7de 40b7 267d 12b9 5b14 87b8
00000160: 8b60 23b8 7d2d 4db7 0000 0000 0400 0000
00000170: 0000 0000 0000 0000 0400 0000 0400 0000
00000180: 0400 0000 0400 0000 0400 0000 0400 0000
00000190: 0400 0000 0400 0000 0400 0000 0000 0000
000001a0: 0400 0000 0000 0000 0400 0000 0400 0000
000001b0: 0400 0000 0000 0000 0400 0000 0400 0000
000001c0: 0400 0000 0400 0000 0400 0000 0000 0000
000001d0: 0400 0000 0000 0000 0400 0000 0000 0000
000001e0: fc97 05b4 afa6 2d38 e426 f3b9 0000 0000
000001f0: be5c c6b9 03bb 84b8 0400 0000 913d da37
00000200: c0ef a9ba 0a2e 32ba ef3c cbb9 c7e5 f9b9
00000210: a597 9e84 9a70 6438 3003 ffb8 0603 0aba
00000220: 1dc9 ab85 8cf0 bdb9 5b5f 31ba 0000 0000
00000230: c85f 51ba 8810 e285 386b 2fba 64c0 eeb9
00000240: f4ce d1b9 d45a 28b9 b0c7 99ba 45d7 0aba
00000250: ddca f7b9 2414 33b9 b340 2f33 bc00 88b8
00000260: 4708 e539 0000 0000 2a91 5a3a 528a e538
00000270: 0400 0080 b327 b9b7 3f3a 853a 4870 ac3a
00000280: d01b 4d3a d092 9339 4727 af1d 2b86 ba39
00000290: ad8e 1839 effc d739 3c05 921b 2ae1 ee39
000002a0: f69d 9f3a 0000 0000 a65f 663a 8c15 251e
000002b0: e603 403a 5b01 673a 1d7c d639 bfe2 5c38
000002c0: 72e8 8e3a ffb7 9c39 4ed8 5d3a dcf3 6a38
000002d0: cda3 b4b5 2062 02b7 00e9 9737 0000 0000
000002e0: 3334 4ab9 7096 11b9 0400 0080 6afd 8fb6
000002f0: 3782 1839 b1ab 85b9 4086 06b9 de09 7d38
00000300: 6826 901c ae86 19b9 1575 83b5 0710 5e38
00000310: 0359 701a 0f28 ddb7 27e0 4fb9 0000 0000
00000320: e632 c3b7 e7dc 071d 95d3 91b7 ec79 31b9
00000330: 00e0 b5b1 eaa1 3437 03d8 5f38 59e9 7c38
00000340: cefd f6b8 f022 4037 9172 b736 ae74 0438
00000350: 8606 9ab8 0000 0000 f060 4d3a cfd6 133a
00000360: 0400 0000 d241 9237 f3c9 1aba e5c7 873a
00000370: b9aa 083a 046e 80b9 68c2 919d 4bf0 1b3a
00000380: 7325 8936 a76c 61b9 f607 739b 0ddf e038
00000390: 9c2a 533a 0000 0000 2eae c638 3661 099e
000003a0: 1b64 9438 dc46 343a 00e3 2034 f35f 37b8
000003b0: 740b 63b9 255e 80b9 76f8 fa39 8111 43b8
000003c0: f8f4 4735 394a 90b8 3d5d 2439 0000 0000
000003d0: 280f 1e3a 5ff9 8a39 0400 0000 ac59 62b9
000003e0: 2c19 1239 44bb 563a f931 5339 1087 1c38
000003f0: 9834 c81d d4e3 db38 26a9 0138 538d 7738

exp_avg_sq f4 [30, 30]
6.5211316e-09 3.5291355e-06 2.0669627e-06 0.0 1.8347479e-05 2.6090463e-06 1.448171e-06 4.347415e-06
1.4731692e-05 3.695345e-05 3.3095424e-05 5.914661e-06 4.494008e-07 3.63389e-06 2.365337e-06 6.2430063e-06
6.2219016e-07 2.584617e-06 3.7027952e-05 0.0 2.3498565e-05 4.9518326e-07 9.016337e-06 1.3583915e-05
3.6824522e-06 9.673364e-09 2.1611559e-05 2.8902436e-06 2.0204976e-05 3.577799e-07 1.2974824e-08 6.336809e-06
2.2484226e-06 0.0 2.0412266e-05 4.3649134e-06 1.0899638e-06 2.7900949e-06 1.4948874e-05 4.2922526e-05
3.3056047e-05 5.8302085e-06 4.869227e-07 4.925373e-06 3.258877e-06 4.9127275e-06 9.487928e-07 3.2961668e-06
3.296176e-05 0.0 2.528968e-05 7.9782006e-07 7.3195624e-06 1.3590511e-05 4.698608e-06 1.5433265e-08
1.9233552e-05 3.7426485e-06 2.0455684e-05 2.9497497e-07 5.5176613e-10 1.6060902e-07 1.72508e-07 0.0
1.3676844e-06 1.1184471e-07 1.01864714e-07 3.0424638e-07 1.2650609e-06 2.69747e-06 2.333948e-06 4.5462986e-07
4.0256424e-08 2.5212393e-07 1.7003057e-07 5.077255e-07 1.8630944e-08 1.9693671e-07 2.6753141e-06 0.0
1.9090014e-06 2.1747896e-08 6.269271e-07 9.489614e-07 3.0185032e-07 6.5120076e-10 1.6085228e-06 2.1477301e-07
1.4626377e-06 1.1571857e-08 0.0 1.2813428e-33 0.0 0.0 2.4515324e-25 1.0423129e-26
3.2263455e-25 3.7319203e-24 9.1141025e-25 1.549812e-25 6.1896918e-24 1.2016927e-24 1.4959963e-28 0.0
1.9812825e-24 0.0 1.7226211e-34 1.2361295e-27 1.7137958e-24 0.0 1.4675432e-24 5.532709e-27
6.337916e-27 4.215249e-27 1.539088e-25 0.0 1.3939556e-24 0.0 5.3431857e-25 0.0
4.5847976e-08 3.2141965e-05 1.4817753e-05 0.0 9.1047084e-05 1.3935867e-05 7.3898136e-06 2.5463598e-05
0.00011263045 0.00020850188 0.00020952521 3.9526407e-05 2.9015603e-06 2.2887567e-05 1.6423246e-05 4.101578e-05
5.757407e-06 1.6363709e-05 0.0002085439 0.0 0.00013939421 3.5837995e-06 6.075538e-05 7.512016e-05
2.1274358e-05 1.6446079e-07 0.00014686609 2.4792778e-05 0.00013855702 4.874498e-06 1.3361432e-08 7.312426e-06
4.1984113e-06 0.0 3.705147e-05 5.317413e-06 2.9376022e-06 8.86374e-06 3.0245825e-05 7.488874e-05
6.767082e-05 1.2223091e-05 9.1865644e-07 7.404769e-06 4.8122456e-06 1.2889832e-05 1.3092938e-06 5.247413e-06
7.544807e-05 0.0 4.8000657e-05 1.0319102e-06 1.8443294e-05 2.7677714e-05 7.482615e-06 1.8539644e-08
4.4335306e-05 5.9602858e-06 4.1129886e-05 7.437919e-07 8.7346197e-10 3.616912e-07 1.6797819e-07 0.0
1.9006767e-06 4.3968328e-07 1.5985037e-07 4.6609597e-07 1.294248e-06 3.7434697e-06 3.357625e-06 5.725917e-07
4.3796113e-08 3.7303334e-07 2.4799095e-07 5.784693e-07 6.4612e-08 2.4597819e-07 3.6292283e-06 0.0
2.2190816e-06 5.0371735e-08 8.331324e-07 1.3272289e-06 3.5436037e-07 8.145836e-10 1.9803265e-06 2.646848e-07
1.8606331e-06 3.5681754e-08 1.4082373e-08 5.5520077e-06 2.701906e-06 0.0 2.599931e-05 4.297019e-06
2.2021203e-08 8.854113e-07 1.9679199e-05 5.2665724e-05 3.6446076e-05 5.947471e-06 6.975501e-07 5.8853457e-06
1.7122059e-06 8.507972e-06 8.957375e-07 3.891592e-06 4.4703836e-05 0.0 3.010983e-05 7.8215487e-07
1.0851669e-05 2.014401e-05 4.109998e-06 1.2712436e-08 2.5978048e-05 4.208425e-06 2.7959617e-05 5.4768293e-07
1.4601831e-08 7.4518216e-06 3.3749448e-06 0.0 3.3986416e-05 6.055867e-06 3.2132716e-06 9.121921e-06
2.3729657e-05 6.673948e-05 5.936443e-05 1.0222431e-05 7.497497e-07 7.1186523e-06 5.0776e-06 8.946362e-06
00000000: 7b10 e031 16d6 6c36 26b6 0a36 0000 0000
00000010: e9e8 9937 1317 2f36 c75e c235 03e0 9136
00000020: 2328 7737 77fe 1a38 f1cf 0a38 8d76 c636
00000030: 2d45 f134 c1dd 7336 2ebc 1e36 047b d136
00000040: 9504 2735 6273 2d36 764e 1b38 0000 0000
00000050: c91e c537 bcec 0435 df44 1737 78e6 6337
00000060: 0c20 7736 e82f 2632 784a b537 02f6 4136
00000070: db7d a937 e514 c034 e1e7 5e32 c6a0 d436
00000080: 9be3 1636 0000 0000 023b ab37 5276 9236
00000090: df4a 9235 773d 3b36 edcc 7a37 b607 3438
000000a0: a9a5 0a38 1ca1 c336 13b5 0235 a244 a536
000000b0: 15b3 5a36 02d8 a436 8bb0 7e35 b733 5d36
000000c0: 6c40 0a38 0000 0000 2d25 d437 c729 5635
000000d0: 909a f536 cd02 6437 bca8 9d36 1c92 8432
000000e0: bd57 a137 362a 7b36 3f98 ab37 0d5d 9e34
000000f0: 17ab 1730 df73 2c34 a33a 3934 0000 0000
00000100: 4791 b735 482f f033 b8c0 da33 4e57 a334
00000110: 29cb a935 2f06 3536 eca0 1c36 da13 f434
00000120: 68e6 2c33 a65b 8734 a691 3634 a14a 0835
00000130: e109 a032 8d75 5334 8c89 3336 0000 0000
00000140: 651c 0036 21d0 ba32 1a4a 2835 21bc 7e35
00000150: fe0d a234 2e00 3330 6ce4 d735 5b9c 6634
00000160: d94f c435 91cd 4632 0000 0000 4ce6 d408
00000170: 0000 0000 0000 0000 15be 9716 8b73 4e14
00000180: 7cb3 c716 265f 9018 ae08 8d17 81db 3f16
00000190: bd73 ef18 f4f3 b917 dba3 3d11 0000 0000
000001a0: 584b 1918 0000 0000 c2f9 6407 5fdf c312
000001b0: 3999 0418 0000 0000 6017 e317 562c db13
000001c0: 1b12 fb13 b4fb a613 a587 3e16 0000 0000
000001d0: 45b4 d717 0000 0000 145d 2517 0000 0000
000001e0: 62ea 4433 2cd0 0638 c499 7837 0000 0000
000001f0: 88f0 be38 18ce 6937 04f6 f736 a99a d537
00000200: 0334 ec38 4ca1 5a39 ffb3 5b39 28c9 2538
00000210: 6db8 4236 adfe bf37 a7c4 8937 5c08 2c38
00000220: c02f c136 cc44 8937 94ac 5a39 0000 0000
00000230: 592a 1239 3581 7036 98d3 7e38 d489 9d38
00000240: 5676 b237 a396 3034 1100 1a39 16fa cf37
00000250: 9e49 1139 9e8f a336 338c 6532 435d f536
00000260: 14e0 8c36 0000 0000 b767 1b38 3b6c b236
00000270: 9f23 4536 79b5 1437 6ab8 fd37 960d 9d38
00000280: 7fea 8d38 c711 4d37 9799 7635 7b76 f836
00000290: e078 a136 6841 5837 feba af35 ef12 b036
000002a0: e039 9e38 0000 0000 5054 4938 2a80 8a35
000002b0: acb6 9a37 702d e837 2c13 fb36 1c41 9f32
000002c0: acf4 3938 77fe c736 e182 2c38 fda8 4735
000002d0: 6c18 7030 762e c234 7e5d 3434 0000 0000
000002e0: c11a ff35 9c0d ec34 56a3 2b34 be3b fa34
000002f0: 06b6 ad35 5238 7b36 8f53 6136 34b4 1935
00000300: 561a 3c33 5045 c834 9e23 8534 1c48 1b35
00000310: d3c0 8a33 fc0e 8434 ab8d 7336 0000 0000
00000320: 88eb 1436 4f58 5833 6ca4 5f35 3d23 b235
00000330: eb3e be34 3ae9 5f30 c0e5 0436 001a 8e34
00000340: deba f935 8140 1933 eeee 7132 624b ba36
00000350: 6452 3536 0000 0000 1819 da37 1d2f 9036
00000360: 2329 bd32 00ad 6d35 c214 a537 64e5 5c38
00000370: addd 1838 6390 c736 473f 3b35 bc7a c536
00000380: f2ce e535 76bd 0e37 9d72 7035 8594 8236
00000390: 6180 3b38 0000 0000 5e94 fc37 46f5 5135
000003a0: 900f 3637 effa a837 9de8 8936 e365 5a32
000003b0: 6feb d937 1836 8d36 d28a ea37 7c04 1335
000003c0: 88db 7a32 a90a fa36 1c7d 6236 0000 0000
000003d0: a38c 0e38 8033 cb36 96a3 5736 5a0a 1937
000003e0: 0d0f c737 7cf6 8b38 12fe 7838 0281 2b37
000003f0: 6842 4935 c2dc ee36 4060 aa36 5518 1637

exp_avg f4 [30]
0.001122356 0.0026930436 -0.0001281642 6e-45 -0.0012692313 0.0015926457 -0.00010917199 0.00044391459
0.0006168921 0.001362768 -0.00028629086 6e-45 1.7026918e-22 0.0006869953 0.0003212876 0.0011374177
-0.00017424322 0.00017382229 -0.0001539634 0.00013163383 0.00011221929 0.00035095424 -0.0001203021 6e-45
-8.414946e-05 0.00013988704 0.0 -0.00029892632 0.0013205644 0.0002194342
00000000: 051c 933a c67d 303b d163 06b9 0400 0000
00000010: 565c a6ba 52c0 d03a 44f3 e4b8 35bd e839
00000020: eeb6 213a e89e b23a 4f19 96b9 0400 0000
00000030: c2d7 4d1b 7917 343a 7e72 a839 6815 953a
00000040: 0fb5 36b9 1144 3639 3c71 21b9 3007 0a39
00000050: 4657 eb38 4800 b839 b34a fcb8 0400 0000
00000060: 6679 b0b8 a4ae 1239 0000 0000 36b9 9cb9
00000070: ca16 ad3a eb17 6639

exp_avg_sq f4 [30]
9.685086e-05 0.00010320756 7.136295e-06 1.4521965e-23 0.0006192861 0.00019750513 9.385168e-06 0.00011621083
0.00017657071 0.00023422536 6.302283e-05 3.0811148e-17 8.435854e-07 0.0001119853 7.5142314e-05 0.00010451031
2.3402872e-05 4.2096162e-05 1.834372e-05 1.3303009e-05 9.097912e-06 3.363092e-05 1.1147185e-05 8.2468185e-11
5.3313097e-06 9.540785e-05 0.0 6.875471e-05 0.00018064602 1.2586518e-06
00000000: 691c cb38 2371 d838 4f74 ef36 a572 8c19
00000010: 9657 223a 6119 4f39 fd74 1d37 37b6 f338
00000020: d725 3939 649a 7539 202b 8438 6217 0e24
00000030: bf72 6235 a6d9 ea38 b995 9d38 8c2c db38
00000040: 4951 c437 6990 3038 d7e0 9937 fd2f 5f37
00000050: 3ca3 1837 ed0e 0d38 cc04 3b37 7659 b52e
00000060: 9ae3 b236 b315 c838 0000 0000 6730 9038
00000070: cc6b 3d39 f2ee a835

exp_avg f4 [1, 30]
-0.00013515077 -0.0001754497 0.00050037494 -6e-45 0.0006861943 0.00010420576 -0.0010363223 0.00020518407
-0.00051393796 -0.0003672834 0.0002375826 -6e-45 1.5704785e-23 -0.00039370725 -0.0010186018 8.552117e-05
-0.0010504379 -0.0008098405 -0.001601934 2.5603076e-06 -0.00019826822 0.00010502603 -0.0014283486 -6e-45
-0.00065601035 -0.00069149944 0.0 -0.0015377244 -2.727022e-05 -0.0014829095
00000000: 42b7 0db9 ecf8 37b9 982b 033a 0400 0080
00000010: b8e1 333a 0b89 da38 35d5 87ba ae26 5739
00000020: cbb9 06ba f28f c0b9 981f 7939 0400 0080
00000030: 2ae3 9719 7e6a ceb9 9b82 85ba d459 b338
00000040: d9ae 89ba 7a4b 54ba fcf7 d1ba c0d1 2b36
00000050: 38e6 4fb9 6c41 dc38 6d37 bbba 0400 0080
00000060: 1cf8 2bba be45 35ba 0000 0000 788d c9ba
00000070: 5ac2 e4b7 305e c2ba

exp_avg_sq f4 [1, 30]
3.937987e-05 2.1731928e-06 5.4143065e-06 2.3435815e-27 5.5555415e-06 2.5410332e-05 0.000176006 2.1490367e-05
8.088406e-06 2.2716355e-05 0.00028310122 1.6429314e-20 1.7767956e-08 1.2810331e-05 1.9499947e-05 3.0251402e-05
0.00015672442 1.11328845e-05 0.00017082294 4.5161407e-05 7.470151e-05 1.0528969e-06 9.726256e-05 1.8600051e-13
0.00011644506 1.5910013e-05 0.0 0.00028781418 2.542715e-05 1.1413184e-05
00000000: d02b 2538 2bd7 1136 8aac b536 7bad 3913
00000010: bd69 ba36 4628 d537 408e 3839 3646 b437
00000020: 70b3 0737 008f be37 346d 9439 a52b 9b1e
00000030: 26a0 9832 f4eb 5637 d193 a337 64c4 fd37
00000040: 6456 2439 60c7 3a37 ef1e 3339 b16b 3d38
00000050: 11a9 9c38 4351 8d35 70f9 cb38 ff6a 512a
00000060: f733 f438 7e76 8537 0000 0000 c4e5 9639
00000070: 644c d537 417b 3f37
