Checkpoints/ANN_v1_checkpoint_1.pth (torch, 28199 bytes, 15 tensors)

fc1.weight f4 [32, 15]
-2.4710017e-37 -2.0088488e-37 -1.9586063e-37 3.303827e-37 2.401896e-37 3.2609592e-37 -1.3749195e-37 -2.5334378e-37
-2.2933162e-37 -2.05185e-37 -2.5221462e-37 -5.808136e-38 3.7136242e-38 -2.5033323e-37 -2.4248006e-37 0.022541918
0.07739321 -0.28127366 -0.043933913 0.04123114 -0.0081480285 0.11366933 -0.11434869 0.007671073
0.03892822 0.16660427 -0.0058645955 0.061360363 0.08207501 0.059090335 -0.0009529109 -0.17070292
-0.17128795 0.043847494 0.077464856 0.13154212 0.25896543 0.067845054 -0.097404525 0.038026784
0.13328572 -0.011518401 -0.0022992387 -0.14959876 -0.12503935 -0.0023909751 -0.0033687172 -0.040067095
0.1427408 -0.16400391 0.1137684 0.070987254 0.18414275 -0.13918044 -0.23215143 0.22277768
0.31940868 -0.08244434 -0.00429053 0.008350032 -0.052364685 0.3813948 -0.17320727 0.14358743
-0.014224101 0.14791572 0.1622801 -0.14300309 0.028690565 0.240887 -0.036856886 0.03170846
-0.052957356 -0.0507975 0.08321364 -0.2622897 0.11054603 -0.03386873 -0.0895419 -0.08955303
0.15224478 -0.23388505 0.061761297 -0.08510848 0.17090817 -0.09763471 0.11245761 0.15956649
-2.4505412e-37 2.4396171e-37 0.15697208 -0.15960985 0.29762068 -0.15889338 -0.18954669 0.29203698
0.016531141 0.14843161 -0.24863762 -0.0005205374 0.22703947 0.14469996 0.21797113 0.25998768
-0.02543102 -0.0793716 0.060923874 0.41357628 -0.56354284 0.11300146 -0.040059958 0.0925832
-0.16872315 0.06249483 0.19630417 -0.2360182 0.11755962 0.005337291 -0.06308645 -0.059798647
-0.07161119 0.3184952 0.088042386 0.13882934 -0.0793716 0.027469173 -0.11585992 -0.1560215
0.0050077024 0.043270208 0.03288138 0.00084773614 -0.062044512 0.15585932 -0.11399969 -0.16011529
0.2677231 0.03175232 0.13964649 0.13332886 -0.10290608 0.12826833 -0.12216908 0.06625855
0.28899485 -0.20918652 -0.10839251 0.026533093 0.14942789 0.10593554 -0.8570006 -0.19083928
0.012563847 -0.48290032 -0.004177396 0.0045815827 0.03232503 -0.003734447 -0.0030091712 0.0027099974
0.04810159 0.012750535 0.09397075 0.058606982 0.048644766 0.098023795 -0.29818487 -0.35247624
-0.24915014 -0.15856168 0.16922602 0.1805367 -0.026529357 0.003992929 0.19968477 0.18164971
0.11210084 0.18439078 0.015124325 -0.01157167 -0.11724257 0.2969975 -0.18494068 -0.01732911
-0.13685775 0.20528008 -0.037006237 0.17233998 0.10099248 -0.07441157 0.2645505 -0.074856415
0.16461936 -0.02509487 -0.0072401846 0.21000873 0.2822194 -0.12829179 -0.44278586 0.1242594
0.04971709 0.041345328 -0.10844786 0.060008213 0.001826645 -0.15062763 -0.22863679 -0.042149287
0.016419204 -0.14887658 -0.057602573 0.169817 -0.03488944 0.43806344 -0.0040744226 0.0038635165
0.00024462875 0.0035189036 -0.0018923618 -0.0008557399 -0.024493443 0.026381906 -0.009714889 0.010955078
0.010763956 0.10316228 -0.32485068 -0.14586438 0.35624853 0.020916888 -0.023887249 -0.15406953
0.08895047 -0.069225386 0.0005865212 0.078250915 -0.0145839695 0.022545064 -0.031572744 -0.062531754
0.051240955 -0.063822195 0.27887467 0.35508332 0.21493287 0.10795953 0.227206 -0.058908243
0.01465646 -0.13342185 -0.046758275 0.22050397 0.012462092 0.14661208 0.005478345 -0.028425397
00000000: ec2a a882 15b7 8882 bc4b 8582 c9d8 e002
00000010: ee76 a302 eced dd02 f424 3b82 b66a ac82
00000020: 3413 9c82 45a4 8b82 fca5 ab82 cd1c 9e81
00000030: 5e30 4a01 335e aa82 fc05 a582 d4a9 b83c
00000040: 5580 9e3d 1a03 90be 0cf4 33bd fce1 283d
00000050: 4f7f 05bc 77cb e83d a52f eabd a05d fb3b
00000060: 3273 1f3d 4f9a 2a3e cb2b c0bb 0155 7b3d
00000070: f116 a83d b508 723d c5cc 79ba bfcc 2ebe
00000080: 1c66 2fbe 6e99 333d e5a5 9e3d fab2 063e
00000090: 1e97 843e 59f2 8a3d 067c c7bd f9c1 1b3d
000000a0: 0d7c 083e adb7 3cbc d3ae 16bb 6b30 19be
000000b0: 510a 00be e8b1 1cbb b2c5 5cbb 651d 24bd
000000c0: a52a 123e a4f0 27be 68ff e83d c461 913d
000000d0: eb8f 3c3e 5185 0ebe 1bb9 6dbe d51f 643e
000000e0: 8989 a33e 94d8 a8bd 9397 8cbb 93ce 083c
000000f0: 5a7c 56bd 2e46 c33e 3f5d 31be 9508 133e
00000100: 340c 69bc 3877 173e c12c 263e 676f 12be
00000110: 7a08 eb3c 15ab 763e 3ff7 16bd bbe0 013d
00000120: d0e9 58bd 0a11 50bd ea6b aa3d d64a 86be
00000130: f565 e23d f0b9 0abd be61 b7bd 9467 b7bd
00000140: 0ee6 1b3e 907f 6fbe 6af9 7c3d 5b4d aebd
00000150: 8d02 2f3e b5f4 c7bd 2d50 e63d 6665 233e
00000160: 73c6 a682 2008 a602 4abd 203e c470 23be
00000170: bd61 983e f2b4 22be 8718 42be df85 953e
00000180: 516c 873c 75fe 173e dc9a 7ebe ac74 08ba
00000190: 097d 683e 3a2c 143e d333 5f3e 1b1d 853e
000001a0: b754 d0bc 948d a2bd 508b 793d 45c0 d33e
000001b0: 5844 10bf 4f6d e73d e915 24bd 439c bd3d
000001c0: c3c5 2cbe 94fa 7f3d f603 493e c1ae 71be
000001d0: 19c3 f03d 71e4 ae3b 7833 81bd 6def 74bd
000001e0: e3a8 92bd ce11 a33e 914f b43d 4729 0e3e
000001f0: 948d a2bd 0807 e13c f747 edbd 1ac4 1fbe
00000200: a717 a43b 1a3c 313d a0ae 063d 9c3a 5e3a
00000210: 6322 7ebd 9699 1f3e ab78 e9bd 43f5 23be
00000220: 0113 893e b80e 023d 7dff 0e3e 5c87 083e
00000230: 6cc0 d2bd c658 033e c833 fabd 90b2 873d
00000240: 22f7 933e fe34 56be e4fc ddbd ee5b d93c
00000250: a003 193e bbf4 d83d 6464 5bbf 5f6b 43be
00000260: 98d8 4d3c b63e f7be 8ae2 88bb 1a21 963b
00000270: 4067 043d a0bd 74bb 8435 45bb 369a 313b
00000280: 2c06 453d 9fe7 503c bd73 c03d e00d 703d
00000290: bc3f 473d b3c0 c83d b0ab 98be c477 b4be
000002a0: 3721 7fbe fe5d 22be 9649 2d3e 9dde 383e
000002b0: 1854 d9bc 1ed7 823b 2a7a 4c3e 6202 3a3e
000002c0: 2095 e53d f0d0 3c3e 04cc 773c 1a97 3dbc
000002d0: df1c f0bd 0e10 983e 1761 3dbe c7f5 8dbc
000002e0: 7024 0cbe f134 523e da93 17bd e479 303e
000002f0: 25d5 ce3d 1865 98bd 2a73 873e 524e 99bd
00000300: fa91 283e c293 cdbc 123f edbb 870c 573e
00000310: 107f 903e ec5e 03be d4b4 e2be b67b fe3d
00000320: 26a4 4b3d b859 293d e919 debd 2ccb 753d
00000330: 096c ef3a 213e 1abe c31f 6abe bba4 2cbd
00000340: 9181 863c 1a73 18be adf0 6bbd 82e4 2d3e
00000350: 3be8 0ebd da49 e03e bc82 85bb 0d33 7d3b
00000360: 8441 8039 689d 663b 2009 f8ba bc53 60ba
00000370: 79a6 c8bc de1e d83c 332b 1fbc ed7c 333c
00000380: 4e5b 303c bf46 d33d d452 a6be 795d 15be
00000390: 3566 b63e e559 ab3c 31af c3bc 67c4 1dbe
000003a0: aa2b b63d 0ac6 8dbd c5c0 193a 0442 a03d
000003b0: 9af1 6ebc 6db0 b83c 6c52 01bd a610 80bd
000003c0: 09e2 513d 36b5 82bd a9c8 8e3e 7bcd b53e
000003d0: 5d17 5c3e e319 dd3d b1a8 683e c549 71bd
000003e0: a621 703c bd9f 08be 9b85 3fbd cbcb 613e
000003f0: cd2d 4c3c 7a21 163e b083 b33b 61dc e8bc

fc1.bias f4 [32]
-2.5861015e-37 -0.08681313 0.14758982 0.14956655 -0.12520777 -0.20870432 -0.042407524 0.21415521
0.015336594 0.06045378 0.053623736 0.24652736 0.097317725 0.23218009 -0.116783075 0.16085559
0.100060716 -0.0990012 -0.051845603 0.02702594 0.24052696 0.057013802 -0.034016814 -2.7734084e-37
-8.108518e-38 -0.16969249 0.033016834 0.28985357 0.17325339 0.31531712 0.27396524 0.07858162
00000000: 3e00 b082 15cb b1bd c921 173e f927 193e
00000010: 7736 00be 96b6 55be 83b3 2dbd 814b 5b3e
00000020: 5646 7b3c 629e 773d 90a4 5b3d ab71 7c3e
00000030: 844e c73d 9ec0 6d3e f72b efbd 54b7 243e
00000040: a2ec cc3d 24c1 cabd 0e5c 54bd 8165 dd3c
00000050: b34c 763e 4e87 693d 3755 0bbd 97bf bc82
00000060: 20bc dc81 dec3 2dbe a93c 073d b067 943e
00000070: 5669 313e 3f71 a13e 2c45 8c3e 66ef a03d

fc2.weight f4 [32, 32]
3.344858e-37 -2.6065483e-37 -2.98567e-37 -3.0684775e-37 -2.9455652e-37 -2.9132047e-37 -3.0002105e-37 -3.0854565e-37
-2.656161e-37 -2.8699902e-37 3.0586799e-37 -2.9781684e-37 -2.734382e-37 -2.8409775e-37 2.8704124e-37 -2.7438718e-37
-3.0921415e-37 -3.1373514e-37 -2.8195997e-37 2.6542835e-37 -2.7645392e-37 2.7352025e-37 -2.988694e-37 -3.129033e-37
-3.055255e-37 2.5639802e-37 -2.8053941e-37 -3.0056128e-37 -2.807765e-37 -2.9356728e-37 -2.8888082e-37 -2.8066091e-37
2.8136492e-37 0.13796048 -0.08864973 -0.26730424 0.104922004 0.1715356 0.057755258 -0.040229604
-0.2213979 0.03777943 -0.19265865 -0.16179526 0.09565213 0.034305 -0.57887864 0.33847293
-0.009622473 -0.042764727 0.19301839 0.0005461707 -0.046431698 -0.40762657 -0.15284379 0.0769441
0.17303282 -0.004029274 0.07432602 0.020785844 0.042362686 0.13140237 -0.0140936 0.21785128
-3.0211013e-37 0.18912408 0.11779104 -0.044674333 -0.028881714 -0.06391687 0.096268155 -0.07205343
-0.17711706 -0.20522824 -0.15749075 0.27163455 0.1121122 -0.082791716 -0.54769695 0.2213338
0.1860993 0.008931584 -0.13491154 0.07560105 -0.033615213 -0.19115554 0.10051383 0.0065040863
0.21011187 -0.00813382 -0.017418629 0.039611083 0.122592635 0.120467246 0.16363683 0.16205412
-2.9029364e-37 0.10181532 -0.0116753485 -0.056550525 -0.013838442 0.030810772 -0.38051328 0.084208764
0.1743482 -0.18775934 0.08696288 0.09504802 -0.081740335 -0.77137494 0.51264584 -0.12687695
-0.03167838 -0.042852465 -0.121083915 -0.02078393 -0.023184547 0.21654135 0.30966184 0.07891495
-0.017991941 0.023029983 -0.034150526 0.014287128 -0.016640268 -0.05799837 -0.36704022 -0.06322249
-2.903858e-37 0.013664319 -0.035443354 -0.04962401 0.0931604 -0.09787192 0.08322574 0.0037188353
0.14733718 0.084836066 0.17102331 -0.22023083 0.22685458 0.19667053 0.55762124 -0.4025583
-0.12452957 0.1202597 -0.007963515 -0.07334721 0.18249816 0.704514 0.231634 0.28929687
-0.13648881 0.023333814 0.067594714 -0.046760425 -0.0014466131 -0.16483158 0.07421375 -0.036573574
2.7502357e-37 0.21113394 -0.022845002 -0.2942472 -0.20541635 0.09501219 0.2822465 -0.033375025
-0.007172581 0.10348926 -0.16244613 -0.04936802 0.042489722 -0.16106354 -0.43216065 0.16369984
0.16718745 0.060086004 0.1339324 0.06995172 -0.13027018 -0.45831603 -0.069354735 -0.15916206
-0.08017617 -0.01408773 -0.04943298 0.09465758 -0.20978226 0.0017935853 -0.095911525 0.069934376
2.4280444e-37 0.009612588 -0.05397059 0.13001458 -0.112612784 0.106544 0.08442337 0.14141543
-0.0886933 0.086864285 -0.68566316 0.11154252 0.055128448 -0.0031123445 -0.30491063 -0.22168012
-0.14890915 -0.6130147 -0.14740737 -0.109232694 0.12984441 -0.725353 -0.039053034 -1.99348e-05
-2.0093907e-12 -0.0023767026 -0.18855894 0.19010182 0.02394104 -0.08985389 -0.05144327 0.04494907
2.7282052e-37 0.13733388 0.2423577 -0.19669867 -0.13529207 0.23643355 0.08729757 -0.08968483
-0.010966035 0.19224004 -0.16229905 0.048537258 0.09331667 0.24817419 -0.4481943 0.09663403
0.08543983 0.12396941 0.022377362 0.07391838 -0.20692529 -0.17934065 -0.2044845 0.017021876
0.20291243 -0.0012792062 -0.05628097 -0.12641822 0.13036081 -0.13740624 0.1613049 0.17439537
00000000: a5a3 e302 7a64 b182 b531 cb82 6bd4 d082
00000010: fc76 c882 2f43 c682 0a2f cc82 3cfc d182
00000020: dac4 b482 4852 c382 b829 d002 03af ca82
00000030: a717 ba82 cf58 c182 a359 c302 fdbc ba82
00000040: b470 d282 5f84 d582 5be4 bf82 24a4 b402
00000050: 1125 bc82 f325 ba02 6566 cb82 72f3 d482
00000060: 0dee cf82 d67e ae02 dcec be82 298d cc82
00000070: 2a16 bf82 a2ca c782 239a c482 0702 bf82
00000080: af7c bf02 8345 0d3e fd8d b5bd 1adc 88be
00000090: 59e1 d63d 07a7 2f3e c790 6c3d ccc7 24bd
000000a0: 22b6 62be 9bbe 1a3d 4f48 45be a8ad 25be
000000b0: 44e5 c33d 6683 0c3d 6431 14bf 534c ad3e
000000c0: 94a7 1dbc 112a 2fbd 9da6 453e e52c 0f3a
000000d0: 2a2f 3ebd 6eb4 d0be 1583 1cbe de94 9d3d
000000e0: 842f 313e 0008 84bb 3e38 983d 1347 aa3c
000000f0: 7f84 2d3d 588e 063e d8e8 66bc 6814 5f3e
00000100: 029b cd82 bea9 413e 6e3c f13d 6ffc 36bd
00000110: 5899 ecbc d9e6 82bd 3d28 c53d c090 93bd
00000120: 2d5e 35be 5a27 52be 4145 21be af13 8b3e
00000130: 159b e53d b48e a9bd de35 0cbf 54a5 623e
00000140: d190 3e3e c755 123c 4026 0abe b9d4 9a3d
00000150: 1bb0 09bd 47be 43be 32da cd3d 3b20 d53b
00000160: 9127 573e b743 05bc 83b1 8ebc 3b3f 223d
00000170: d911 fb3d 88b7 f63d 6a90 273e 84f1 253e
00000180: 4990 c582 8d84 d03d f649 3fbc 86a1 67bd
00000190: a2ba 62bc df66 fc3c a3d2 c2be a575 ac3d
000001a0: 5688 323e fc43 40be 9819 b23d 89a8 c23d
000001b0: 7a67 a7bd d478 45bf c23c 033f 08ec 01be
000001c0: 30c1 01bd 1186 2fbd d8fa f7bd 0f43 aabc
000001d0: 85ed bdbc 04bd 5d3e ff8b 9e3e 299e a13d
000001e0: d663 93bc 60a9 bc3c 6ce1 0bbd 8f14 6a3c
000001f0: 2c51 88bc b38f 6dbd b2ec bbbe cb7a 81bd
00000200: 57a0 c582 4fe0 5f3c 0d2d 11bd 8c42 4bbd
00000210: e1ca be3d 1371 c8bd 4272 aa3d b4b7 733b
00000220: 8fdf 163e 88be ad3d bc20 2f3e 3184 61be
00000230: 914c 683e 0064 493e 44c0 0e3f 1f1c cebe
00000240: 5c09 ffbd b84a f63d 6779 02bc 1037 96bd
00000250: cce0 3a3e 085b 343f 7731 6d3e b81e 943e
00000260: b9c3 0bbe 8e26 bf3c 196f 8a3d dc87 3fbd
00000270: 489c bdba 9cc9 28be 61fd 973d 2cce 15bd
00000280: dd2b bb02 7f33 583e 7125 bbbc 92a7 96be
00000290: aa58 52be c095 c23d 9d82 903e 40b4 08bd
000002a0: f807 ebbb 2df2 d33d 4758 26be 1f36 4abd
000002b0: b409 2e3d d7ed 24be 2944 ddbe eea0 273e
000002c0: 3033 2b3e be1c 763d 9325 093e d942 8f3d
000002d0: 8c65 05be 66a8 eabe db09 8ebd 61fb 22be
000002e0: 6733 a4bd 39d0 66bc 3d7a 4abd d5db c13d
000002f0: 29d1 56be bc16 eb3a 436d c4bd c139 8f3d
00000300: 803e a502 1e7e 1d3c 4410 5dbd 8b22 053e
00000310: 88a1 e6bd be33 da3d 29e6 ac3d 35cf 103e
00000320: d5a4 b5bd e7e5 b13d 9f87 2fbf 6870 e43d
00000330: 5ece 613d 7af8 4bbb 3f1d 9cbe 1d00 63be
00000340: a47b 18be 88ee 1cbf f5f1 16be 64b5 dfbd
00000350: eff5 043e bcb0 39bf 13f6 1fbd a839 a7b7
00000360: f765 0dac 74c2 1bbb 9815 41be 0daa 423e
00000370: 0020 c43c 5105 b8bd 2eb6 52bd 841c 383d
00000380: 0aac b902 41a1 0c3e 9e2c 783e 606b 49be
00000390: 018a 0abe a31b 723e 12c9 b23d aeac b7bd
000003a0: e2aa 33bc 93da 443e b931 26be 01cf 463d
000003b0: cf1c bf3d 6021 7e3e b979 e5be 10e8 c53d
000003c0: 14fb ae3d ade3 fd3d bb50 b73c 8562 973d
000003d0: 39e4 53be 13a5 37be 6364 51be 7671 8b3c
000003e0: 47c8 4f3e 0aab a7ba e086 66bd c773 01be
000003f0: 4e7d 053e 39b4 0cbe 1d2d 253e b394 323e

fc2.bias f4 [32]
-2.7211732e-37 0.0026687807 0.013734914 0.14778058 0.0355026 0.19971588 0.121077485 -0.0008026114
0.15344086 -0.035927594 0.0166554 -0.0071835676 0.049444523 0.08525426 0.00634381 -0.0050980584
0.19182886 0.07152711 0.10303863 -2.8329461e-37 0.03510991 -0.021935143 -0.08565239 0.13486187
-0.030782487 -2.6281048e-37 0.0995356 -2.7207647e-37 -2.6803127e-37 -0.015671901 0.019417448 0.06433057
00000000: 8631 b982 b6e6 2e3b 6808 613c cb53 173e
00000010: 2d6b 113d 5282 4c3e 79f7 f73d 5766 52ba
00000020: 9a1f 1d3e d028 13bd e870 883c 2264 ebbb
00000030: 5786 4a3d c999 ae3d bcdf cf3b 9d0d a7bb
00000040: c96e 443e ce7c 923d eb05 d33d e2cc c082
00000050: 69cf 0f3d 54b1 b3bc 856a afbd 3b19 0a3e
00000060: 8e2b fcbc 0bdc b282 52d9 cb3d 682a b982
00000070: a269 b682 5c62 80bc 5711 9f3c bfbf 833d

fc3.weight f4 [1, 32]
2.6725342e-37 0.19627911 0.26141497 -0.1989724 0.11743817 0.17853633 -0.002020509 0.29851222
0.119674414 0.39510494 -0.09177172 -0.15185757 0.12487073 -0.42631075 0.05736279 -0.068753295
0.06779271 0.31354386 0.19663724 -2.6992015e-37 0.33170578 -0.3674022 0.48277366 0.06027685
0.29259977 2.8141625e-37 0.19018097 -2.0941022e-37 -2.8548304e-37 0.20948753 -0.6331868 -0.40736985
00000000: 1de2 b502 64fd 483e 2fd8 853e 6cbf 4bbe
00000010: 6c83 f03d 3ad2 363e 846a 04bb 98d6 983e
00000020: dc17 f53d 324b ca3e d0f2 bbbd 8d80 1bbe
00000030: 3abc ff3d 6745 dabe 3ff5 6a3d 87ce 8cbd
00000040: e8d6 8a3d d288 a03e 465b 493e b9b2 b782
00000050: 57d5 a93e 241c bcbe 1c2e f73e dce4 763d
00000060: a3cf 953e a085 bf02 cdbe 423e 6884 8e82
00000070: 294a c282 e683 563e 8818 22bf c892 d0be

exp_avg f4 [32, 15]
-2.476e-42 -2.015e-42 -1.965e-42 3.31e-42 2.396e-42 3.266e-42 -1.369e-42 -2.539e-42
-2.3e-42 -2.057e-42 -2.528e-42 -5.86e-43 3.66e-43 -2.508e-42 -2.43e-42 -1.5150373e-06
3.9537656e-05 -1.2860499e-05 -6.0914454e-07 -6.833635e-05 -7.314658e-05 -2.9889554e-05 -0.00015666634 -0.0001374855
-6.2211955e-05 -0.00016266611 -5.9189308e-08 6.13617e-07 8.2075496e-07 -0.00016374128 -1.9081551e-06 6.4949956e-05
-1.2891018e-05 -4.566555e-05 -8.099725e-05 -8.633307e-05 -2.4905023e-05 -0.00017448001 -0.00015553384 -5.537889e-05
-0.00018293671 -1.1518455e-07 -2.2992431e-08 -1.4959937e-06 -0.00018551992 -5.055404e-07 7.137326e-05 2.139027e-06
-5.604617e-07 -2.1572307e-06 -8.8602053e-07 9.03237e-06 1.9786487e-05 1.5300313e-05 3.287697e-05 2.298333e-05
3.1941306e-06 -8.2444933e-07 -4.2905814e-08 2.0839047e-05 4.9351127e-07 2.6511487e-05 1.3502627e-06 5.2713145e-05
7.903697e-05 8.441154e-05 3.8573933e-05 0.00017839938 0.00015954976 9.36862e-05 0.00019009427 3.1708674e-07
-5.2957444e-07 -5.0797814e-07 0.00019129498 -2.6253956e-06 1.1054665e-06 -3.3869057e-07 -8.9544136e-07 -8.9553987e-07
1.5224637e-06 -2.338888e-06 6.1763194e-07 -8.511228e-07 1.7090902e-06 -9.77017e-07 1.1246693e-06 1.5956689e-06
-2.456e-42 2.445e-42 1.916208e-06 -4.5568697e-05 1.7490724e-05 6.9173657e-06 -6.061764e-06 -2.6261174e-07
-7.794796e-06 -1.3215678e-05 -1.5776086e-05 -2.2758722e-05 -1.3894612e-05 1.447023e-06 2.1797146e-06 2.5999063e-06
-1.6419312e-05 -6.584054e-07 1.9449215e-05 1.2822082e-05 -3.2248342e-06 6.382975e-06 4.7863136e-06 4.2475176e-06
2.0955715e-05 2.1092055e-05 2.7462389e-05 2.2525393e-05 1.1756196e-06 5.3373363e-08 -6.308798e-07 2.4287601e-05
-1.3819532e-06 -0.00035771838 -0.00012280511 -3.3656124e-05 -0.0001996991 -0.00020288597 -0.00011489491 -0.00051371404
-0.000456121 -0.00040160018 -0.00054779236 8.47742e-09 -6.204488e-07 1.5586018e-06 -0.00054926117 -1.0910517e-06
-3.20372e-05 2.549841e-06 1.497755e-05 1.0599604e-05 9.4723055e-06 2.5341723e-07 1.3438752e-05 1.33244175e-05
-6.155531e-06 1.2728542e-05 -1.0839451e-06 2.6533166e-07 1.4942977e-06 1.5879767e-05 -3.879307e-06 -7.384577e-05
4.074945e-06 0.00013310286 0.00024181222 0.00025614692 0.00011589464 0.0005992818 0.0005324809 0.0002881374
0.0006390129 1.2761848e-07 9.3970834e-07 5.8607066e-07 0.0006390183 -1.1955627e-06 7.530997e-05 -1.9219673e-05
-5.691537e-05 -9.2698974e-05 -9.604872e-05 -2.6478836e-05 -0.00019408022 -0.00017091834 -5.9866106e-05 -0.00020194094
1.1210135e-06 1.8439107e-06 1.5124374e-07 -0.0002038732 -8.741842e-07 9.186117e-07 2.8089075e-06 1.7651411e-05
2.1195001e-05 2.5975805e-05 8.571924e-06 5.0816692e-05 4.440357e-05 2.077383e-05 5.445566e-05 -7.485781e-07
1.646202e-06 -2.509534e-07 5.1737752e-05 2.0506488e-06 -2.7149167e-06 6.3119e-06 5.283258e-06 8.159285e-06
8.185239e-06 -1.8095861e-06 9.870333e-06 1.0137476e-05 -1.7719445e-06 9.736351e-06 -2.2864097e-06 -4.2149497e-07
1.641958e-07 9.7538605e-06 3.7260534e-07 -6.7770634e-05 0.00010405172 -0.0001481497 8.1523336e-05 8.843181e-05
-1.1926875e-05 -1.3589231e-05 -1.9662333e-05 -9.472025e-05 -3.1210955e-05 2.638192e-07 -9.7149e-08 1.09551024e-07
-3.0858293e-05 -2.6065231e-06 -0.0002907305 -0.00015969759 -2.1873782e-06 -0.00035391925 -0.00036872554 -0.0002124936
-0.0008490949 -0.00075563026 -0.00056350755 -0.00090422196 -1.45841e-07 2.2545083e-07 -3.1572898e-07 -0.0009056298
4.8965194e-07 -2.2184562e-05 -6.7908168e-06 -1.717299e-05 -1.2104198e-05 -1.3726873e-05 -4.141996e-06 -4.018499e-05
-3.5211717e-05 -2.726291e-05 -4.303993e-05 2.2051113e-06 1.2462198e-07 1.466174e-06 -4.2517564e-05 -4.0222656e-07
00000000: e706 0080 9e05 0080 7a05 0080 3a09 0000
00000010: ae06 0000 1b09 0000 d103 0080 1407 0080
00000020: 6906 0080 bc05 0080 0c07 0080 a201 0080
00000030: 0501 0000 fe06 0080 c606 0080 4958 cbb5
00000040: 3cd5 2538 6cc3 57b7 1884 23b5 cc4f 8fb8
00000050: 4566 99b8 54bb fab7 cd46 24b9 fc29 10b9
00000060: ca77 82b8 5a91 2ab9 5537 7eb3 70b7 2435
00000070: da51 5c35 f7b1 2bb9 db0d 00b6 be35 8838
00000080: 8046 58b7 0389 3fb8 11dd a9b8 b70d b5b8
00000090: 21eb d0b7 9ff4 36b9 cc16 23b9 a146 68b8
000000a0: b3d2 3fb9 605b f7b3 e480 c5b2 f4c9 c8b5
000000b0: 2088 42b9 79b4 07b5 3aae 9538 348c 0f36
000000c0: a272 16b5 f1c4 10b6 ded6 6db5 bc89 1737
000000d0: 28fb a537 2c59 8037 61e5 0938 53cc c037
000000e0: bf5a 5636 ba4f 5db5 7147 38b3 83cf ae37
000000f0: d679 0435 fc64 de37 ac3a b535 4f18 5d38
00000100: a6c0 a538 1a06 b138 72ca 2138 b810 3b39
00000110: d04c 2739 6579 c438 0b54 4739 123c aa34
00000120: 1428 0eb5 fe5b 08b5 5b96 4839 f42f 30b6
00000130: 8a5f 9435 47d5 b5b4 435e 70b5 0865 70b5
00000140: 7457 cc35 caf5 1cb6 58cb 2535 b778 64b5
00000150: e463 e535 0c22 83b5 58f3 9635 c42a d635
00000160: d906 0080 d106 0000 3498 0036 0421 3fb8
00000170: 0bb9 9237 b81b e836 2866 cbb6 15fd 8cb4
00000180: 65c6 02b7 e8b8 5db7 e356 84b7 fce9 beb7
00000190: e71c 69b7 5537 c235 3647 1236 0d7a 2e36
000001a0: 34bc 89b7 46bd 30b5 df26 a337 6c1e 5737
000001b0: 3b6a 58b6 562d d636 1f9a a036 e685 8e36
000001c0: 0eca af37 d8ee b037 085f e637 eaf4 bc37
000001d0: fbc9 9d35 a23c 6533 bb59 29b5 3abd cb37
000001e0: 8d7b b9b5 268c bbb9 3fc5 00b9 fd29 0db8
000001f0: 5266 51b9 cabd 54b9 bcf3 f0b8 c4aa 06ba
00000200: 8623 efb9 dd8d d2b9 b999 0fba 16a4 1132
00000210: eb8c 26b5 2631 d135 4bfc 0fba 4070 92b5
00000220: ae5f 06b8 ef1d 2b36 1648 7b37 f4d4 3137
00000230: 3eeb 1e37 660d 8834 0077 6137 f08b 5f37
00000240: 9c8b ceb6 ac8c 5537 127c 91b5 e872 8e34
00000250: ae8f c835 8a35 8537 fe2a 82b6 a5dd 9ab8
00000260: 83bb 8836 8791 0b39 f98e 7d39 754b 8639
00000270: 760c f338 1f19 1d3a 3096 0b3a 2611 9739
00000280: 6e83 273a 8007 0934 4440 7c35 7852 1d35
00000290: cb83 273a 3977 a0b5 bbef 9d38 ef39 a1b7
000002a0: 6ab8 6eb8 6267 c2b8 c46d c9b8 de1e deb7
000002b0: 0382 4bb9 8b38 33b9 be18 7bb8 1cc0 53b9
000002c0: bb75 9635 4a7c f735 9065 2234 ccc6 55b9
000002d0: 7ba9 6ab5 8496 7635 aa80 3c36 1e12 9437
000002e0: ebcb b137 9ee6 d937 22d0 0f37 0224 5538
000002f0: f83d 3a38 7643 ae37 5267 6438 e5f1 48b5
00000300: 12f3 dc35 c6ba 86b4 fd00 5938 e19d 0936
00000310: ea31 36b6 cfca d336 d746 b136 dde3 0837
00000320: 5553 0937 e8e0 f2b5 c298 2537 2114 2a37
00000330: 8dd3 edb5 4f59 2337 3870 19b6 d449 e2b4
00000340: cc4d 3034 83a4 2337 7d0a c834 1520 8eb8
00000350: 5836 da38 a258 1bb9 82f7 aa38 7774 b938
00000360: 8a19 48b7 4dfd 63b7 8af0 a4b7 8ca4 c6b8
00000370: 82e8 02b8 09a3 8d34 3aa0 d0b3 5042 eb33
00000380: d76d 01b8 baeb 2eb6 306d 98b9 7f74 27b9
00000390: dfca 12b6 3d8e b9b9 8151 c1b9 d1d0 5eb9
000003a0: cb95 5eba 7d15 46ba 5ab8 13ba 4f09 6dba
000003b0: 7898 1cb4 7413 7234 7681 a9b4 c967 6dba
000003c0: a070 0335 fc18 bab7 acdc e3b6 b70e 90b7
000003d0: 2213 4bb7 784c 66b7 7afb 8ab6 4e8c 28b8
000003e0: 4bb0 13b8 a7b2 e4b7 c685 34b8 86fb 1336
000003f0: d4cf 0534 5bc9 c435 e354 32b8 99f1 d7b4

exp_avg_sq f4 [32, 15]
4.1247318e-33 1.4467008e-29 1.1007267e-29 1.8284359e-31 1.4054243e-31 1.8326191e-31 1.2467607e-30 3.0288128e-29
2.5474757e-29 1.8154308e-29 3.8504516e-29 4.0405297e-36 5.507468e-36 1.2394521e-32 3.8504516e-29 1.0502984e-06
0.00012261813 4.158648e-05 6.8664976e-06 9.8125296e-05 9.865582e-05 1.594144e-05 3.464943e-05 1.2369532e-05
0.00010203124 0.00047041927 1.1738801e-12 2.0577019e-07 2.8432867e-06 0.00046757635 2.9288651e-06 8.8008564e-05
2.0653497e-05 3.7502316e-06 3.3103446e-05 3.324535e-05 9.173282e-06 2.013205e-05 1.3918323e-05 7.0832924e-05
0.0002401157 3.879583e-06 3.03559e-05 6.382653e-06 0.0002336764 4.7404947e-07 1.4778032e-05 4.2747106e-06
8.1353625e-07 4.2406737e-06 4.247499e-06 1.6509221e-06 3.0760546e-06 1.4256716e-06 9.603874e-06 4.6883135e-05
5.4085297e-07 1.9325123e-06 7.2861894e-07 4.6146706e-05 1.237571e-07 1.9549347e-05 4.9512378e-06 7.887607e-07
5.576733e-06 5.6770295e-06 2.2235222e-06 4.878152e-06 4.2817514e-06 1.4754394e-05 4.7859514e-05 1.9893787e-06
1.6540778e-05 2.1716949e-06 4.5658704e-05 1.0944856e-10 2.986152e-06 1.0904087e-06 1.5849015e-07 8.5783245e-07
9.353716e-07 3.8974446e-07 1.0514091e-07 4.9068152e-08 3.947385e-06 2.1079943e-10 1.4352599e-08 1.157751e-05
4.438961e-27 4.393972e-25 3.968317e-07 3.2740507e-05 1.134185e-05 1.8911371e-06 1.0975393e-05 1.1309306e-05
4.12134e-06 4.864164e-06 1.5932113e-06 3.1207044e-05 7.269895e-05 3.793059e-07 4.9432583e-05 8.022829e-07
7.1890994e-05 1.7732744e-10 4.824603e-06 1.7504266e-06 2.6370117e-07 3.922104e-06 3.9556267e-06 6.425254e-07
1.3391871e-06 4.7103333e-07 3.6567972e-06 1.7217084e-05 2.3626792e-07 1.414879e-06 1.694489e-07 1.704428e-05
9.590827e-07 3.213641e-05 6.5891904e-06 1.1643444e-06 1.5314741e-05 1.5320285e-05 3.2871055e-06 8.612488e-06
6.817094e-06 2.6644464e-05 9.339536e-05 2.2686424e-06 2.5618112e-06 2.9184307e-06 9.044391e-05 7.1682024e-07
2.1854685e-05 6.717003e-06 1.2490331e-06 8.752605e-06 8.8645465e-06 2.5636807e-06 4.184978e-06 1.787507e-06
1.935208e-05 6.0607443e-05 2.792668e-07 1.5443591e-05 6.36302e-07 5.996723e-05 6.105108e-09 0.00028756013
6.359168e-05 7.825075e-06 0.00014841359 0.00014888143 3.1220156e-05 7.2088726e-05 4.2517768e-05 0.00026235575
0.0008388622 1.2609645e-10 8.904509e-05 4.01421e-05 0.0007987214 3.6709503e-06 0.00013688143 3.3881734e-05
5.910017e-06 4.865201e-05 4.8916903e-05 1.4498928e-05 2.923471e-05 1.8253642e-05 0.00010893431 0.0003724078
4.6287596e-06 5.651729e-05 8.630437e-06 0.0003637099 1.282271e-07 4.2973766e-06 1.283155e-06 2.2622662e-07
2.2835773e-06 2.3154703e-06 5.087822e-07 1.0190971e-06 6.007204e-07 3.3141712e-06 1.1310299e-05 2.8346557e-07
3.4545503e-06 2.8536917e-07 1.10209285e-05 4.5343214e-09 1.9446452e-05 7.4839154e-06 1.1435638e-06 2.2713532e-05
2.2907772e-05 2.679686e-06 5.976828e-06 1.486459e-06 1.3958692e-05 7.417132e-05 3.0423456e-07 4.1451026e-06
1.9367782e-07 7.397323e-05 5.8023114e-05 0.0008934187 0.0002756567 7.406745e-05 0.00046617904 0.00047049962
0.00010214465 0.00018495556 7.5495685e-05 0.0007549179 0.0025800043 0.00010094707 0.00037135833 2.1727903e-05
0.002556803 1.8062938e-05 0.00052716176 0.00020500488 4.466807e-05 0.0002580079 0.00026174955 7.240152e-05
0.00011624119 3.535018e-05 0.00038329573 0.0019531942 1.302372e-06 0.00022468192 5.5068385e-06 0.0019476669
6.828197e-08 8.658427e-06 3.3494703e-06 5.445932e-07 8.201249e-06 8.2664465e-06 1.201415e-06 2.5123409e-06
6.5393715e-07 6.6976277e-06 3.383395e-05 9.321687e-08 1.2754774e-06 7.506186e-08 3.375757e-05 4.2031694e-11
00000000: ac55 ab09 80b6 920f ff40 5f0f 3458 6d0c
00000010: 3c6f 360c 37e3 6d0c 6a4c ca0d 3d94 1910
00000020: 202c 0110 471b b80f b83d 4310 79dd ab04
00000030: 0443 ea04 4ab6 800a b83d 4310 faf7 8c35
00000040: 0e93 0039 256d 2e38 c466 e636 9ec8 cd38
00000050: 71e5 ce38 fbb9 8537 8b54 1138 bc86 4f37
00000060: 9bf9 d538 9ba2 f639 7d35 a52b aef1 5c34
00000070: 4bcf 3e36 0925 f539 858d 4436 3d91 b838
00000080: 0c41 ad37 7dac 7b36 8ed8 0a38 ec70 0b38
00000090: f2e6 1937 40e1 a837 be82 6937 238c 9438
000000a0: 91c7 7b39 5d2d 8236 cda4 fe37 922a d636
000000b0: 0807 7539 dd80 fe34 2aef 7737 7c6f 8f36
000000c0: c961 5a35 1c4b 8e36 bd85 8e36 4095 dd35
000000d0: 376e 4e36 b459 bf35 5320 2137 62a4 4438
000000e0: 222f 1135 4fb0 0136 5096 4335 a68d 4138
000000f0: 18e2 0434 e7fd a337 cf22 a636 39bb 5335
00000100: c61f bb36 507d be36 d237 1536 02af a336
00000110: f7ab 8f36 a489 7737 c3bc 4838 4481 0536
00000120: 0dc1 8a37 6fbd 1136 a981 3f38 10ae f02e
00000130: b365 4836 285a 9235 712d 2a34 cc45 6635
00000140: 3f16 7b35 123e d134 d4c9 e133 01bf 5233
00000150: c773 8436 c4c6 672f 6693 7632 073d 4237
00000160: 6ad8 af13 a2fc 0717 220c d534 da52 0938
00000170: e048 3e37 fad2 fd35 f422 3837 19bd 3d37
00000180: 0b4a 8a36 da36 a336 53d6 d535 4fe4 0238
00000190: f475 9838 68a3 cb34 d555 4f38 765c 5735
000001a0: 2fc4 9638 3df9 422f 06e3 a136 33f0 ea35
000001b0: d092 8d34 9e9a 8336 93ba 8436 027a 2c35
000001c0: 1ebe b335 54e2 fc34 4c67 7536 686d 9037
000001d0: d5b0 7d34 dfe6 bd35 c2f1 3534 50fa 8e37
000001e0: d5b9 8035 35ca 0638 b718 dd36 9246 9c35
000001f0: 2878 8037 1084 8037 0b98 5c36 5b7e 1037
00000200: 64be e436 8d82 df37 41dd c338 fb3e 1836
00000210: 95eb 2b36 42da 4336 b4ac bd38 836b 4035
00000220: 9454 b737 9e62 e136 73a4 a735 27d8 1237
00000230: f0b8 1437 b30b 2c36 b06c 8c36 46ea ef35
00000240: 4656 a237 bf34 7e38 23ee 9534 dc8c 8137
00000250: 57ce 2a35 5385 7b38 19c5 d131 abc3 9639
00000260: 865c 8538 7148 0337 789f 1b39 0e1d 1c39
00000270: 63f2 0238 572e 9738 1b55 3238 cb8c 8939
00000280: 17e7 5b3a ffa4 0a2f b8bd ba38 405e 2838
00000290: 4961 513a 725a 7636 d487 0f39 3c1c 0e38
000002a0: a94e c636 b30f 4c38 202c 4d38 6c40 7337
000002b0: 103d f537 661f 9937 aa73 e438 bb3f c339
000002c0: be50 9b36 fa0c 6d38 72cb 1037 51b0 be39
000002d0: ccae 0934 2f32 9036 df38 ac35 b3e8 7234
000002e0: 8f3f 1936 7a63 1b36 3f93 0835 e9c7 8835
000002f0: 3141 2135 0769 5e36 5dc1 3d37 362f 9834
00000300: b9d4 6736 d734 9934 87e6 3837 50cc 9b31
00000310: f020 a337 581e fb36 8e7c 9935 f088 be37
00000320: 112a c037 a8d4 3336 908c c836 5882 c735
00000330: 2030 6a37 6d8c 9b38 ae55 a334 2916 8b36
00000340: c1f5 4f34 1322 9b38 d85d 7338 5034 6a3a
00000350: 0486 9039 a954 9b38 7e69 f439 64ad f639
00000360: 7e36 d638 a1f0 4139 7053 9e38 afe5 453a
00000370: 4a15 293b 8cb3 d338 dfb2 c239 5144 b637
00000380: 0990 273b dd85 9737 3a31 0a3a 94f6 5639
00000390: fa59 3b38 3c45 8739 6e3b 8939 45d6 9738
000003a0: 84c6 f338 f744 1438 15f5 c839 2901 003b
000003b0: 29cd ae35 9898 6b39 62c7 b836 db48 ff3a
000003c0: 69a2 9233 a943 1137 76c7 6036 2930 1235
000003d0: 1998 0937 1eb0 0a37 4e40 a135 b099 2836
000003e0: 388a 2f35 2fbc e036 ede8 0d38 842e c833
000003f0: 1231 ab35 b231 a133 ea96 0d38 7bdb 382e

exp_avg f4 [32]
-2.592e-42 -0.00016520034 -0.00018279365 2.2251215e-05 0.00018921078 -2.0870489e-06 -1.658909e-05 2.702713e-05
-0.00054796773 1.542498e-05 0.00063906825 -0.00020129222 5.278331e-05 1.3564429e-05 -3.213351e-05 -0.00090339576
-4.1571726e-05 -7.988752e-05 8.442598e-06 2.9720213e-05 2.1827906e-05 0.0014266142 0.00017511757 -2.779e-42
-8.17e-43 -1.6970569e-06 -1.5888147e-06 -6.626808e-05 -3.903475e-05 -4.2439233e-06 -3.446267e-05 -0.00010965642
00000000: 3a07 0080 a139 2db9 4cac 3fb9 1fa8 ba37
00000010: e266 4639 3a0f 0cb6 cd28 8bb7 52b8 e237
00000020: 7ea5 0fba e464 8137 2587 273a f811 53b9
00000030: a663 5d38 c792 6337 18c7 06b8 ddd1 6cba
00000040: 4d5d 2eb8 4989 a7b8 afa4 0d37 ac4f f937
00000050: 121b b737 3bfd ba3a c49f 3739 bf07 0080
00000060: 4702 0080 6ec6 e3b5 423f d5b5 68f9 8ab8
00000070: 3eb9 23b8 0667 8eb6 038c 10b8 58f7 e5b8

exp_avg_sq f4 [32]
3.8510663e-29 0.00047062524 0.00027429376 4.9348415e-05 6.636474e-05 1.1591849e-05 0.00012250686 1.8865145e-05
9.819397e-05 7.632422e-05 0.0009279079 0.000433487 1.5045089e-05 7.8616686e-05 0.0030508982 0.0021790967
3.5202538e-05 3.5708286e-05 2.7313665e-05 0.00072813564 9.726549e-06 0.002288415 0.00018105337 6.3539017e-27
1.8493487e-16 1.6372631e-08 5.1880736e-05 1.1370548e-05 0.0002592137 0.001065778 0.0003076216 9.792968e-05
00000000: b345 4310 40be f639 16cf 8f39 75fb 4e38
00000010: 4c2d 8b38 9d7a 4237 2f75 0039 9740 9e37
00000020: 7ced cd38 4110 a038 d83e 733a a445 e339
00000030: 2a6a 7c37 03df a438 94f1 473b 2dcf 0e3b
00000040: 70a6 1338 7bc5 1538 a61f e537 5be0 3e3a
00000050: 362f 2337 3cf9 153b 25d9 3d39 38b4 fb13
00000060: 2437 5525 cca3 8c32 849a 5938 22c4 3e37
00000070: 13e7 8739 93b1 8b3a 4648 a139 995f cd38

exp_avg f4 [32, 32]
3.35e-42 -2.612e-42 -2.992e-42 -3.074e-42 -2.951e-42 -2.919e-42 -3.006e-42 -3.091e-42
-2.661e-42 -2.875e-42 3.065e-42 -2.983e-42 -2.74e-42 -2.846e-42 2.875e-42 -2.75e-42
-3.098e-42 -3.143e-42 -2.825e-42 2.66e-42 -2.77e-42 2.741e-42 -2.995e-42 -3.135e-42
-3.06e-42 2.57e-42 -2.811e-42 -3.011e-42 -2.814e-42 -2.941e-42 -2.895e-42 -2.812e-42
2.82e-42 -3.163817e-05 -8.6291104e-05 5.797997e-06 6.31273e-06 -6.669625e-05 -1.0781465e-06 -6.8605426e-05
-8.029776e-06 -4.7245914e-05 4.991971e-07 -1.2377253e-05 -2.6033863e-06 -6.203494e-05 -4.340499e-06 -5.6679375e-05
-7.3393785e-05 -4.8380563e-05 -8.797007e-05 1.7232318e-05 -6.111775e-05 2.985062e-06 1.2448944e-05 -4.6716745e-05
-4.027225e-05 -4.032303e-08 -8.8601264e-05 2.2279033e-05 2.8705238e-06 8.8252193e-07 -5.0501403e-05 -8.410838e-05
-3.027e-42 -2.0562382e-05 -2.7576685e-05 -1.4352727e-05 7.7837125e-05 -2.5744617e-05 -5.7569123e-06 -1.245511e-05
4.2562006e-05 8.6270984e-07 1.1584849e-05 3.055783e-05 -1.0025806e-05 -1.8498964e-05 1.0162839e-05 -2.209443e-05
-6.7176086e-05 -1.767368e-05 -6.175962e-06 -1.6251088e-05 -2.8746188e-05 -6.747521e-06 2.4841795e-05 -4.373898e-06
-2.0914376e-05 -8.142108e-08 -7.418912e-05 2.3967164e-06 -2.9646078e-06 2.958859e-05 -2.6600082e-05 -3.4915865e-05
-2.909e-42 1.7679481e-07 0.00010839292 5.8944024e-05 8.865645e-05 3.3646185e-05 1.0602492e-05 3.1850235e-05
5.869297e-05 2.0280486e-05 5.5793884e-05 0.00011791324 1.7910514e-05 -2.2964339e-06 1.5881313e-05 6.770235e-05
9.393634e-05 2.4118737e-05 7.4835225e-05 -2.0124617e-08 1.2053865e-05 5.1183928e-05 6.0536553e-05 9.097512e-05
1.8122642e-05 2.3235081e-07 4.917284e-05 2.0660864e-06 3.8915914e-08 1.1982778e-05 4.368575e-05 7.0189184e-05
-2.909e-42 -8.665179e-06 6.4834334e-05 4.092723e-05 -2.7552729e-05 3.8979965e-06 3.0032517e-05 -3.5491925e-05
-1.6239925e-05 -2.0636791e-05 1.1451815e-05 6.7603374e-05 4.386498e-05 -4.7017475e-05 4.840248e-06 1.0010959e-05
1.9320865e-05 -4.0736318e-06 2.379726e-05 5.5205674e-05 6.32803e-07 1.2814721e-05 3.2613927e-05 -8.473122e-06
-6.217758e-06 2.3368587e-07 -2.169306e-05 5.4944845e-05 1.6018346e-05 7.5210405e-06 7.7905046e-05 2.9807577e-05
2.756e-42 -3.8895694e-05 -0.00014698305 -6.148145e-05 -5.778626e-05 -5.5377226e-05 -1.8638792e-05 -6.197949e-05
-1.4459856e-05 -9.954036e-05 -1.0461643e-05 -0.000104282815 -0.00014392444 -4.888105e-05 -1.4072777e-05 -8.285971e-05
-0.000102050464 -4.6106736e-05 -0.00014738973 -6.530828e-05 -7.428071e-05 -1.4195047e-05 -0.00013300523 -4.0213617e-05
-4.0733685e-05 -1.4122327e-07 -6.661614e-05 -9.036159e-05 -2.0794809e-05 -2.993743e-05 -0.0002173884 -0.00012573312
2.423e-42 -1.5257725e-05 -6.7626905e-05 -7.789253e-05 -1.0708757e-05 1.0656579e-06 -2.8963781e-05 2.5816966e-05
7.7325485e-06 -2.2754311e-05 -1.8735052e-05 -0.00010286635 -0.00013228126 1.7610872e-05 -2.8948348e-06 -2.6515614e-05
-5.2554988e-05 -1.0974849e-06 -4.287493e-05 -9.712519e-05 -3.2129698e-05 -3.0934643e-05 -9.181973e-05 -2.118432e-10
-1.4369141e-17 -2.3841054e-08 -1.8858135e-06 -0.00010983363 -2.7988252e-05 -2.1432368e-05 -0.00017341189 -3.9837025e-05
2.734e-42 -2.7457927e-05 -4.267371e-05 -1.1997479e-05 -1.3840252e-05 -1.9171011e-05 -7.415118e-06 -2.618505e-05
3.0558837e-07 -4.3353743e-05 -2.637232e-06 -1.994419e-05 -4.9978942e-05 -2.76908e-05 -3.089248e-06 -2.191488e-05
-3.121562e-05 -3.0146177e-05 -4.5620534e-05 -2.2101596e-05 -3.9948434e-05 1.7994739e-07 -4.0504103e-05 -1.8763621e-05
-2.623195e-05 -1.2966491e-08 -3.356218e-05 -2.9511199e-05 -4.486455e-06 -8.5958045e-06 -7.499149e-05 -4.5364668e-05
00000000: 5709 0000 4807 0080 5708 0080 9208 0080
00000010: 3a08 0080 2308 0080 6108 0080 9e08 0080
00000020: 6b07 0080 0408 0080 8b08 0000 5108 0080
00000030: a307 0080 ef07 0080 0408 0000 aa07 0080
00000040: a308 0080 c308 0080 e007 0080 6a07 0000
00000050: b907 0080 a407 0000 5908 0080 bd08 0080
00000060: 8808 0080 2a07 0000 d607 0080 6508 0080
00000070: d807 0080 3308 0080 1208 0080 d707 0080
00000080: dc07 0000 3ab3 04b8 2ff7 b4b8 6a8c c236
00000090: f0d1 d336 47df 8bb8 d5b4 90b5 42e0 8fb8
000000a0: a0b7 06b7 ea29 46b8 9000 0635 e6a7 4fb7
000000b0: d6b5 2eb6 c118 82b8 9aa4 91b6 04bb 6db8
000000c0: fdea 99b8 3cec 4ab8 927c b8b8 1f8e 9037
000000d0: 582c 80b8 fa52 4836 cfdb 5037 b9f1 43b8
000000e0: 00ea 28b8 a42f 2db3 71cf b9b8 dce3 ba37
000000f0: 39a3 4036 72e6 6c35 78d1 53b8 5863 b0b8
00000100: 7008 0080 617d acb7 7b54 e7b7 7ecc 70b7
00000110: 7d3c a338 25f6 d7b7 802b c1b6 4af6 50b7
00000120: 9b84 3238 f894 6735 8c5c 4237 382b 0038
00000130: 8234 28b7 392e 9bb7 1081 2a37 6d57 b9b7
00000140: e3e0 8cb8 f041 94b7 1c3b cfb6 f252 88b7
00000150: f823 f1b7 c468 e2b6 5963 d037 7fc3 92b6
00000160: 4871 afb7 b6d9 aeb3 fb95 9bb8 46d7 2036
00000170: 93f3 46b6 0335 f837 3e23 dfb7 a072 12b8
00000180: 1c08 0080 fdd4 3d34 0151 e338 aa3a 7738
00000190: 12ed b938 511f 0d38 5be1 3137 ee96 0538
000001a0: 192d 7638 0320 aa37 3a04 6a38 3048 f738
000001b0: 893e 9637 6f1c 1ab6 dc38 8537 6cfb 8d38
000001c0: b0ff c438 9852 ca37 dbf0 9c38 80de acb2
000001d0: f53a 4a37 53ae 5638 a1e8 7d38 e5c9 be38
000001e0: 1406 9837 1b7c 7934 ef3e 4e38 18a7 0a36
000001f0: 8024 2733 a409 4937 383b 3738 8832 9338
00000200: 1c08 0080 a960 11b7 abf7 8738 47a9 2b38
00000210: 0921 e7b7 89cb 8236 57ee fb37 2add 14b8
00000220: f93a 88b7 2c1d adb7 2c21 4037 49c6 8d38
00000230: aafb 3738 a134 45b8 6a69 a236 bef4 2737
00000240: 3e13 a237 3bb0 88b6 3aa0 c737 a48c 6738
00000250: e4dd 2935 cffe 5637 f0ca 0838 c827 0eb7
00000260: 22a2 d0b6 15eb 7a34 7ef9 b5b7 9474 6638
00000270: 235f 8637 3f5d fc36 f460 a338 490b fa37
00000280: af07 0000 ef23 23b8 761f 1ab9 9aef 80b8
00000290: 865f 72b8 d844 68b8 805a 9cb7 fcfa 81b8
000002a0: 9c98 72b7 53c0 d0b8 6a84 2fb7 69b2 dab8
000002b0: 6cea 16b9 a105 4db8 1e1a 6cb7 f8c4 adb8
000002c0: ed03 d6b8 bb62 41b8 a18c 1ab9 1ef6 88b8
000002d0: 27c7 9bb8 4327 6eb7 5277 0bb9 0bab 28b8
000002e0: 76d9 2ab8 28a3 17b4 45b4 8bb8 8280 bdb8
000002f0: 8370 aeb7 2422 fbb7 c1f2 63b9 3ad7 03b9
00000300: c106 0000 6efb 7fb7 ebd2 8db8 3c5a a3b8
00000310: c3a9 33b7 ba07 8f35 3ff7 f2b7 8391 d837
00000320: 0bbb 0137 83e0 beb7 3829 9db7 f3b9 d7b8
00000330: fbb4 0ab9 0fbb 9337 e244 42b6 d96d deb7
00000340: 7d6e 5cb8 4b4d 93b5 9bd4 33b8 b0af cbb8
00000350: 00c3 06b8 d2bf 01b8 588f c0b8 8fec 68af
00000360: 2d88 84a3 08cb ccb2 0f1c fdb5 7b56 e6b8
00000370: 50c8 eab7 a9c9 b3b7 e6d5 35b9 ae16 27b8
00000380: 9f07 0000 7355 e6b7 8cfc 32b8 c848 49b7
00000390: 6e33 68b7 6fd1 a0b7 61cf f8b6 f7a7 dbb7
000003a0: bf0f a434 bad6 35b8 4dfb 30b6 d24d a7b7
000003b0: 7ba0 51b8 8a49 e8b7 e050 4fb6 d9d5 b7b7
000003c0: 84ed 02b8 6ce2 fcb7 ad58 3fb8 d166 b9b7
000003d0: 4e8e 27b8 9037 4134 f3e2 29b8 9266 9db7
000003e0: af0c dcb7 3bc3 5eb2 1ec5 0cb8 d18e f7b7
000003f0: 5b8a 96b6 b336 10b7 c044 9db8 f145 3eb8

exp_avg_sq f4 [32, 32]
8.7847224e-26 1.7498246e-22 7.0334243e-22 2.2371404e-22 1.3523915e-21 6.9690477e-22 5.0811235e-22 8.764909e-22
1.1702386e-21 1.0980023e-21 1.6843388e-22 9.787787e-22 1.2285105e-21 2.3721022e-22 2.2036422e-23 9.75763e-23
2.8824282e-21 9.087341e-22 1.3272561e-21 2.1571012e-23 8.670127e-22 9.279496e-23 6.896876e-22 4.483511e-21
5.154185e-22 9.970969e-35 1.3915721e-21 2.3230108e-22 2.3820488e-23 3.5439608e-22 4.5851443e-22 7.7579454e-22
5.5582857e-22 1.8866455e-06 1.6998396e-05 6.1680794e-06 1.8879113e-05 5.901325e-06 7.595373e-06 1.4368777e-05
6.2683457e-06 2.1337144e-05 7.220604e-07 2.2547138e-05 2.3463026e-05 3.7911154e-06 7.6725485e-08 2.598049e-06
3.4132096e-05 3.4160291e-06 3.0029576e-05 3.1680415e-06 1.39123495e-05 3.9028453e-07 2.5562382e-05 1.78225e-05
2.224044e-06 1.7562371e-10 1.2524905e-05 1.8991144e-05 6.200492e-07 1.2582875e-06 2.8081939e-05 2.2244967e-05
5.606666e-22 2.2954798e-06 6.4244523e-06 8.942948e-06 1.0869625e-05 1.7570704e-06 4.383909e-06 7.18382e-06
3.430137e-06 1.3787742e-05 2.1330084e-07 1.1232414e-05 2.6367723e-05 2.6938453e-06 7.5159925e-08 5.2677325e-07
1.7220238e-05 1.1611502e-06 1.1351934e-05 4.743834e-06 7.7096065e-06 3.4643017e-07 2.392113e-05 5.328657e-06
7.044337e-07 9.563511e-11 5.4080983e-06 1.5522524e-05 9.1594563e-07 2.8170566e-06 2.498037e-05 1.801333e-05
3.5166132e-22 1.202742e-07 7.689952e-06 1.8729729e-07 6.058829e-06 2.3878938e-06 1.2511777e-06 1.1360611e-06
3.8290777e-06 1.1029047e-06 7.4150483e-07 8.417369e-06 2.6184415e-07 3.0025117e-08 2.3872236e-08 1.0527658e-06
6.2044155e-06 1.9892643e-06 7.787564e-06 2.6481646e-09 2.2657907e-06 1.843845e-07 2.212184e-07 1.1802641e-05
8.024481e-07 1.2701487e-12 2.8242912e-06 4.882994e-09 8.0136636e-10 1.0505854e-08 2.2754048e-06 1.8547078e-06
2.4753271e-22 9.714379e-07 7.907892e-06 5.9400286e-06 1.4089856e-05 1.0793996e-06 5.1690704e-06 3.461173e-06
6.655323e-06 9.618488e-06 3.6793162e-07 1.6915965e-05 1.8485238e-05 1.2077957e-06 7.308228e-08 2.650364e-07
6.638405e-06 1.0629147e-06 1.04953315e-05 4.1931094e-06 6.1112464e-06 1.1959116e-07 2.1574944e-05 4.109992e-06
4.4200965e-07 4.474431e-11 8.6252663e-07 1.1704184e-05 9.662597e-07 3.4831473e-06 2.5304751e-05 1.3151318e-05
2.5813818e-22 5.098294e-07 6.3413004e-06 1.1131054e-06 4.622543e-06 2.5596946e-06 9.4416566e-07 2.098794e-06
2.0584162e-06 2.2185698e-06 4.327161e-07 6.9277253e-06 2.8642983e-06 4.7245518e-07 1.30798306e-08 1.7379641e-06
8.891902e-06 1.655e-06 7.270847e-06 5.0281875e-07 2.6772163e-06 2.0034642e-07 2.123947e-06 9.710365e-06
1.0596585e-06 1.6504884e-11 4.8805555e-06 1.3109437e-06 8.718789e-08 3.2223411e-07 5.6788144e-06 4.318099e-06
2.3961987e-29 7.7732676e-07 7.561839e-07 4.3521945e-06 2.9000068e-06 2.3710167e-09 1.2673586e-06 1.3772624e-06
9.696925e-07 3.7993332e-06 5.8264282e-09 3.224696e-06 1.2246425e-05 6.110536e-07 2.8773237e-09 2.260308e-08
1.92304e-06 6.1666675e-08 1.0032613e-06 2.7693961e-06 1.613652e-06 9.8455956e-08 1.2086783e-05 2.8306643e-14
4.877316e-16 1.02719664e-11 3.0752748e-08 7.3688143e-06 6.3804515e-07 2.394747e-06 1.1681752e-05 5.718924e-06
3.1267707e-22 3.014035e-07 1.3872351e-06 2.1993955e-07 1.0109555e-06 7.643901e-07 2.2521195e-07 3.356793e-07
6.358614e-07 4.8570826e-07 7.901803e-08 1.0674127e-06 5.3565697e-07 2.6511213e-07 1.0214098e-08 1.6232367e-07
1.9194717e-06 7.3444096e-07 1.2402127e-06 1.5024617e-07 8.5352167e-07 3.7115992e-08 5.924771e-07 3.5720948e-06
3.9403747e-07 5.462325e-13 1.9074248e-06 3.5502833e-07 2.2703412e-08 7.086469e-08 1.4959508e-06 6.9295186e-07
00000000: cb7f d915 738a 531b 7c92 541c 123a 871b
00000010: 1d5e cc1c 65a0 521c 4a91 191c 9973 841c
00000020: 6ad7 b01c e8ec a51c c39f 4b1b abe8 931c
00000030: b3a5 b91c 8162 8f1b 8a1f d519 ceec eb1a
00000040: 45ca 591d f352 891c bc91 c81c 3d9f d019
00000050: ee04 831c 4c5d e01a fe71 501c dc61 a91d
00000060: 93c6 1b1c 7389 0407 d749 d21c da6a 8c1b
00000070: ac60 e619 2338 d61b d693 0a1c 3278 6a1c
00000080: 27fd 271c a538 fd35 c797 8e37 66f7 ce36
00000090: 965e 9e37 ff03 c636 c2db fe36 6d11 7137
000000a0: ae54 d236 2bfd b237 9dd3 4135 9c23 bd37
000000b0: 77d2 c437 de6a 7e36 48c4 a433 245a 2e36
000000c0: 0f29 0f38 ef3e 6536 06e8 fb37 8a9a 5436
000000d0: 1669 6937 4c88 d134 cc6e d637 8781 9537
000000e0: c940 1536 ae19 412f 0f22 5237 2c4f 9f37
000000f0: 7571 2635 6ee2 a835 8191 eb37 b49a ba37
00000100: 7a73 291c 0b0c 1a36 a091 d736 ab09 1637
00000110: af5c 3637 7bd4 eb35 7e19 9336 8b0c f136
00000120: 4e31 6636 e751 6737 b007 6534 da72 3c37
00000130: 4130 dd37 e9c7 3436 9b67 a133 9567 0d35
00000140: 2e74 9037 d1d8 9b35 2f74 3e37 392d 9f36
00000150: 8258 0137 00fd b934 3caa c837 d1cc b236
00000160: 5118 3d35 c84d d22e 3677 b536 5e36 8237
00000170: 4edf 7535 aa0c 3d36 f08c d137 551b 9737
00000180: f490 d41b b824 0134 1804 0137 e31b 4934
00000190: f24c cb36 b43f 2036 23ee a735 c37a 9835
000001a0: 877b 8036 8407 9435 d30b 4735 5338 0d37
000001b0: 9693 8c34 f7f4 0033 9a0f cd32 c24c 8d35
000001c0: 862f d036 4d7f 0536 55a7 0237 01fb 3531
000001d0: fd0d 1836 3afb 4534 0d88 6d34 f503 4637
000001e0: d067 5735 eec1 b22b f488 3d36 45c7 a731
000001f0: 2547 5c30 3c7d 3432 28b3 1836 46ef f835
00000200: d59f 951b 5a62 8235 23ac 0437 7550 c736
00000210: 7963 6c37 e3df 9035 fa71 ad36 8046 6836
00000220: ca50 df36 175f 2137 2388 c534 c2e6 8d37
00000230: bf10 9b37 8b1b a235 69f1 9c33 534a 8e34
00000240: 77bf de36 79a9 8e35 1b15 3037 89b2 8c36
00000250: 350f cd36 f868 0034 d7fb b437 90e8 8936
00000260: 584d ed34 9dc9 442e 6188 6735 165d 4437
00000270: 6eb0 8135 04c0 6936 8a45 d437 7ba4 5c37
00000280: f308 9c1b 36db 0835 5bc7 d436 0366 9535
00000290: 581b 9b36 38c7 2b36 9272 7d35 02d9 0c36
000002a0: 5223 0a36 bde2 1436 0c50 e834 b574 e836
000002b0: 4538 4036 bfa5 fd34 b4b5 6032 fe43 e935
000002c0: 6e2e 1537 5e21 de35 1af8 f336 71f9 0635
000002d0: 3aaa 3336 ce1e 5734 2289 0e36 b3e9 2237
000002e0: 9739 8e35 b22d 912d a7c3 a336 aff3 af35
000002f0: 0d3c bb33 85ff ac34 a58c be36 30e4 9036
00000300: e000 f30f 7da9 5035 90fc 4a35 1109 9236
00000310: bd9d 4236 5eef 2231 1c1a aa35 60da b835
00000320: 6126 8235 0cf8 7e36 ce31 c831 db67 5836
00000330: ff75 4d37 4907 2435 6aba 4531 b328 c232
00000340: 930d 0136 9d6d 8433 cca7 8635 ddd9 3936
00000350: a994 d835 bc6e d333 56c8 4a37 adf6 fe28
00000360: 3d94 0c26 d3b4 342d 0115 0433 a241 f736
00000370: 2146 2b35 71b5 2036 befc 4337 2fe5 bf36
00000380: 6f00 bd1b 95d0 a134 0931 ba35 8628 6c34
00000390: 2bb0 8735 7d30 4d35 cad1 7134 6937 b434
000003a0: 10b0 2a35 9e61 0235 9fb0 a933 0544 8f35
000003b0: 11ca 0f35 bc54 8e34 147a 2f32 314b 2e34
000003c0: 46d0 0036 6626 4535 6275 a635 5a53 2134
000003d0: 901d 6535 7769 1f33 b70a 1f35 1fb8 6f36
000003e0: 198c d334 33c0 192b 4f01 0036 b99a be34
000003f0: 5505 c332 462e 9833 7ac8 c835 4a03 3a35

exp_avg f4 [32]
-2.727e-42 -0.00024681064 -0.00011273339 0.00046584487 0.00010075804 -0.00046932505 -0.00022598957 -0.00014483668
3.8715716e-06 -0.00038128765 -5.6083103e-05 0.0005903304 -0.00014448869 0.00011969748 0.00048669352 0.0006037138
-0.00027677623 -0.0003043068 -0.0003020914 -2.839e-42 3.3455037e-06 -0.00032467587 3.3871038e-07 -0.000191449
-0.0002534711 -2.633e-42 -0.000463905 -2.727e-42 -2.686e-42 6.2597675e-05 0.00032979043 -0.000227515
00000000: 9a07 0080 5d66 81b9 476b ecb8 a43c f439
00000010: 104e d338 be0f f6b9 9df7 6cb9 4ddf 17b9
00000020: 8ce8 8136 90e7 c7b9 c63a 6bb8 67c0 1a3a
00000030: e381 17b9 1806 fb38 e62a ff39 8c42 1e3a
00000040: 471c 91b9 5e8b 9fb9 0562 9eb9 ea07 0080
00000050: 5183 6036 4239 aab9 00d8 b534 b3bf 48b9
00000060: 51e4 84b9 5707 0080 4638 f3b9 9a07 0080
00000070: 7d07 0080 df46 8338 b9e7 ac39 1891 6eb9

exp_avg_sq f4 [32]
1.834502e-20 0.0004349289 0.00025816465 0.00011292075 0.00018165857 0.00013417842 4.5363835e-05 2.9608122e-05
0.000384234 8.674202e-05 0.001059798 4.2656935e-05 3.839311e-06 6.0581893e-05 0.007433017 0.002485732
1.690968e-05 7.831587e-05 0.00032964934 9.860884e-25 4.427699e-07 0.0021480974 0.00032599733 4.720696e-05
0.00012377251 3.810815e-24 9.881255e-05 2.1459893e-28 1.0961385e-25 1.5810052e-05 0.00020327506 0.00015972165
00000000: 8943 ad1e 2b07 e439 465a 8739 decf ec38
00000010: 9a7b 3e39 3fb2 0c39 0c45 3e38 f55e f837
00000020: 0473 c939 44e9 b538 ece8 8a3a 89ea 3238
00000030: 6ed3 8036 5019 7e38 aa90 f33b aae7 223b
00000040: 43d9 8d37 833d a438 c9d4 ac39 fc96 9817
00000050: d5b5 ed34 18c7 0c3b 9fea aa39 1600 4638
00000060: eec8 0139 7c6c 9318 9539 cf38 ab04 8811
00000070: 04b2 0716 d49f 8437 3c26 5539 f47a 2739

exp_avg f4 [1, 32]
2.678e-42 -0.00014219352 -9.4995325e-05 -0.00021742057 -0.00030194895 -9.137443e-05 -2.0332445e-08 -0.0001565322
-0.00019553854 -0.00020595355 -0.0001494009 -0.00018027663 -9.719157e-05 -0.00012316591 -3.057985e-05 -6.6406064e-05
-0.00028117016 -0.00015794311 -0.0001520606 -2.705e-42 -0.00022226 -0.00019747257 -0.00010526716 -0.00036095336
-0.00016350466 2.82e-42 -0.00024436534 -2.099e-42 -2.86e-42 -1.6883561e-05 -0.0001117913 -9.7719145e-05
00000000: 7707 0000 c819 15b9 3a38 c7b8 64fb 63b9
00000010: e74e 9eb9 46a0 bfb8 85a7 aeb2 cb22 24b9
00000020: 7a09 4db9 3cf5 57b9 80a8 1cb9 a408 3db9
00000030: 54d3 cbb8 1926 01b9 dd42 00b8 7c43 8bb8
00000040: 056a 93b9 889d 25b9 7572 1fb9 8a07 0080
00000050: 770e 69b9 a410 4fb9 e0c2 dcb8 573e bdb9
00000060: 7372 2bb9 dc07 0000 291e 80b9 da05 0080
00000070: f907 0080 2ca1 8db7 7f71 eab8 91ee ccb8

exp_avg_sq f4 [1, 32]
8.959899e-22 3.504155e-06 2.2028912e-06 1.6089426e-06 8.0336995e-06 3.734947e-06 2.522839e-12 5.3965446e-06
3.2293697e-06 8.495119e-06 6.342341e-07 9.820437e-07 3.966888e-06 2.1500734e-06 2.9254633e-07 8.315571e-07
1.6572021e-05 6.0287443e-06 5.93132e-06 7.0472454e-28 9.380562e-06 1.1684883e-06 6.1156254e-07 2.4362253e-05
5.5464893e-06 1.4656341e-27 2.1106269e-05 2.139592e-33 2.6449672e-27 7.770582e-10 1.9339986e-06 1.5635491e-06
00000000: ee65 871c ed28 6b36 62d5 1336 d9f2 d735
00000010: 7ac8 0637 e7a5 7a36 6d87 312c f713 b536
00000020: 26b8 5836 4286 0e37 3c40 2a35 c4ce 8335
00000030: 4f1b 8536 fb49 1036 430f 9d34 2b38 5f35
00000040: 2504 8b37 854a ca36 a705 c736 0c56 5f12
00000050: 3561 1d37 f4d4 9c35 422a 2435 8a5d cc37
00000060: fb1b ba36 2f3d e812 5e0d b137 17c0 3109
00000070: 4f8e 5113 9c98 5530 d8c9 0136 23db d135
