Checkpoints/ANN_checkpoint_2.pth (torch, 114096 bytes, 27 tensors)

linear_relu_stack.0.weight f4 [50, 15]
0	0x3e4cec95	0.20012124
1	0x3f086c57	0.53290313
2	0xbe595866	-0.21225128
3	0x3e2f7af8	0.17136753
4	0x3db405db	0.08790179
5	0xbd5fbe65	-0.054624934
6	0x3e4d4816	0.2004703
7	0xbdb4ffdf	-0.08837866
8	0x3d88707a	0.06662078
9	0xbdb37899	-0.087632366
10	0x3dd6bc47	0.1048513
11	0x3dc7271d	0.09724257
12	0x3ce59335	0.028024295
13	0xbd9ea65f	-0.077465765
14	0xbd64363b	-0.05571578
15	0x3ef24b6c	0.47323167
16	0xbdaacc5c	-0.0833976
17	0xbed5005b	-0.41601834
18	0xbda702a4	-0.081548005
19	0xbe08a8d6	-0.13345656
20	0xbe6e6a98	-0.2328285
21	0xbd52d6b8	-0.051474303
22	0x3d7fd67f	0.06246042
23	0xbe3e7611	-0.18599726
24	0x3df64214	0.12024322
25	0x3d9ac55d	0.07557175
26	0x3e7503ec	0.23927277
27	0x3d861e80	0.06548786
28	0x3e4ecd80	0.2019558
29	0x3e3b0b7a	0.18266097
30	0xbe430838	-0.19046104
31	0xbc4423f0	-0.011971459
32	0x3da839dc	0.08214161
33	0xbe0765a9	-0.13222374
34	0xbe54b66c	-0.20772713
35	0x3e0fa9aa	0.14029565
36	0x3ba31c00	0.004977703
37	0xbe84268c	-0.2581066
38	0xbd276a1c	-0.04087268
39	0xbcf987e0	-0.030460298
40	0xbd3fcdf8	-0.046827286
41	0x3d39a278	0.045320958
42	0xbcc28f88	-0.023750082
43	0x3cd51580	0.026011229
44	0x3c94b790	0.018153936
45	0x3f7912f6	0.9729456
46	0x3e3dcf82	0.18536189
47	0xbebc5241	-0.36781505
48	0xbe828ff2	-0.25500447
49	0x3e081b0a	0.13291565
50	0xbe1895d3	-0.14900903
51	0x3e07dfdc	0.1326899
52	0x3e173bac	0.14768857
53	0xbd503766	-0.050834082
54	0xbe1961ef	-0.14978765
55	0xbedd149b	-0.43179783
56	0xbe2f3035	-0.17108233
57	0x3ddc1d76	0.10747807
58	0xbce2bd9e	-0.027678307
59	0xbe7c6fb8	-0.24651992
60	0xc04d02dc	-3.2032995
61	0x3e08621d	0.13318677
62	0x3eea01e6	0.45704573
63	0xbf4238da	-0.75868
64	0xbdbd8a76	-0.09254925
65	0x3ce5db3d	0.028058643
66	0x3d48549c	0.048908815
67	0xbca83a72	-0.020535681
68	0x3de613fe	0.11234282
69	0xbd300e0f	-0.042982157
70	0xbdff12ec	-0.12454781
71	0xbe8a4c30	-0.2701125
72	0xbd460db0	-0.048352897
73	0xbd238820	-0.03992474
74	0x3c4cea24	0.012506995
75	0xbf348fcc	-0.70531917
76	0xbe50099c	-0.20316166
77	0x3e48241a	0.19545022
78	0xbf2173f3	-0.6306755
79	0xbd108fc8	-0.03529337
80	0xbd83b43c	-0.06430861
81	0x3e846c65	0.25863948
82	0x3d32ee47	0.04368427
83	0xbd240dab	-0.040052097
84	0x3e6f7319	0.2338375
85	0xbe654b98	-0.22392118
86	0x3eb01d4e	0.34397358
87	0x3cb32138	0.021866426
88	0x3d9541c0	0.072879314
89	0xbd881455	-0.06644503
90	0x3de628b1	0.1123823
91	0x3ee53596	0.44767445
92	0xbed88292	-0.42287117
93	0x3e697c35	0.22801287
94	0x3db42c75	0.08797542
95	0xbe018384	-0.12647825
96	0xbe2ea8e3	-0.17056613
97	0x3c04937a	0.008091802
98	0x3d449a18	0.047998518
99	0x3dbb9280	0.09158802
100	0x3e3d7c64	0.18504483
101	0x3d909464	0.07059553
102	0x3cddee8d	0.027091289
103	0xbdfb2b95	-0.12264172
104	0xbe1e9f7b	-0.15490524
105	0x3d4d8b37	0.050181594
106	0xbe8882e9	-0.26662377
107	0x3e0c8c64	0.1372543
108	0x3e04d4c1	0.12971784
109	0x3e038a28	0.12845671
110	0xbd98e357	-0.07465237
111	0xbe1d0066	-0.15332183
112	0xbe072eab	-0.13201396
113	0x3d9f5651	0.077801354
114	0xbe0b0e1c	-0.13579601
115	0xbe3c106e	-0.18365642
116	0x3e8cd3c6	0.2750532
117	0xbe3f3e43	-0.18676095
118	0xbe4cec4f	-0.2001202
119	0xbe389bd4	-0.18028194
120	0x3ea92636	0.33036965
121	0xbd7e84c9	-0.062138353
122	0xbed7de44	-0.42161763
123	0xbd11b9d1	-0.0355776
124	0xbe146462	-0.14491418
125	0x3d85ef02	0.06539728
126	0xbe352d77	-0.17693125
127	0x3e19525a	0.14972821
128	0xbe2c61f2	-0.16834238
129	0x3d89617a	0.06708045
130	0x3decc1fd	0.11560438
131	0xbda0b49a	-0.07846947
132	0xbd5a7ed0	-0.053343594
133	0x3e11c7af	0.1423633
134	0xbe465931	-0.19369961
135	0xbff82a48	-1.9387903
136	0xbe09f0b1	-0.13470723
137	0x3f328645	0.6973613
138	0x3ea19158	0.315562
139	0x3e306774	0.17226964
140	0x3c728162	0.014801355
141	0xbe6442f9	-0.22291173
142	0xbe14349a	-0.14473191
143	0x3e4ccf27	0.20000897
144	0xbd890d9b	-0.06692048
145	0x3d82f8a4	0.06395081
146	0xbe789d70	-0.24278808
147	0xbe0918b5	-0.13388331
148	0x3d2c3d52	0.042050667
149	0x3d782149	0.06057862
150	0x3ebe5f7d	0.37182227
151	0x3d223246	0.039598726
152	0xbe846f78	-0.25866294
153	0x3e005c0f	0.12535118
154	0xbe8943b7	-0.26809475
155	0x3db00edc	0.08596584
156	0x3e509337	0.20368658
157	0xbc9a80be	-0.018860217
158	0x3dfb81ef	0.12280642
159	0x3d48b83f	0.049003836
160	0x3e03b3e3	0.1286159
161	0x3c44bc6b	0.012007813
162	0x3dbba329	0.0916198
163	0xbe77df35	-0.2420624
164	0xbd710d6f	-0.058850702
165	0xbe7da35f	-0.24769352
166	0x3ea273db	0.31729016
167	0x3ed0cd88	0.40781808
168	0x3ea69cc5	0.3254148
169	0xbd4a52df	-0.04939544
170	0x3df150b6	0.117829725
171	0xbe6a926d	-0.2290742
172	0xbd9be059	-0.0761115
173	0x3de7aba3	0.11312034
174	0x3d88eed8	0.06686181
175	0xbe7eeeb1	-0.24895741
176	0x3e2d7fea	0.16943327
177	0x3d9b743a	0.07590528
178	0x3e3eef50	0.18645978
179	0x3e2030ca	0.15643612
180	0x3f481453	0.7815601
181	0xbe301467	-0.17195283
182	0xbed74954	-0.42048132
183	0xbe1c04ea	-0.1523625
184	0x3e141f0b	0.14464967
185	0x3d5c9e69	0.05386201
186	0xbd22a605	-0.03970911
187	0xbe45e98a	-0.1932737
188	0x3d4b1b46	0.049586557
189	0xbcdbbb81	-0.026822807
190	0xbe2acc3d	-0.16679473
191	0xbdca205c	-0.09869453
192	0x3e38b3c1	0.1803732
193	0xbe61132a	-0.21979967
194	0xbd984578	-0.07435125
195	0xbe9bcba7	-0.30428812
196	0x3eb33653	0.35002384
197	0x3d15d25b	0.036577564
198	0x3d0569c0	0.032571554
199	0xbe1685b8	-0.14699447
200	0x3cf48fb4	0.02985368
201	0xbc200075	-0.009765734
202	0xbad12e48	-0.0015959227
203	0x3cf7d752	0.03025404
204	0xbd5664b6	-0.05234214
205	0x3c002ab8	0.007822685
206	0x3dd8e075	0.10589687
207	0x3e2952cf	0.16535495
208	0x3df6f89d	0.12059138
209	0x3df25ab3	0.11833706
210	0x3ef3a3b4	0.47585833
211	0xbe186265	-0.14881285
212	0x3e94a339	0.2903078
213	0x3f134b44	0.5753672
214	0x3e1072b8	0.14106262
215	0xbdd8f80a	-0.10594185
216	0x3c0bdb20	0.00853613
217	0xbd63eaf3	-0.055643987
218	0x3d0e18cc	0.034691617
219	0x3c98c669	0.018649297
220	0x3dc67194	0.09689632
221	0xbd250b83	-0.04029418
222	0x3dc9abab	0.09847196
223	0xbe19b6f8	-0.15011203
224	0xbe25d48a	-0.16194358
225	0xbecfc98e	-0.40583462
226	0x3eb1400d	0.3461918
227	0xbddeaafe	-0.10872458
228	0x3d53ed41	0.051739935
229	0xbd4b4d6c	-0.049634382
230	0x3ccd24a5	0.025041888
231	0xbd4982ee	-0.04919713
232	0x3c02c967	0.007982588
233	0xbe013cae	-0.12620804
234	0xbe02d54d	-0.1277668
235	0xbd5f6fce	-0.054549985
236	0xbdd92bda	-0.10604067
237	0x3dfbad27	0.122888856
238	0xbd8936e9	-0.066999264
239	0xbd2e871a	-0.04260931
240	0x3d825810	0.06364453
241	0x3ea746ef	0.32671306
242	0xbe35cf84	-0.17754942
243	0xbd0d6699	-0.034521673
244	0x3d2e1266	0.042498015
245	0x3c906a8d	0.017628932
246	0xbe16748d	-0.14692898
247	0x3c37e95e	0.011225073
248	0xbdc3e7ba	-0.09565683
249	0x3c06efe3	0.008235904
250	0xbe1b4132	-0.15161589
251	0xbc9e4659	-0.019320654
252	0xbd799ae4	-0.06093873
253	0xbe1a1966	-0.15048751
254	0xbe1ad0a0	-0.15118647
255	0xbed4b0ed	-0.41541234

linear_relu_stack.0.bias f4 [50]
0	0xbdcd1145	-0.100130595
1	0x3ca484c5	0.02008284
2	0xbe4af52b	-0.19820087
3	0xbb8373e6	-0.004011619
4	0x3d725733	0.05916519
5	0x3a527786	0.00080286746
6	0xbdb19287	-0.08670526
7	0x3e550177	0.2080134
8	0xbe28397a	-0.16428176
9	0xbe669caa	-0.225207
10	0xbdc7bb9d	-0.09752581
11	0xbe1d263c	-0.15346617
12	0x3d227829	0.039665375
13	0xbe276cf9	-0.16350164
14	0x3e0a93f4	0.13533002
15	0x3da3f9e1	0.08006645
16	0xbbd0f798	-0.0063771717
17	0xbe95eab6	-0.29280633
18	0xbdbe40ad	-0.0928968
19	0x3da07b52	0.078360215
20	0xbe2ef0ba	-0.17084017
21	0x3c73c8d0	0.01487942
22	0x3d9d4bfb	0.07680508
23	0xbd4c733a	-0.049914576
24	0xbcb751ab	-0.02237781
25	0xbe7f923b	-0.24958126
26	0xbdc0ff37	-0.09423678
27	0x3d9de328	0.07709342
28	0x3ddddb36	0.10832827
29	0x3e7bb690	0.24581361
30	0x3e7295e5	0.23689993
31	0xbe807b81	-0.25094226
32	0xbe0fe0be	-0.14050576
33	0xbd71b7c9	-0.05901316
34	0xbdd528b0	-0.10408151
35	0x3dbd4c64	0.09243086
36	0xbe80359f	-0.2504091
37	0xbbd4834a	-0.0064853774
38	0xbda184b0	-0.07886636
39	0xbde41de7	-0.11138516
40	0x3ce7d793	0.028301036
41	0x3e3f0dcc	0.18657607
42	0x3d7bcc8f	0.06147438
43	0xbdc4aeae	-0.0960363
44	0x3e17489c	0.14773792
45	0x3e68a048	0.22717392
46	0xbe826cfc	-0.25473773
47	0x3e41dc0c	0.18931597
48	0xbdb5c9ac	-0.088763565
49	0x3df5dbd8	0.120048225

linear_relu_stack.2.weight f4 [60, 50]
0	0x3c4abeb2	0.012374567
1	0xbdb1fb63	-0.08690526
2	0xbe08e751	-0.1336949
3	0xbe0eecc3	-0.13957505
4	0x3c8d54f7	0.017252428
5	0xbcf4caac	-0.029881798
6	0xbe1b66d1	-0.1517594
7	0xbdb0a80c	-0.086258024
8	0xbcd9b794	-0.026576795
9	0xbdc3bbda	-0.09557314
10	0xbe0d93a7	-0.13825856
11	0xbdb7a809	-0.08967597
12	0x3dfca7a6	0.12336664
13	0xbd0559d7	-0.03255638
14	0x3d1e34ec	0.03862469
15	0xbd8e2e2a	-0.06942399
16	0xbdb2ee0c	-0.0873681
17	0xbdf6eb71	-0.12056626
18	0x3d866e20	0.065639734
19	0x3cb45cef	0.02201697
20	0xbde0ec16	-0.1098253
21	0x3cbb7c48	0.02288641
22	0xbdc857c6	-0.097823665
23	0xbd5584a8	-0.052128464
24	0xbcd3930d	-0.025826955
25	0x3da7845a	0.08179541
26	0x3cc5c128	0.024139956
27	0xbe06912d	-0.13141318
28	0xbcae894c	-0.021305703
29	0x3d89e502	0.06733133
30	0xbc6cebdc	-0.01446053
31	0xbdb2ed08	-0.087366164
32	0x3d959029	0.07302887
33	0x3d8a6fff	0.06759643
34	0x3d5dc314	0.05414112
35	0xbcabbb4d	-0.020963335
36	0x3e1052f9	0.14094152
37	0x3dad833e	0.08472298
38	0xbc823740	-0.015895486
39	0xbd9c5f1a	-0.07635327
40	0xbd9eb858	-0.077500045
41	0x3c455ab8	0.012045555
42	0xbaad206f	-0.0013208519
43	0x3c989a83	0.018628364
44	0xbcdc3244	-0.026879437
45	0xbdc7c0cd	-0.09753571
46	0xbc8cd02a	-0.017189104
47	0x3d8a4874	0.067521006
48	0xbd7aad6e	-0.06120055
49	0xbbae5360	-0.0053199977
50	0xbdcbaaad	-0.09944663
51	0x3e2a9b67	0.16660844
52	0xbdc57f35	-0.096434034
53	0x3e4f8748	0.2026645
54	0xbe8c050a	-0.27347594
55	0x3e260164	0.16211468
56	0xbd8ca4ca	-0.068673685
57	0x3e6da664	0.23208004
58	0x393a3b6b	0.00017760477
59	0xbe249a8c	-0.1607458
60	0x3d0d0bc1	0.034435038
61	0x3c31fdff	0.01086378
62	0x3e1f0f20	0.15533113
63	0xbdc109d4	-0.09425703
64	0x3d59241c	0.053012952
65	0xbdf77197	-0.120822124
66	0x3e6ac7d2	0.22927788
67	0x3df6f77e	0.12058924
68	0x3c62ac99	0.013835096
69	0xbdcc4451	-0.09973968
70	0xbe18bd33	-0.14915924
71	0xbde9a804	-0.114089996
72	0x3e1f4be0	0.15556288
73	0x3e0301a1	0.1279359
74	0x3c225492	0.009907858
75	0x3dccab0e	0.099935636
76	0xbe403990	-0.18771958
77	0xbd392494	-0.0452009
78	0x3bdd896a	0.006760766
79	0x3df4eb0b	0.119588934
80	0x3dee3291	0.116307385
81	0xbdd6e4f7	-0.1049289
82	0x3d4e9a21	0.050439958
83	0xbe2dec12	-0.16984585
84	0x3e14ef56	0.14544424
85	0x3d2a7331	0.04161376
86	0xbd7993dc	-0.060932025
87	0x3cea63cf	0.028612046
88	0xbcd58770	-0.026065558
89	0xbcdf2992	-0.027241502
90	0xbe50db6a	-0.203962
91	0x3e61ba05	0.22043617
92	0xbde74594	-0.11292568
93	0x3bb36c56	0.005475561
94	0x3e3c4ae4	0.18387944
95	0xbde03109	-0.10946853
96	0x3da23302	0.07919885
97	0x3cf0d4a0	0.029398263
98	0xbd9fd7a0	-0.07804799
99	0x3d7eaf12	0.06217868
100	0xbd11ce34	-0.03559704
101	0xbced0e45	-0.028937468
102	0xbd80f5f1	-0.062969096
103	0xbd4c21e8	-0.049837023
104	0x3aa961cd	0.0012922824
105	0x3c5f74fa	0.013638729
106	0x3e121b2d	0.14268179
107	0x3b88b16b	0.0041715405
108	0x3dd80c8c	0.10549268
109	0xbeb4edd8	-0.3533771
110	0x3d65dd3c	0.05611919
111	0xbe93848d	-0.28812066
112	0x3dfe462e	0.124157295
113	0xbde80557	-0.113291435
114	0xbe9ba10b	-0.30396304
115	0x3cf2229c	0.029557519
116	0x3dff189a	0.12455864
117	0xbe007e60	-0.12548208
118	0x3d6ad5e7	0.0573329
119	0xbe7bc363	-0.24586253
120	0x3d38249c	0.04495679
121	0x3dae8e6a	0.08523257
122	0x3dcc6cce	0.0998169
123	0xbd5142a4	-0.051088944
124	0x3dc8adea	0.097987965
125	0xbe0a5344	-0.13508326
126	0x3cbb504b	0.022865435
127	0xbd7a5cf9	-0.061123822
128	0x3e11007c	0.14160341
129	0xbdb0c251	-0.08630813
130	0x3c865b0a	0.016400833
131	0x3e24da78	0.16098964
132	0x3d8144f1	0.06311978
133	0xbcaece7a	-0.02133869
134	0x3e713bdf	0.23557995
135	0x3d8ca71e	0.068678126
136	0xbdca4c4c	-0.09877834
137	0x3e792f40	0.2433443
138	0xbe2f5f7e	-0.17126271
139	0x3ca474ba	0.02007519
140	0xbed5684c	-0.41681135
141	0x3d942543	0.072336696
142	0xbdcec1e0	-0.100955725
143	0xbd9f5047	-0.077789836
144	0x3e1efd5c	0.15526336
145	0x3d8eeec0	0.06979132
146	0x3e1eff6b	0.15527122
147	0xbe5eb42d	-0.21748419
148	0xbde9c94a	-0.11415346
149	0x3d84532e	0.06461178
150	0xbe42ce0c	-0.19023913
151	0x3cca3517	0.024683518
152	0x3d8e2c02	0.069419876
153	0x3e51aa0f	0.20475028
154	0xbee0d5f0	-0.4391322
155	0xbd8b4e1c	-0.068020076
156	0xbe085dee	-0.13317081
157	0xbd250da4	-0.04029621
158	0xbd7d70cb	-0.061875146
159	0x3e0cbd75	0.13744147
160	0x3cfa5136	0.030556303
161	0xbe2988d3	-0.165561
162	0x3d8566c7	0.06513744
163	0xbe28ad2d	-0.16472311
164	0x3e0abcd7	0.13548599
165	0x3cffa3a6	0.031205963
166	0xbdf6c042	-0.12048389
167	0x3da776eb	0.08176979
168	0xbd1bdf6e	-0.038054876
169	0xbcb73d93	-0.022368228
170	0xbbac3f7c	-0.0052565914
171	0xbe688866	-0.22708282
172	0xbd86661f	-0.06562447
173	0x3dcb52e5	0.0992792
174	0xbd9d50e0	-0.07681441
175	0xbd0afa48	-0.033930093
176	0xbe59f32f	-0.21284173
177	0x3d065873	0.032799195
178	0x3c03065c	0.007997122
179	0x3da27fea	0.07934554
180	0x3d61fb36	0.055171214
181	0x3dddd151	0.108309396
182	0xbd67d128	-0.05659595
183	0xbde425cf	-0.11140024
184	0x3d202e28	0.039106518
185	0x3e2ee4b8	0.17079437
186	0x3e1051a7	0.14093648
187	0xbdd6bf77	-0.10485738
188	0x3df18149	0.11792237
189	0x3d27b75c	0.04094635
190	0xbe997218	-0.2996986
191	0xbe0c53e9	-0.13703884
192	0x3d8b116a	0.06790431
193	0x3e3c2317	0.1837276
194	0x3abee9f1	0.001456557
195	0x3de97223	0.11398723
196	0x3d95600f	0.07293712
197	0x3e3d1413	0.18464689
198	0x3dd6c12e	0.10486065
199	0x3e3e1da7	0.18565999
200	0x3de2d8a5	0.11076478
201	0xbdb4af76	-0.08822529
202	0xbdae9dd4	-0.08526197
203	0xbde81ae5	-0.11333255
204	0x3dfa8bf9	0.12233729
205	0x3cbffe77	0.023436768
206	0x3e13561d	0.14388318
207	0xbd87bcc0	-0.06627798
208	0xbd34e113	-0.04415996
209	0x3ed2c987	0.41169378
210	0x3c45c49d	0.012070802
211	0x3e8172d3	0.25282916
212	0xbdc3d7d7	-0.095626526
213	0x3d22767c	0.039663777
214	0x3e3ae961	0.1825309
215	0x3d998d57	0.074976616
216	0xbde4bd6b	-0.11168941
217	0x3e07754e	0.13228342
218	0x3e3753e2	0.17903093
219	0x3d506d04	0.050885215
220	0x3e286be6	0.1644741
221	0xbeef2754	-0.46709692
222	0xbe2aba63	-0.16672663
223	0x3d909bd2	0.0706097
224	0x3dce74c1	0.10080863
225	0x3df560c0	0.11981344
226	0xbc9314b5	-0.01795421
227	0xbd526a6c	-0.051371023
228	0xbdb74d19	-0.08950252
229	0x3df58ec5	0.11990122
230	0x3d9be106	0.07611279
231	0xbec6431b	-0.38723072
232	0xbe0ad7de	-0.1355891
233	0x3d692643	0.056921255
234	0xba811428	-0.0009847926
235	0x3de35aec	0.11101326
236	0xbcf896fc	-0.030345432
237	0xbe72e9dd	-0.23722024
238	0x3e63b275	0.22236045
239	0xbd9628cd	-0.07332001
240	0x3eb99636	0.36247414
241	0xbe512d78	-0.20427501
242	0xbc82f3a6	-0.015985321
243	0xbe4ddf1e	-0.20104644
244	0xbe67da3b	-0.22641842
245	0xbe1f2686	-0.1554204
246	0xbda9dbc7	-0.08293872
247	0x3e720638	0.23635185
248	0xbdffe4c8	-0.124948084
249	0x3d63831f	0.05554497
250	0x3da2618b	0.07928761
251	0xbe04c61f	-0.12966202
252	0xbc2085a0	-0.009797484
253	0xbd39b38e	-0.045337252
254	0xbbb3f9d9	-0.0054924306
255	0x3d8b5362	0.068030134

linear_relu_stack.2.bias f4 [60]
0	0xbe2ee492	-0.1707938
1	0x3de7fc5d	0.11327431
2	0xbdce2a9c	-0.10066721
3	0x3e08aae9	0.13346447
4	0xbe0923d4	-0.13392574
5	0x3b848d32	0.004045152
6	0x3bf51c57	0.007480185
7	0x3cf17f3e	0.02947962
8	0x3d835ee8	0.06414586
9	0xbdcedd62	-0.10100819
10	0xbd4f09a9	-0.050546322
11	0xbd80353d	-0.062601544
12	0xbe03d550	-0.12874341
13	0x3d22622d	0.03964441
14	0x3e096481	0.13417245
15	0x3d39aab7	0.045328822
16	0xbc4d3c93	-0.012526649
17	0xbe21f0ac	-0.15814465
18	0x3da7b1c8	0.08188206
19	0xbd608f54	-0.05482419
20	0x3d3e9774	0.046531156
21	0xbe0bcb6d	-0.1365182
22	0xbe106dcd	-0.14104386
23	0x3e18e91e	0.14932677
24	0xbdb23d25	-0.08703069
25	0xbd5b1eb4	-0.053496078
26	0x3d8e08f8	0.069353044
27	0xbe0e8541	-0.1391802
28	0xbddacbd6	-0.1068341
29	0x3e33c79b	0.17556612
30	0xbda423b3	-0.080146216
31	0x3cb017b5	0.02149568
32	0x3c2fe462	0.010735603
33	0xbdb21d60	-0.08697009
34	0xbd2ae702	-0.041724212
35	0x3e12cead	0.14336653
36	0x3a836d12	0.0010027012
37	0xbe18962b	-0.14901035
38	0x3da4b113	0.08041587
39	0xbe118c5b	-0.14213698
40	0x3cda42b2	0.02664313
41	0xbda698f3	-0.081346415
42	0xbd5889e2	-0.05286587
43	0xbc947e24	-0.018126555
44	0x3dfc00c3	0.12304833
45	0x3d9bac0d	0.076011755
46	0x3e386c6d	0.18010111
47	0xbdca4e06	-0.09878163
48	0x3e28b287	0.16474353
49	0x3d863e54	0.06554857
50	0x3da48a0e	0.08034144
51	0x3e42dc68	0.19029391
52	0xbd9ff6c3	-0.07810738
53	0xbda1766a	-0.07883914
54	0xbbec7a1b	-0.0072167045
55	0xbc6b3f0a	-0.014358291
56	0x3d9dc810	0.077041745
57	0xbd4b1e32	-0.049589343
58	0x3dbf2536	0.09333269
59	0x3dafedd1	0.08590282

linear_relu_stack.4.weight f4 [40, 60]
0	0x3d2e4144	0.04254271
1	0xbd8aba0c	-0.06773767
2	0x3bdf1054	0.0068073664
3	0xbea8157b	-0.32828888
4	0x3e521716	0.20516619
5	0xbc25ba27	-0.010115183
6	0x3de46592	0.111521855
7	0xbd91e288	-0.071232855
8	0xbda1cfac	-0.079009384
9	0xbcc42610	-0.02394393
10	0xbd7e1794	-0.062034205
11	0x3d52cef8	0.051466912
12	0xbde37181	-0.111056335
13	0xbd3fc209	-0.046815906
14	0xbe0fbaeb	-0.14036147
15	0xbd628288	-0.055300266
16	0xbe93846b	-0.28811964
17	0x3d8713a0	0.0659554
18	0x3f8b7fe5	1.0898405
19	0x3d4f67bc	0.05063604
20	0x3dedb9fc	0.11607739
21	0xbdbed965	-0.093188085
22	0x3ca4b510	0.020105869
23	0xbe08d6a3	-0.13363127
24	0xbd80726b	-0.062718235
25	0xbd34845b	-0.044071537
26	0x3dd3b05f	0.103363745
27	0x3d167d48	0.03674057
28	0xbcee2a3c	-0.029072873
29	0xbf0490c6	-0.51783407
30	0x3db608fa	0.08888431
31	0x3d3eba9c	0.046564683
32	0xbbf5cfe6	-0.00750159
33	0xbda369e2	-0.0797918
34	0x3dba4e55	0.09096972
35	0xbd904f36	-0.07046358
36	0xbbc3d45e	-0.005976244
37	0xbc1c5865	-0.009542559
38	0xbe0f545a	-0.13997021
39	0xbedec948	-0.4351294
40	0xbeceb65b	-0.403735
41	0x3dfb7103	0.12277415
42	0x3dc4c126	0.09607153
43	0xbd1a3718	-0.037650198
44	0xbdecdc1d	-0.11565421
45	0x3d1e41ce	0.038636975
46	0xbf3e6ab0	-0.7438154
47	0xbcba3247	-0.022729052
48	0x3ec8f735	0.39251104
49	0x3c414bf5	0.011797895
50	0x3df8e1a1	0.1215241
51	0xbf01f3a4	-0.5076239
52	0x3d6bbcb4	0.05755301
53	0xbd8f778d	-0.070052244
54	0x3dc27508	0.09494978
55	0x3d1fce31	0.039015
56	0xbe38a6e0	-0.18032408
57	0xbdca805e	-0.09887765
58	0x3d6f26f3	0.058386754
59	0x3f116a02	0.5680238
60	0xbddcf869	-0.10789568
61	0xbe2792ef	-0.16364644
62	0x3c22cfa3	0.0099372
63	0xbe959f14	-0.2922293
64	0x3e44dd4a	0.1922504
65	0xbd32c41d	-0.04364406
66	0x3d69d85d	0.057091106
67	0x3de0380c	0.1094819
68	0x3e78bb05	0.24290092
69	0x3d4b9f63	0.04971255
70	0x3daa634a	0.08319719
71	0x3dbf5d5a	0.09343977
72	0x3dc122f0	0.09430492
73	0xbd47317c	-0.048631176
74	0xbd0e29fd	-0.034708012
75	0x3dc4ce1b	0.09609624
76	0xbe64eb8d	-0.2235548
77	0xbd7e2516	-0.062047087
78	0x3cfd971c	0.030955844
79	0x3d770b4c	0.060313508
80	0x3d9064fa	0.0705051
81	0x3d227608	0.039663345
82	0x3c31c07a	0.010849113
83	0xbe1d014c	-0.15332526
84	0xbc069e66	-0.008216476
85	0xbdfdd49d	-0.123940684
86	0xbdb2b029	-0.08725006
87	0x3d9c9ce0	0.07647109
88	0xbd89c0b2	-0.06726207
89	0xbdb26d2d	-0.0871223
90	0xbd3bea32	-0.045877643
91	0x3dc2ef8e	0.09518348
92	0x3d86b75f	0.06577944
93	0x3d87e8f5	0.0663623
94	0x3c6e59a3	0.014547738
95	0x3a8cad7d	0.0010732856
96	0xbe511f71	-0.2042215
97	0x3d89ccc1	0.06728507
98	0x3d66d6da	0.056357242
99	0x3e4f54b9	0.20247163
100	0x3cfab619	0.030604409
101	0x3dfccf79	0.1234426
102	0x3ca42d50	0.020041138
103	0x3dbb4ddc	0.0914571
104	0x3de4f432	0.11179389
105	0x3de421b3	0.1113924
106	0xbcd4f140	-0.025993943
107	0xbccd3886	-0.025051367
108	0x3e4ea9c2	0.20181945
109	0xbd58bba8	-0.052913338
110	0x3e49494f	0.19656871
111	0x3e811736	0.2521302
112	0x3de98109	0.11401565
113	0x3da16cd2	0.07882084
114	0x3cef40bd	0.029205674
115	0x3d641684	0.055685535
116	0x3d2164eb	0.039402883
117	0x3dd95274	0.1061143
118	0x3c6d70e4	0.014492247
119	0x3d6ffa07	0.058588054
120	0x3da0bcbd	0.07848499
121	0xbda2ef44	-0.079557925
122	0xbec50c0f	-0.38485762
123	0x3e0cd4ca	0.13753048
124	0xbe88205b	-0.26587185
125	0xbdac518b	-0.084139906
126	0xbd12715e	-0.035752647
127	0xbde339b5	-0.11094991
128	0x3dac6b2e	0.084188804
129	0xbdb2ee2b	-0.08736833
130	0x3c926d56	0.017874401
131	0xbc9e22a0	-0.01930362
132	0x3d8b4d65	0.06801871
133	0x3e1695d3	0.14705591
134	0xbdb9b2de	-0.09067319
135	0x3daabe24	0.08337048
136	0xbdf2bc6a	-0.118523434
137	0xbd8eb5c8	-0.06968266
138	0xbe998a25	-0.29988208
139	0xbe6f4aec	-0.23368424
140	0x3dcd32ae	0.10019432
141	0x3d284960	0.0410856
142	0x3da39bdb	0.079887114
143	0x3da2f7bd	0.079574086
144	0x3cab1178	0.020882353
145	0xbd6a6b29	-0.057231102
146	0x3d700378	0.058597058
147	0x3dd830a6	0.10556154
148	0xbe2d9ee6	-0.16955146
149	0x3db514a0	0.088418245
150	0xbcceaadc	-0.025227956
151	0xbbacdc84	-0.005275311
152	0xbddca226	-0.10773115
153	0x3e053cf0	0.13011527
154	0x3bc2191d	0.005923404
155	0x3d907300	0.070531845
156	0xbea62a77	-0.32454273
157	0x3c3970b0	0.011318371
158	0xbd74b359	-0.05974135
159	0x3d34d49c	0.044148073
160	0x3e122143	0.14270501
161	0x3d185de8	0.03719893
162	0x3e0354c1	0.128253
163	0x3d16be3c	0.036802515
164	0x3de47e46	0.11156897
165	0x3c5df618	0.013547443
166	0x3e2b1715	0.16708024
167	0xbdb1fadd	-0.086904265
168	0xbcf3d169	-0.02976294
169	0x3de12952	0.10994209
170	0x3daea38e	0.08527289
171	0x3eb1abf1	0.34701493
172	0x3d706724	0.058692113
173	0x3dc8373c	0.0977616
174	0x3d5e016c	0.054200575
175	0xbdac2294	-0.08405033
176	0x3d8b4caf	0.068017356
177	0x3d4bba14	0.049738005
178	0xbd5bb991	-0.053643767
179	0xbe2e5434	-0.17024308
180	0xbcf273ea	-0.029596288
181	0xbe36cc7b	-0.1785144
182	0x3edb19c8	0.42793107
183	0xbf19a5f2	-0.6001884
184	0x3ec80617	0.39067146
185	0xbd442587	-0.04788735
186	0xbd805233	-0.06265678
187	0x3dba0199	0.09082336
188	0x3cffb379	0.031213509
189	0x3dbfd609	0.09366996
190	0xbdd77184	-0.10519698
191	0x3e8c577b	0.27410492
192	0x3dc1b350	0.09458029
193	0xbe13eb64	-0.14445263
194	0xbdfe5af6	-0.12419693
195	0x3df70200	0.12060928
196	0xbe70ec93	-0.23527746
197	0x3ce63928	0.028103426
198	0x3f278de6	0.65450895
199	0x3cb65f44	0.022262223
200	0x3d74f667	0.0598053
201	0xbdd17d67	-0.10228997
202	0xbcfbd455	-0.030740896
203	0xbd5df80f	-0.054191645
204	0xbdf17d72	-0.11791505
205	0x393223f0	0.0001698879
206	0xbdb2fd18	-0.0873968
207	0x3cd19cb0	0.02558741
208	0x3dc6860e	0.09693538
209	0xbed87370	-0.42275572
210	0xbc9877c4	-0.018611796
211	0xbdd594cf	-0.104287736
212	0x3e2e9e14	0.1705249
213	0xbd21b8a3	-0.039482724
214	0x3e0be715	0.1366237
215	0xbd2ff229	-0.04295555
216	0xbd59584f	-0.053062733
217	0xbd301570	-0.042989194
218	0xbdccf7f6	-0.10008232
219	0x3c0d24ab	0.008614699
220	0xbe43ab95	-0.19108422
221	0xbabfeb9c	-0.0014642361
222	0x3ace9880	0.0015762001
223	0x3d174258	0.036928505
224	0xbdb7e127	-0.08978491
225	0x3e177c92	0.14793614
226	0xbf22bc9b	-0.6356904
227	0x3d7d5396	0.061847292
228	0x3ecaa737	0.395807
229	0xbdb600e3	-0.08886888
230	0xbd480609	-0.04883388
231	0xbec8b14f	-0.39197776
232	0xbd11ce2e	-0.03559702
233	0x3d105993	0.035241675
234	0xbb9d65ee	-0.0048034107
235	0x3c980aa1	0.018559756
236	0x3cd6294d	0.02614274
237	0x3d9f6daa	0.07784589
238	0x3e3e1b8b	0.18565194
239	0x3eb8d455	0.36099496
240	0xbd9c150d	-0.076212026
241	0xbdd65105	-0.10464672
242	0xbeb0f496	-0.34561604
243	0x3bbd2e56	0.005773346
244	0xbe25a8fe	-0.16177747
245	0x3da32ca2	0.079674974
246	0xbd3dd9e5	-0.04635038
247	0x3d5a1639	0.05324385
248	0xbb24a68b	-0.0025123681
249	0xbdc85487	-0.09781747
250	0x3dfa07cb	0.12208518
251	0xbc72c609	-0.014817723
252	0xbd9a767d	-0.07542131
253	0xbd5a4511	-0.053288523
254	0xbe06634d	-0.13123818
255	0x3db602ef	0.08887278

linear_relu_stack.4.bias f4 [40]
0	0xbc8e1e04	-0.017348297
1	0x3df90de9	0.12160856
2	0x3e34227b	0.17591278
3	0xbd09660c	-0.033544585
4	0x3d63983f	0.055565115
5	0xbde51f23	-0.111875795
6	0xbe0da267	-0.13831483
7	0xbdf1b778	-0.11802572
8	0xbd814645	-0.06312231
9	0x3d93e1f4	0.072208315
10	0x3c5e880a	0.013582239
11	0x3e0638c8	0.13107598
12	0x3da6a499	0.08136863
13	0x3d201e11	0.039091174
14	0x3daf56e3	0.08561494
15	0xbd26095d	-0.040536273
16	0x3cd7436c	0.026277266
17	0xbdfaa759	-0.1223895
18	0xbdcb1f55	-0.099180855
19	0xbc920c5c	-0.017828159
20	0xbd2ec2e9	-0.04266635
21	0x3e049d83	0.12950711
22	0x3dac1abf	0.08403539
23	0xbd92919b	-0.07156678
24	0x3c052f2b	0.0081289215
25	0x3dcbd44b	0.09952601
26	0xbc21c19b	-0.009872819
27	0xbdf332d6	-0.118749306
28	0xbdbb5077	-0.09146207
29	0xbe2c64ad	-0.1683528
30	0x3db344d4	0.08753362
31	0xbce6c986	-0.028172266
32	0x3d8f55f6	0.069988176
33	0x3e0b30e1	0.13592865
34	0xbd3ec379	-0.046573136
35	0x3d59055d	0.05298363
36	0xbd03e9e2	-0.03220547
37	0xbe0b4348	-0.13599885
38	0xbe002df1	-0.12517525
39	0xbd9d2abf	-0.07674169

linear_relu_stack.6.weight f4 [50, 40]
0	0xbe6a322e	-0.22870705
1	0xbe446d6b	-0.19182365
2	0xbdc66324	-0.09686878
3	0xbd0f5996	-0.034997545
4	0x3e0881d3	0.13330774
5	0x3db4c22e	0.08826099
6	0x3d3c3f07	0.045958545
7	0x3d897dc0	0.06713438
8	0xbe754f98	-0.23956144
9	0x3e6a10e6	0.22858009
10	0xbe5c43e6	-0.21510276
11	0x3e8d9529	0.27652863
12	0x3e9e1db6	0.30882043
13	0x3e9060d7	0.28198883
14	0x3e21ceb0	0.15801501
15	0xbb218600	-0.002464652
16	0xbe5cc6d0	-0.21560216
17	0x3d955486	0.07291512
18	0x3d0fcead	0.03510921
19	0x3e566603	0.20937352
20	0xbe2a69e4	-0.16641957
21	0x3e979987	0.2960932
22	0x3dc4eb8a	0.09615238
23	0x3d005e5e	0.031339996
24	0x3e2a5dc7	0.16637336
25	0x3d9becde	0.07613538
26	0x3d5cae4f	0.05387717
27	0x3dcd418a	0.10022266
28	0x3e47b4b5	0.19502528
29	0xbd533fe1	-0.05157459
30	0x3e1fbaa6	0.15598544
31	0x3e70e862	0.23526147
32	0x3e77e8ad	0.24209853
33	0x3ebe449a	0.37161714
34	0x3da9b4ec	0.08286461
35	0x3e5d05a5	0.21584184
36	0x3d9d5888	0.076829016
37	0x3e0d8602	0.13820651
38	0x3d4bb656	0.049734436
39	0xbc85c0cc	-0.016327284
40	0x3d9f64f6	0.07782929
41	0xbd8bcedb	-0.06826564
42	0xbe0b5afe	-0.1360893
43	0x3d310448	0.043216974
44	0x3d4a34c8	0.049366742
45	0xbd83877d	-0.06422327
46	0xbdba3ff6	-0.09094231
47	0x3df611e2	0.120151296
48	0xbe1f48f0	-0.15555167
49	0x3d94e6dc	0.072705954
50	0x3d3a6474	0.045505956
51	0x3cdc7c88	0.02691485
52	0xbda2a6bf	-0.079419605
53	0xbe0ca575	-0.13734992
54	0xbdcaf184	-0.09909347
55	0x3d8470a6	0.064667985
56	0xbe15a4a0	-0.1461358
57	0x3dc79cea	0.09746726
58	0xbdb5f38a	-0.08884342
59	0xbb8b67c0	-0.0042543113
60	0xbd20f79a	-0.03929863
61	0xbd100d7e	-0.035169117
62	0x3bd666e0	0.0065430254
63	0x3e051b3d	0.12998672
64	0x3e1eb1bd	0.1549749
65	0x3b8e16c0	0.004336208
66	0x3dede0c6	0.11615138
67	0xbd318398	-0.04333839
68	0xbdcbfa80	-0.099598885
69	0xbccf96e8	-0.025340512
70	0x3d7a0748	0.0610421
71	0xbd681b4c	-0.056666657
72	0xbde32bfa	-0.11092372
73	0xbe08c0c1	-0.1335478
74	0x3d942e84	0.07235435
75	0xbcc6d6a8	-0.024272278
76	0xbe02800c	-0.12744159
77	0x3dbef10e	0.09323321
78	0x3d91436e	0.07092939
79	0xbdcfea27	-0.10152083
80	0xbf1a91d0	-0.6037874
81	0xbc97e054	-0.018539585
82	0x3e66cb24	0.2253843
83	0xbe9bb194	-0.3040892
84	0x3da3fca6	0.08007173
85	0x3db32d58	0.08748883
86	0xbe8122c7	-0.25221846
87	0x3cf2b5a8	0.029627636
88	0xbefe7fd8	-0.49706912
89	0xbdc3d0ea	-0.095613316
90	0x3e77ec33	0.24211197
91	0x3dc958c9	0.098313875
92	0x3e4a5a27	0.19760953
93	0xbd689539	-0.056782935
94	0x3e1e88da	0.15481892
95	0xbe0fa3a8	-0.14027274
96	0x3d569d1b	0.05239592
97	0xbc0b8d7e	-0.008517621
98	0x3d6fc57f	0.058537956
99	0x3d5fd329	0.054644737
100	0xbebd8da7	-0.37022135
101	0xbd92e559	-0.07172651
102	0xbdd949a0	-0.10609746
103	0x3d328dcb	0.043592256
104	0x3e492ec5	0.19646747
105	0xbcc3d847	-0.02390684
106	0x3d6b561e	0.057455175
107	0xbdfa8113	-0.1223165
108	0xbeb51dc2	-0.35374266
109	0xbe2f163d	-0.17098327
110	0x3e83e0e8	0.25757527
111	0x3d9206bf	0.07130193
112	0xbda23b15	-0.07921425
113	0x3cdb27d1	0.026752384
114	0xbed84817	-0.422425
115	0xbdb207b4	-0.086928755
116	0xbe47cfe8	-0.19512904
117	0xbd8a28d7	-0.06746071
118	0xbe216979	-0.15762891
119	0xbeb473c1	-0.35244563
120	0x3d7db0b2	0.061936088
121	0x3e0b18fd	0.13583751
122	0xbe21bc2a	-0.15794435
123	0x3e4c3196	0.1994079
124	0xbb0d9691	-0.0021604637
125	0xbd5494a4	-0.051899567
126	0x3e5cde4c	0.21569175
127	0xbd4950b4	-0.04914923
128	0xbdd19e87	-0.10235315
129	0x3d9523a7	0.07282191
130	0x3ddf0642	0.108898655
131	0x3dab76a0	0.08372235
132	0x3e6e61fe	0.23279569
133	0xbe7acb07	-0.24491511
134	0x3d3650de	0.044510715
135	0x3d8c800d	0.06860361
136	0x3e0a0122	0.13476995
137	0xbd0f2edc	-0.034956798
138	0xbcbf50af	-0.023353903
139	0xbdd2f6f8	-0.10301012
140	0x3ecf7721	0.40520576
141	0xbd2b51fe	-0.04182624
142	0xbd94d6f4	-0.072675616
143	0xbda82eab	-0.08212026
144	0x3e38c366	0.18043289
145	0x3e2326a6	0.15932712
146	0xbdaab2b9	-0.0833487
147	0xbe1929b1	-0.1495731
148	0x3e4d8d4b	0.2007343
149	0xbd2b9d91	-0.041898314
150	0x3e7ee834	0.24893266
151	0xbe06c9f9	-0.13162984
152	0xbe1a653c	-0.1507768
153	0x3e88127d	0.26576605
154	0xbdb359fa	-0.08757396
155	0xbd993d82	-0.07482435
156	0x3e6ea694	0.23305732
157	0xbdcfdd97	-0.10149687
158	0x3d8b3186	0.06796555
159	0x3ab57ea0	0.0013846941
160	0x3c1fca60	0.00975284
161	0x3dbd68a9	0.09248478
162	0x3d4e2721	0.050330285
163	0xbdb31788	-0.087447226
164	0xbe0dcc4b	-0.13847463
165	0x3da98918	0.08278102
166	0x3ddd1242	0.10794498
167	0x3e02dcb5	0.12779506
168	0x3d6c1018	0.057632536
169	0xbe236a35	-0.15958484
170	0xbdcc6818	-0.09980792
171	0xbcb69f4e	-0.02229276
172	0xbe152f8d	-0.1456892
173	0x3dd3a6e9	0.1033457
174	0xbdc4c40a	-0.09607704
175	0xbd801c2e	-0.06255375
176	0xb96b5400	-0.00022442639
177	0x3dce4cba	0.10073228
178	0x3aa61600	0.0012671351
179	0xbde08050	-0.10961974
180	0xbdc2eec7	-0.095181994
181	0x3b9eab37	0.0048421877
182	0xbe054837	-0.13015829
183	0xbe0d784d	-0.13815422
184	0x3d399524	0.045308247
185	0xbd89c32b	-0.067266785
186	0x3e055e40	0.13024235
187	0xbd96ef4a	-0.073698595
188	0xbca1cb98	-0.019750401
189	0x3d36bc48	0.044613153
190	0xbd81e2d1	-0.0634209
191	0x3d5073a7	0.050891545
192	0x3d89a9f3	0.06721868
193	0xbb08652f	-0.0020812263
194	0xbdccd613	-0.10001769
195	0x3d1b583a	0.037925936
196	0xbc356ee0	-0.011073798
197	0x3e1b8859	0.15188731
198	0x3d263ce4	0.040585414
199	0x3c969198	0.018379971
200	0xbf37a45f	-0.71735185
201	0x3d86f8ee	0.06590448
202	0x3e7f81e5	0.24951895
203	0xbf161389	-0.5862356
204	0x3e4bc735	0.1990021
205	0xbd63fe98	-0.05566272
206	0xbe20affd	-0.15692134
207	0xbc431c71	-0.011908636
208	0xbed26a3c	-0.41096675
209	0x3db2ecc9	0.087365694
210	0x3e34d638	0.17659843
211	0x3b4c8209	0.0031205437
212	0x3cfab259	0.03060262
213	0xbcf3360f	-0.029688863
214	0x3bf46b3c	0.0074590724
215	0xbdbcee07	-0.092250876
216	0xbe03cb76	-0.12870583
217	0x3d6fe8fa	0.058571793
218	0x3dd01fb8	0.101623
219	0x3dab492a	0.08363564
220	0xbecfcad1	-0.40584424
221	0x3db2ea9e	0.08736156
222	0x3de8a559	0.113596626
223	0xbd2cfea4	-0.04223503
224	0xbc198345	-0.009369676
225	0xbd6f4597	-0.058415975
226	0xbd4aa7ca	-0.049476422
227	0xbd888490	-0.06665909
228	0xbeab357b	-0.3343924
229	0x3c3e63e1	0.011620493
230	0x3dd6cffb	0.10488888
231	0x3db643a6	0.08899622
232	0x3e31a8b4	0.17349511
233	0x3cfa064e	0.030520584
234	0xbf08644c	-0.5327804
235	0x3e435d02	0.19078448
236	0xbd86a64d	-0.06574688
237	0x3d13541b	0.03596888
238	0x3cf1eefe	0.029532906
239	0xbee0cc7e	-0.43906015
240	0x3de0682c	0.10957369
241	0x3d7cb55b	0.06169639
242	0xbe0fae34	-0.14031297
243	0x3d656cc5	0.056011934
244	0x3d886e65	0.06661681
245	0x3d0dd558	0.03462729
246	0xbcd30d73	-0.025763249
247	0x3d2decc0	0.04246211
248	0x3d9f5dc2	0.07781555
249	0x3d9b333c	0.075781316
250	0xbcb7554e	-0.022379544
251	0xbdf53560	-0.11973071
252	0x3e20c157	0.15698753
253	0xbbbd1071	-0.0057697822
254	0xbdd7d69a	-0.10538979
255	0x3dc6fe4a	0.097164705

linear_relu_stack.6.bias f4 [50]
0	0xbd4feeee	-0.05076497
1	0xbcbd2060	-0.023086727
2	0x3d160a6e	0.03663104
3	0xbdc3596b	-0.095385395
4	0xbe0f9cf9	-0.14024724
5	0x3d74b8ab	0.059746426
6	0xbe1cebe6	-0.15324363
7	0xbe037910	-0.1283915
8	0xbd44a134	-0.048005298
9	0x3dc641cd	0.09680519
10	0x3dda3eb9	0.10656495
11	0x3e4bef64	0.19915539
12	0x3daebd3a	0.08532186
13	0x3d368421	0.0445596
14	0x3e0e19b6	0.13876995
15	0xbdf5d6a4	-0.1200383
16	0x3dd3cc6f	0.10341727
17	0x3ddd87e2	0.10816933
18	0x3d371274	0.044695333
19	0x3dd6faa1	0.104970224
20	0xbdb72f7a	-0.08944602
21	0x3d7d2287	0.061800506
22	0xbc7b2cf6	-0.015330544
23	0x3d8e7916	0.06956689
24	0x3dbccabe	0.092183575
25	0x3dcec705	0.10096554
26	0xbe1ddea5	-0.15416963
27	0x3c1d9242	0.00961739
28	0xbd3bbb86	-0.045833133
29	0x3df19a9a	0.11797066
30	0x3d9e08ed	0.07716546
31	0x3e36790d	0.17819615
32	0x3e3175bd	0.1733007
33	0x3e1517a2	0.14559796
34	0x3c47d029	0.012195625
35	0x3d471e0b	0.048612636
36	0xbe16bbe9	-0.1472012
37	0x3e40878f	0.18801711
38	0x3dcaf400	0.099098206
39	0x3dc13c95	0.09435383
40	0xbd9b62bb	-0.07587191
41	0x3d84b84d	0.06480465
42	0x3dce1547	0.10062652
43	0x3dcf1135	0.10110704
44	0xbe2a60fe	-0.16638562
45	0xbe0034ee	-0.12520191
46	0xbdce20ee	-0.100648746
47	0xbd4dfbfb	-0.050289135
48	0xbe2e87b1	-0.1704395
49	0xbddf85d0	-0.109141946

linear_relu_stack.8.weight f4 [1, 50]
0	0xbec70b46	-0.38875788
1	0x3dfd0e82	0.12356283
2	0x3e6b3e61	0.22973014
3	0x3dc5340f	0.0962907
4	0xbdf40003	-0.11914065
5	0x3e865e6a	0.26243907
6	0xbdc7eb30	-0.09761655
7	0xbbcbe800	-0.006222725
8	0x3dde33c6	0.10849719
9	0x3d943869	0.07237322
10	0x3dee5e89	0.11639125
11	0x3e4bb75f	0.1989417
12	0xbe452ab2	-0.19254568
13	0x3e0ceac7	0.13761435
14	0x3dfd5202	0.123691574
15	0xbc17c630	-0.00926356
16	0xbe01d982	-0.12680629
17	0x3e5965ee	0.2123029
18	0xbdcca29f	-0.09991955
19	0xbe1ab6c2	-0.15108779
20	0x3d8dcc0a	0.06923683
21	0xbe37af63	-0.17937998
22	0x3da6c717	0.08143442
23	0xbe49f98d	-0.19724102
24	0x3e46d604	0.19417578
25	0x3e133803	0.14376836
26	0x3de5562e	0.11198078
27	0x3c1b4692	0.0094772745
28	0x3d90e5c6	0.07075076
29	0x3d4f4d52	0.050610848
30	0xbdad06df	-0.08448576
31	0x3e80cf4d	0.25158158
32	0x3e577ace	0.2104294
33	0x3e323bfe	0.17405698
34	0x3bf8351d	0.007574691
35	0xbe22e081	-0.15905954
36	0xbe082536	-0.13295445
37	0x3e7d6507	0.2474557
38	0xbe2ab3af	-0.16670106
39	0xbde243fc	-0.11048123
40	0x3de7c4f8	0.11316866
41	0xbe71260d	-0.23549671
42	0x3dbd1de6	0.09234218
43	0x3e5087ea	0.20364347
44	0x3c6ce442	0.014458718
45	0x3de76912	0.112993374
46	0xbdb1faf0	-0.08690441
47	0xbee300bf	-0.44336507
48	0x3caade25	0.02085788
49	0x3ec09724	0.3761531

exp_avg f4 [50, 15]
0	0xb2df03f0	-2.5962407e-08
1	0x37dce18a	2.6331069e-05
2	0x378e2715	1.6945918e-05
3	0x36c7d477	5.9553963e-06
4	0x37845ffc	1.5780322e-05
5	0x378c94c9	1.6758584e-05
6	0xb6865030	-4.0028463e-06
7	0x380fa69a	3.4249017e-05
8	0x37fe519e	3.0317166e-05
9	0xb696a909	-4.4900266e-06
10	0x381803dc	3.624322e-05
11	0x80000004	-6e-45
12	0x00000004	6e-45
13	0x85d6454d	-2.014992e-35
14	0x381803dc	3.624322e-05
15	0xb219469b	-8.921826e-09
16	0x35368607	6.799532e-07
17	0x33805fd2	5.977894e-08
18	0xb4a0684f	-2.9878217e-07
19	0xb446a5fe	-1.8500575e-07
20	0xb45b8f44	-2.0448084e-07
21	0x33b937f2	8.62491e-08
22	0xb415a28c	-1.393584e-07
23	0xb3f3470b	-1.1328492e-07
24	0xb354738b	-4.9465182e-08
25	0xb406c262	-1.2550439e-07
26	0x00000004	6e-45
27	0x00000004	6e-45
28	0x0233800d	1.3187592e-37
29	0xb406c262	-1.2550439e-07
30	0x00000000	0.0
31	0x00000000	0.0
32	0x00000000	0.0
33	0x00000000	0.0
34	0x00000000	0.0
35	0x00000000	0.0
36	0x00000000	0.0
37	0x00000000	0.0
38	0x00000000	0.0
39	0x00000000	0.0
40	0x00000000	0.0
41	0x00000000	0.0
42	0x00000000	0.0
43	0x00000000	0.0
44	0x00000000	0.0
45	0x1e1ac176	8.192699e-21
46	0x1dfd6787	6.7075587e-21
47	0x1d197ea2	2.031485e-21
48	0x1db2e572	4.735345e-21
49	0x1c65a689	7.5984986e-22
50	0x1c6f4e3e	7.917959e-22
51	0x1ce0ca82	1.4875424e-21
52	0x1d863322	3.5522375e-21
53	0x1dbfb1f7	5.074129e-21
54	0x1dcb053f	5.3739077e-21
55	0x1e1ad881	8.197464e-21
56	0x00000004	6e-45
57	0x00000004	6e-45
58	0x00000004	6e-45
59	0x1e1ad881	8.197464e-21
60	0xb533751a	-6.68531e-07
61	0xb9036da5	-0.0001253398
62	0xb896369f	-7.162731e-05
63	0xb80a9694	-3.3042e-05
64	0xb8fe4237	-0.00012123997
65	0xb903a26d	-0.00012553642
66	0xb88a6525	-6.5991924e-05
67	0xb9959f5a	-0.0002853822
68	0xb984d106	-0.00025332737
69	0xb96c664b	-0.00022544821
70	0xb99f2554	-0.00030354655
71	0x80000004	-6e-45
72	0x80000004	-6e-45
73	0x867ba47f	-4.7328706e-35
74	0xb99f2554	-0.00030354655
75	0x0002f719	2.72313e-40
76	0x01e16d74	8.2809004e-38
77	0x01cc7663	7.510764e-38
78	0x0064a285	9.24185e-39
79	0x01a12b90	5.920457e-38
80	0x01aad6c8	6.2756333e-38
81	0x0162b67e	4.1640576e-38
82	0x02a1720c	2.3722284e-37
83	0x02a40c25	2.4104605e-37
84	0x027e3e76	1.8678898e-37
85	0x02a5c3bc	2.4356917e-37
86	0x80000004	-6e-45
87	0x00000004	6e-45
88	0x02a5c3bc	2.4356917e-37
89	0x00000004	6e-45
90	0xb206b871	-7.841764e-09
91	0x372e701f	1.0397313e-05
92	0x36b9454f	5.521498e-06
93	0x365bca2c	3.2751223e-06
94	0x3716ed18	8.995899e-06
95	0x371fc971	9.52404e-06
96	0xb55e2e53	-8.2768855e-07
97	0x37a1cb19	1.928727e-05
98	0x378f212a	1.7062372e-05
99	0x359f6861	1.1876801e-06
100	0x37ab04be	2.0386997e-05
101	0x80000004	-6e-45
102	0x00000004	6e-45
103	0x8533b6f1	-8.4501406e-36
104	0x37ab04be	2.0386997e-05
105	0x80000004	-6e-45
106	0x00000004	6e-45
107	0x00000004	6e-45
108	0x80000004	-6e-45
109	0x00000004	6e-45
110	0x00000004	6e-45
111	0x00000004	6e-45
112	0x00000004	6e-45
113	0x00000004	6e-45
114	0x00000004	6e-45
115	0x00000004	6e-45
116	0x00000004	6e-45
117	0x00000000	0.0
118	0x00000000	0.0
119	0x00000000	0.0
120	0x1ef39101	2.5788598e-20
121	0x1f21b8d5	3.4245966e-20
122	0x1e43ed13	1.037224e-20
123	0x1ee71888	2.4468222e-20
124	0x1cce8da7	1.3668553e-21
125	0x1c7739e2	8.1800256e-22
126	0x1e0f78aa	7.59531e-21
127	0x1ea39aa3	1.7322253e-20
128	0x1e9626f1	1.5897974e-20
129	0x1e70faf9	1.2757394e-20
130	0x1f45a476	4.185241e-20
131	0x00000000	0.0
132	0x00000000	0.0
133	0x0438bb3d	2.1715072e-36
134	0x1f45a476	4.185241e-20
135	0x336112c7	5.2403973e-08
136	0xb863758e	-5.42305e-05
137	0xb7f32b43	-2.8988003e-05
138	0xb729830d	-1.0103698e-05
139	0xb822123e	-3.86408e-05
140	0xb827d9ea	-4.001885e-05
141	0xb76f97ed	-1.4280883e-05
142	0xb8b61702	-8.682722e-05
143	0xb8a160c9	-7.695106e-05
144	0xb8777f79	-5.9008107e-05
145	0xb8c11d72	-9.208442e-05
146	0x80000004	-6e-45
147	0x00000004	6e-45
148	0x04c0309f	4.5183634e-36
149	0xb8c11d72	-9.208442e-05
150	0x3265d703	1.3378442e-08
151	0x34cf8057	3.8650134e-07
152	0x34947914	2.7655244e-07
153	0x35a77600	1.2476812e-06
154	0xb565abbc	-8.5559054e-07
155	0xb555e0fa	-7.967607e-07
156	0xb64507f6	-2.9359921e-06
157	0xb5dc1a10	-1.6398862e-06
158	0xb5c13824	-1.439596e-06
159	0xb7044dbb	-7.885911e-06
160	0xb5e56a52	-1.7092773e-06
161	0x80000004	-6e-45
162	0x80000004	-6e-45
163	0x00000004	6e-45
164	0xb5e56a52	-1.7092773e-06
165	0xb37ec025	-5.9313738e-08
166	0xb81db633	-3.7601403e-05
167	0xb7a90939	-2.0150665e-05
168	0xb6e53bc0	-6.8316876e-06
169	0xb7d25726	-2.5074532e-05
170	0xb7d8e7a9	-2.5857082e-05
171	0xb74928ed	-1.1990062e-05
172	0xb87b0724	-5.9849714e-05
173	0xb85ef497	-5.3156717e-05
174	0xb838eceb	-4.4089666e-05
175	0xb885a323	-6.372321e-05
176	0x80000004	-6e-45
177	0x80000004	-6e-45
178	0x8492549b	-3.4402133e-36
179	0xb885a323	-6.372321e-05
180	0x1f3028a3	3.7303064e-20
181	0x1f60a9e0	4.7574362e-20
182	0x1e8816f4	1.4409053e-20
183	0x1f206457	3.3964317e-20
184	0x1d20f688	2.1303277e-21
185	0x1cd89e66	1.4334626e-21
186	0x1e474f13	1.05513244e-20
187	0x1ee3fc88	2.4139004e-20
188	0x1ed94ce5	2.3007572e-20
189	0x1eb428a6	1.9075053e-20
190	0x1f89483f	5.814128e-20
191	0x00000004	6e-45
192	0x80000004	-6e-45
193	0x00000000	0.0
194	0x1f89483f	5.814128e-20
195	0xb3a45141	-7.651625e-08
196	0xb7a84a93	-2.0061887e-05
197	0xb760657b	-1.3375068e-05
198	0xb674d93f	-3.6485287e-06
199	0xb77c4325	-1.5036004e-05
200	0xb781f40f	-1.5491647e-05
201	0xb71eb26f	-9.459079e-06
202	0xb81422c8	-3.5318342e-05
203	0xb8037163	-3.1338433e-05
204	0xb7ec31f3	-2.8156652e-05
205	0xb81d71f9	-3.7537862e-05
206	0x80000004	-6e-45
207	0x80000004	-6e-45
208	0x85750168	-1.1520103e-35
209	0xb81d71f9	-3.7537862e-05
210	0xb2a21a6e	-1.8871301e-08
211	0xb803a3b6	-3.13853e-05
212	0xb7863af0	-1.600149e-05
213	0xb64de5e2	-3.068119e-06
214	0xb720e362	-9.589685e-06
215	0xb7274db4	-9.972067e-06
216	0x3622f39c	2.428168e-06
217	0xb7eac19b	-2.7985128e-05
218	0xb7d20067	-2.5034138e-05
219	0xb6813cc5	-3.851574e-06
220	0xb7fd3693	-3.0185363e-05
221	0x00000004	6e-45
222	0x80000004	-6e-45
223	0x05858fb0	1.2560042e-35
224	0xb7fd3693	-3.0185363e-05
225	0x32e4c1eb	2.6630877e-08
226	0x37569fd8	1.27926105e-05
227	0x36d07df3	6.2135455e-06
228	0x34b064fe	3.2856036e-07
229	0x36d7e5e4	6.434262e-06
230	0x36df256e	6.6502753e-06
231	0x362800f7	2.5034512e-06
232	0x3791152f	1.7295211e-05
233	0x37814cd1	1.5413769e-05
234	0x3703e372	7.861165e-06
235	0x379b6df5	1.8528643e-05
236	0x80000004	-6e-45
237	0x00000004	6e-45
238	0x84b7d7cf	-4.3221282e-36
239	0x379b6df5	1.8528643e-05
240	0x060f9bf0	2.7009876e-35
241	0x0ecd0c49	5.0548232e-30
242	0x0d9f68aa	9.8243285e-31
243	0x035a41a8	6.413981e-37
244	0x0ec11ca2	4.7605746e-30
245	0x0ec18584	4.7706744e-30
246	0x0d9ac7a8	9.539048e-31
247	0x0da2d26e	1.003468e-30
248	0x0d1a9dc8	4.7644836e-31
249	0x0e1cd545	1.933117e-30
250	0x0ed84bda	5.3321154e-30
251	0x80000004	-6e-45
252	0x00000004	6e-45
253	0x00000004	6e-45
254	0x0ed84bda	5.3321154e-30
255	0x329fb7b4	1.8593575e-08

exp_avg_sq f4 [50, 15]
0	0x35bba672	1.3981028e-06
1	0x383006a6	4.196786e-05
2	0x374fbeca	1.2382583e-05
3	0x36606b40	3.3441029e-06
4	0x3783eee2	1.5727655e-05
5	0x37865a31	1.6016043e-05
6	0x36a79ad6	4.995013e-06
7	0x37151a4a	8.887213e-06
8	0x36b5c36e	5.4169714e-06
9	0x381ab7c5	3.688761e-05
10	0x38d1097e	9.967665e-05
11	0x36996b00	4.5722118e-06
12	0x38364d52	4.346419e-05
13	0x367505ef	3.6511299e-06
14	0x38c93d78	9.595876e-05
15	0x3327c42e	3.9061142e-08
16	0x361f12d7	2.3703813e-06
17	0x3568ed33	8.6771905e-07
18	0x346d0f72	2.2077964e-07
19	0x341b1578	1.444331e-07
20	0x34197243	1.4290804e-07
21	0x34a8e727	3.1460624e-07
22	0x34fba5d5	4.6873052e-07
23	0x3427918f	1.5606041e-07
24	0x361cad3b	2.3346645e-06
25	0x3716da4b	8.991522e-06
26	0x3306d1ce	3.1390123e-08
27	0x34be2c1c	3.5422352e-07
28	0x33d03944	9.696171e-08
29	0x371537e4	8.894105e-06
30	0x00000000	0.0
31	0x00000000	0.0
32	0x00000000	0.0
33	0x00000000	0.0
34	0x00000000	0.0
35	0x00000000	0.0
36	0x00000000	0.0
37	0x00000000	0.0
38	0x00000000	0.0
39	0x00000000	0.0
40	0x00000000	0.0
41	0x00000000	0.0
42	0x00000000	0.0
43	0x00000000	0.0
44	0x00000000	0.0
45	0x3227427f	9.735799e-09
46	0x379e40a4	1.8865168e-05
47	0x36f53ffa	7.309017e-06
48	0x35a72e33	1.2455915e-06
49	0x366e090e	3.5470034e-06
50	0x3682ef36	3.9021497e-06
51	0x362e8ff7	2.601182e-06
52	0x349bad09	2.89969e-07
53	0x3413c09c	1.3760513e-07
54	0x37734398	1.4499667e-05
55	0x32476faf	1.1608718e-08
56	0x26ac904f	1.1974012e-15
57	0x38a2db5e	7.765622e-05
58	0x2164365e	7.732136e-19
59	0x32476faf	1.1608718e-08
60	0x31c5f4fa	5.761305e-09
61	0x396a2fdf	0.00022333812
62	0x38b7bd4c	8.761379e-05
63	0x37854fc6	1.5891983e-05
64	0x38b17975	8.462641e-05
65	0x38b55ced	8.648061e-05
66	0x3804d459	3.1669017e-05
67	0x381eab58	3.782971e-05
68	0x373b95e1	1.1180965e-05
69	0x394f59db	0.00019774532
70	0x3a16aee4	0.00057481066
71	0x33d74423	1.0024112e-07
72	0x39bf5a23	0.00036497516
73	0x36647553	3.404294e-06
74	0x3a15ca59	0.0005714051
75	0x2f067376	1.2228249e-10
76	0x367b9207	3.7486914e-06
77	0x35b0e19a	1.317868e-06
78	0x345019dd	1.9380919e-07
79	0x355b4a15	8.169166e-07
80	0x356d7956	8.8465947e-07
81	0x350fca09	5.356565e-07
82	0x33ccf234	9.543547e-08
83	0x3346fcf2	4.633052e-08
84	0x3689287b	4.0876307e-06
85	0x32337d17	1.0447613e-08
86	0x351c802a	5.830103e-07
87	0x377a664f	1.4924982e-05
88	0x31048c2e	1.928821e-09
89	0x276cf00b	3.2881707e-15
90	0x35208bf0	5.980828e-07
91	0x374630fc	1.1813125e-05
92	0x367e43bd	3.7888378e-06
93	0x359db082	1.1748782e-06
94	0x369354de	4.3908212e-06
95	0x3696475b	4.4786552e-06
96	0x35c4d793	1.4665878e-06
97	0x36258860	2.4666297e-06
98	0x35c62270	1.4762172e-06
99	0x37383d43	1.0981518e-05
100	0x37ead350	2.7993374e-05
101	0x35a26ee3	1.2102213e-06
102	0x376f754c	1.427282e-05
103	0x3539d88c	6.923299e-07
104	0x37e4de9d	2.728338e-05
105	0x2e12b325	3.335567e-11
106	0x33ddf6fc	1.0336041e-07
107	0x3293325d	1.7135955e-08
108	0x315f74c2	3.251714e-09
109	0x3249ee7f	1.1753968e-08
110	0x3248b543	1.1682746e-08
111	0x32304d00	1.0262056e-08
112	0x3145d33b	2.8787344e-09
113	0x310b3f61	2.026319e-09
114	0x33172a7d	3.519607e-08
115	0x319bcd13	4.534408e-09
116	0x34a69aee	3.1032636e-07
117	0x00000000	0.0
118	0x00000000	0.0
119	0x00000000	0.0
120	0x353489c1	6.7255684e-07
121	0x35b177d7	1.3222406e-06
122	0x3432f4bb	1.6666574e-07
123	0x35211a5e	6.0015543e-07
124	0x3214838c	8.644644e-09
125	0x31f1e1c6	7.0396906e-09
126	0x339e1d3d	7.362767e-08
127	0x34a95682	3.1541646e-07
128	0x34935253	2.7440782e-07
129	0x346a1246	2.1799596e-07
130	0x3615ae80	2.2304303e-06
131	0x00000000	0.0
132	0x00000000	0.0
133	0x3505d1cd	4.985166e-07
134	0x35e8743c	1.7319176e-06
135	0x30f88b65	1.8083993e-09
136	0x387c22d7	6.011393e-05
137	0x37c62933	2.3622624e-05
138	0x368c4fda	4.181621e-06
139	0x38498dea	4.8054302e-05
140	0x384b291c	4.8437258e-05
141	0x370aba3b	8.268801e-06
142	0x3795f2ee	1.7875307e-05
143	0x36d318ee	6.291192e-06
144	0x3833192b	4.2700365e-05
145	0x39810d30	0.00024614623
146	0x2b7c11b9	8.955298e-13
147	0x2897c607	1.6850248e-14
148	0x353767ef	6.8324056e-07
149	0x3980b175	0.00024546278
150	0x3244a705	1.1446677e-08
151	0x34378ce5	1.709446e-07
152	0x33200d26	3.726486e-08
153	0x3283401f	1.5279566e-08
154	0x3214c75d	8.660064e-09
155	0x321fb136	9.295311e-09
156	0x328e335c	1.6554331e-08
157	0x3377ee77	5.772605e-08
158	0x338a2b01	6.433948e-08
159	0x34184a9e	1.4183249e-07
160	0x342000ec	1.4901497e-07
161	0x32941f0b	1.7243584e-08
162	0x34b22d65	3.3188113e-07
163	0x2aec5bae	4.1985637e-13
164	0x341fbb92	1.4876267e-07
165	0x3597f89d	1.1322733e-06
166	0x380aed08	3.3122516e-05
167	0x374a6d6c	1.2065615e-05
168	0x3674db6f	3.648656e-06
169	0x37233499	9.727803e-06
170	0x37263a03	9.907878e-06
171	0x36910c42	4.3227637e-06
172	0x36c148a1	5.7603033e-06
173	0x35fee236	1.8990311e-06
174	0x37fa2d24	2.9823343e-05
175	0x38b896bd	8.801881e-05
176	0x350bc32f	5.2065565e-07
177	0x382bd67f	4.0969342e-05
178	0x34ea0602	4.3590268e-07
179	0x38b7a8a3	8.757531e-05
180	0x359a85c9	1.1512831e-06
181	0x3702c22a	7.793811e-06
182	0x3613f93f	2.2049787e-06
183	0x35b9dca9	1.3847795e-06
184	0x35987db2	1.1361465e-06
185	0x35a657ac	1.239348e-06
186	0x3563967b	8.478307e-07
187	0x3521542f	6.0099677e-07
188	0x3501aae9	4.830495e-07
189	0x36a5d7d8	4.9425107e-06
190	0x3644f301	2.9347723e-06
191	0x226f5698	3.2436382e-18
192	0x37bc90bf	2.2478749e-05
193	0x00000000	0.0
194	0x3644f301	2.9347723e-06
195	0x35062bd3	4.998266e-07
196	0x377f400e	1.5214098e-05
197	0x36b80b65	5.484954e-06
198	0x35f1f490	1.8027076e-06
199	0x3636568f	2.7170497e-06
200	0x36396e39	2.7631306e-06
201	0x36086261	2.0322843e-06
202	0x36325f3e	2.6579505e-06
203	0x35731502	9.0555125e-07
204	0x377468a6	1.4567899e-05
205	0x383cb7d5	4.49939e-05
206	0x357a041d	9.3138243e-07
207	0x377ec567	1.5185541e-05
208	0x3519adc7	5.724982e-07
209	0x383a4273	4.440774e-05
210	0x34007ff0	1.1967472e-07
211	0x36f234c0	7.218303e-06
212	0x35afae2f	1.308921e-06
213	0x3497e7b1	2.829452e-07
214	0x35daecd2	1.631119e-06
215	0x35dbb924	1.6370655e-06
216	0x352dafb8	6.4703227e-07
217	0x35c494e1	1.4646467e-06
218	0x358cc34f	1.0487655e-06
219	0x368aed0d	4.140317e-06
220	0x377de428	1.5133097e-05
221	0x3504e843	4.951182e-07
222	0x367f8b61	3.807909e-06
223	0x35d12ec9	1.558533e-06
224	0x37639f43	1.3567335e-05
225	0x2ea4210e	7.463728e-11
226	0x3628a415	2.512946e-06
227	0x3528754f	6.2755583e-07
228	0x340501c1	1.2387228e-07
229	0x351041ba	5.3739825e-07
230	0x351215bf	5.4420883e-07
231	0x349244e0	2.7244732e-07
232	0x34d54ecf	3.9731682e-07
233	0x3441aa01	1.8036373e-07
234	0x35f7b733	1.8456252e-06
235	0x36b7fd45	5.4833095e-06
236	0x34bbd110	3.4983577e-07
237	0x36108806	2.1536848e-06
238	0x3465a611	2.1387702e-07
239	0x36b0a433	5.264324e-06
240	0x2ecf61a2	9.430613e-11
241	0x36bbe59a	5.5997634e-06
242	0x35da4788	1.6263084e-06
243	0x3464ccea	2.1308702e-07
244	0x359226c6	1.0889132e-06
245	0x359d13eb	1.1703208e-06
246	0x3534017a	6.7057374e-07
247	0x34062bd2	1.2495664e-07
248	0x3386b896	6.273437e-08
249	0x36a7cf5a	5.0011267e-06
250	0x3329cbee	3.953385e-08
251	0x3634cccf	2.6941304e-06
252	0x37908431	1.7227694e-05
253	0x2ea56fbb	7.5231786e-11
254	0x2ecbc763	9.2667894e-11
255	0x2dcb1734	2.3088732e-11

exp_avg f4 [50]
0	0x381803e8	3.6243262e-05
1	0xb406c258	-1.2550424e-07
2	0x00000000	0.0
3	0x1e1ad881	8.197464e-21
4	0xb99f2553	-0.00030354652
5	0x02a5c3bc	2.4356917e-37
6	0x37ab04c5	2.038701e-05
7	0x00000004	6e-45
8	0x1f45a476	4.185241e-20
9	0xb8c11d74	-9.208443e-05
10	0xb5e56a26	-1.7092723e-06
11	0xb885a324	-6.3723215e-05
12	0x1f89484e	5.8141375e-20
13	0xb81d71f8	-3.753786e-05
14	0xb7fd369a	-3.0185376e-05
15	0x379b6df7	1.8528646e-05
16	0x0ed84bda	5.3321154e-30
17	0x37251483	9.839542e-06
18	0xb6e0d087	-6.699996e-06
19	0x000c6c6b	1.140919e-39
20	0xb71c95fe	-9.333247e-06
21	0x375fa91a	1.3331208e-05
22	0xb54c35da	-7.6074286e-07
23	0x1d8af578	3.6782105e-21
24	0x1cf1ed4a	1.600938e-21
25	0x00000004	6e-45
26	0x18d31f74	5.457398e-24
27	0x85725a54	-1.1395376e-35
28	0x00000004	6e-45
29	0x37913cff	1.731375e-05
30	0x9c687d09	-7.6923965e-22
31	0x37448252	1.1712853e-05
32	0x36afa8de	5.235065e-06
33	0xb72014fb	-9.541628e-06
34	0x00000004	6e-45
35	0xb7358459	-1.0819255e-05
36	0x00000000	0.0
37	0x363e57b8	2.8363265e-06
38	0xb86eacfb	-5.6904722e-05
39	0x00000004	6e-45
40	0xb6b58870	-5.4101038e-06
41	0x38a41df2	7.825707e-05
42	0xb7ec647a	-2.818018e-05
43	0x9cfb82f7	-1.664364e-21
44	0x1d6b5be1	3.1149491e-21
45	0x37700341	1.4305872e-05
46	0x8400b8c4	-1.5131168e-36
47	0xb78522c5	-1.5871026e-05
48	0x00000000	0.0
49	0x00000004	6e-45

exp_avg_sq f4 [50]
0	0x391aceef	0.00014763673
1	0x371d507e	9.37667e-06
2	0x00000000	0.0
3	0x38a2e1a1	7.7667886e-05
4	0x3a766277	0.00093988277
5	0x37821f3d	1.5511754e-05
6	0x38364548	4.3456705e-05
7	0x34a69aee	3.1032636e-07
8	0x3615ae80	2.2304303e-06
9	0x39810d30	0.00024614623
10	0x3505a69d	4.9788815e-07
11	0x3907caa6	0.00012950096
12	0x37d52f28	2.5413538e-05
13	0x38802081	6.10957e-05
14	0x37a2fad9	1.9428715e-05
15	0x3705e94a	7.981735e-06
16	0x37a720f9	1.9923305e-05
17	0x3609f011	2.0554328e-06
18	0x37668010	1.3738885e-05
19	0x374310a1	1.1626777e-05
20	0x35321b4a	6.634988e-07
21	0x393bd1b2	0.00017911827
22	0x3763dc7f	1.3581593e-05
23	0x331770d5	3.5260047e-08
24	0x35b5aca1	1.3535793e-06
25	0x299d2d56	6.980065e-14
26	0x3781db68	1.5480167e-05
27	0x37b6118b	2.170426e-05
28	0x2a92d046	2.6079329e-13
29	0x38466138	4.729742e-05
30	0x369eeb19	4.736136e-06
31	0x35ee646b	1.7761607e-06
32	0x34ce0b5f	3.8378764e-07
33	0x38b5c342	8.667122e-05
34	0x2b1fa0d6	5.671135e-13
35	0x37940942	1.7647286e-05
36	0x00000000	0.0
37	0x315d2a0e	3.2183638e-09
38	0x395aa78d	0.00020852518
39	0x2fada053	3.1582434e-10
40	0x39fede42	0.0004861225
41	0x3917778c	0.00014445017
42	0x37e0aa81	2.6782278e-05
43	0x370ef844	8.521663e-06
44	0x382470bd	3.9205643e-05
45	0x37e4ad49	2.726041e-05
46	0x35838e4f	9.801678e-07
47	0x3808de0f	3.2631735e-05
48	0x00000000	0.0
49	0x2b6d1cf5	8.42395e-13
